Net/LSTM_Testmachine_sourceforcast_net_params.pkl (torch, 357518 bytes, 16 tensors)

lstm.weight_ih_l0 f4 [256, 8]
000000 3b f5 24 3e e6 56 95 be 46 d2 3b bd f8 71 2c 3e
       0.16109173 -0.2916786 -0.04585483 0.1684035
000010 74 a1 61 bd 15 50 58 3e e3 3a 84 be 10 dc 6c 3e
       -0.055085614 0.21124299 -0.25826177 0.23130822
000020 31 5e 7f bd 80 5c 4a bd 69 67 06 3e 5d 76 33 be
       -0.062345687 -0.04940462 0.13125385 -0.17525621
000030 f7 d8 de bd 02 79 2f b8 81 40 18 bf e4 79 d8 be
       -0.108812265 -4.183595e-05 -0.59473425 -0.42280495
000040 f5 5e 48 3e b7 dc 99 3e 10 4c 0e bd ac d1 62 be
       0.19567473 0.30051205 -0.034740508 -0.22150296
000050 29 f5 57 be d5 cf 72 3d 77 30 b6 3e 53 f3 8a 3e
       -0.21089615 0.059280235 0.3558385 0.27138767
000060 7e 32 04 bc 45 57 71 3d 8c 4c f2 3e 35 e8 47 3e
       -0.008068679 0.058921117 0.47324026 0.19522174
000070 69 80 ae bd fd 4d 58 3e 9f 96 2b 3c 05 e8 c9 3e
       -0.08520586 0.211235 0.010472923 0.3943483
000080 a5 91 5a be 60 b1 0c 3e d9 67 4d 3e 1d a0 7e 3c
       -0.21344621 0.13739538 0.20059146 0.015541104
000090 a8 b4 9b 3e 62 cc f5 bd 46 74 d6 3e d0 af 25 be
       0.30411267 -0.120018736 0.41885585 -0.16180348
0000a0 ec b0 ee 3a 53 8d d0 3d 89 f0 84 3c 21 38 bf bd
       0.0018210686 0.101832055 0.016227977 -0.093368776
0000b0 4c ca 05 3e 31 d0 db bc 36 7d c1 3d 42 3b 2b be
       0.13065451 -0.026832672 0.0944771 -0.16721824
0000c0 fa 7d 68 3d 21 9b 74 bc f5 b7 ae bd 8c eb 5e 3e
       0.056760766 -0.014929564 -0.08531181 0.21769542
0000d0 dc 3b 78 3d 01 66 0f 3e 87 df d9 3d 2b 91 80 3d
       0.06060396 0.14003755 0.106383376 0.062776886
0000e0 27 48 42 3e d1 4a 8b be ae d5 6b be 29 7a 26 3b
       0.18972836 -0.27205518 -0.23030731 0.0025402403
0000f0 6b 1a 25 3f 1e af 19 3f bc ba 12 bf c1 da 21 be
       0.64493436 0.6003283 -0.57316184 -0.15806104
000100 84 6c 2c 3b d2 bb d4 3e 36 51 cc bd 82 f0 d8 3e
       0.0026309798 0.41549546 -0.09976427 0.42370993
000110 bf 8b 23 3d 01 4a be 3e 78 0e 82 3e e8 07 a9 3d
       0.039928194 0.37165835 0.25401664 0.08253461
000120 63 24 59 3c a3 9f 59 bd 56 90 db 3e 62 b4 9e 3d
       0.013253304 -0.053130757 0.42883557 0.07749249
000130 08 b8 ce bb e1 93 dc 3c 68 99 a0 3e 5b 81 40 3b
       -0.0063085593 0.026925983 0.3136704 0.0029373977
000140 78 d9 8a 3d 27 09 89 be e3 f5 d4 be ab 05 8c 3e
       0.0677976 -0.26764795 -0.41593847 0.27348074
000150 7a 78 9d bc af e2 4e 3e 4f 6e 08 bc 58 3c 45 be
       -0.019222487 0.2020366 -0.008327081 -0.192613
000160 e5 93 41 3e 3b b2 6a 3c b8 14 98 be 2b 60 9b be
       0.18904074 0.01432472 -0.29703307 -0.30346808
000170 c6 fb d0 3d 8e 8e 56 3d 4a fe b8 bc c9 86 ae 3e
       0.10204272 0.052382044 -0.022582192 0.34087208
000180 0d 5f fa bc 6e 55 5c bc 13 bd fd bd 5a 5e f1 3d
       -0.030562902 -0.013448102 -0.12389579 0.11785574
000190 fb d0 70 be b6 8c 92 3e 70 33 44 3e 46 53 9f bd
       -0.2351722 0.2862298 0.19160247 -0.07779555
0001a0 2e 61 3c 3c 33 27 85 3d b9 ac 3b be 9e b7 66 3e
       0.011497779 0.06501617 -0.18327607 0.22530982
0001b0 fa 50 dc bd 8b de 82 bd e9 bb 24 bd fe f8 94 3e
       -0.107576326 -0.06390103 -0.040218268 0.29096216
0001c0 b6 23 27 be ad dc 3d 3e 79 f3 41 be c8 29 2d 3e
       -0.16322216 0.18541212 -0.18940534 0.1691047
0001d0 c8 ae 6e 3c e0 38 22 3e 23 a5 03 be f1 04 db bd
       0.014568038 0.15842009 -0.12855963 -0.10694302
0001e0 68 7a ad bd a3 9e 08 3c a4 61 b6 3b 76 3e 2f 3f
       -0.08470613 0.008338603 0.005565839 0.6845468
0001f0 ee 00 37 bc bd 68 57 bd fe 53 60 3d a7 91 53 3d
       -0.011169655 -0.05259012 0.0547676 0.051652577
000200 5e e3 e8 3b 42 f8 7c 3d 12 a5 91 be bd ba 12 3c
       0.0071071824 0.061760195 -0.2844625 0.008955655
000210 42 40 20 bd 2b 29 ca bc 29 f3 44 bd 89 aa c2 bd
       -0.03912378 -0.024677834 -0.048083458 -0.09505183
000220 03 78 22 3d 74 af ba bd ec 36 93 3e 53 93 a8 bd
       0.039665233 -0.09115496 0.2875284 -0.08231225
000230 1a 16 87 be fc 79 59 be 54 a8 a3 3d e0 2e d3 3d
       -0.2638405 -0.2123794 0.079910904 0.10311675
000240 d1 89 2f 3d 52 af be bd 3d 10 a7 3d 22 42 29 be
       0.04285604 -0.093107834 0.08157394 -0.16529134
000250 b2 5a 57 3e 85 7b 8b bd e8 09 a4 3c 97 c9 31 3d
       0.21030691 -0.06810669 0.020024255 0.04340514
000260 09 25 2f be 68 a8 22 3e 44 ce 16 bc db 0e 85 be
       -0.17103972 0.15884554 -0.009204451 -0.25987896
000270 f0 af 9f bc 6b 00 de 3d 46 94 ef bc 89 69 27 3e
       -0.019493073 0.108399235 -0.029245507 0.16348852
000280 cd 0f 09 bd 2d fd 8d bd 94 f1 ce be c1 11 fb 3d
       -0.033462334 -0.06933055 -0.40418684 0.12259246
000290 a4 0c 0e be 7f 20 5e 3c ff 2b 89 3e 81 0a c8 3d
       -0.1387201 0.013557552 0.2679138 0.097676285
0002a0 25 9d bd ba 49 ae 93 3e 23 7c 29 be 24 92 82 3c
       -0.0014466388 0.28843907 -0.1655126 0.015938826
0002b0 9e c4 f7 be 4e 7e 8b 3e e1 e2 31 bd 99 93 de be
       -0.48392195 0.272448 -0.04342926 -0.43471983
0002c0 17 a7 e3 be 37 71 6c 3d d4 f6 44 bc 53 73 31 be
       -0.44463417 0.057725158 -0.012021739 -0.17329149
0002d0 54 94 c5 3e 5b 2e dd bd b4 40 c8 be 3c 2c c4 3e
       0.38589728 -0.10799857 -0.39111865 0.38314998
0002e0 56 c7 6d 3c 7a b9 8a 3e e3 5d 72 3e b1 1a 67 be
       0.014512857 0.27094632 0.23668627 -0.22568776
0002f0 b9 75 b0 bd 4b 54 76 3d d5 9c c5 3d 46 f1 dc 3d
       -0.08616204 0.06013898 0.09649054 0.10788207
000300 65 2b 91 be 8d e6 d8 3d 10 56 56 be 18 c2 3a be
       -0.2835342 0.10590849 -0.20931268 -0.18238103
000310 96 5f 0a 3f cf ed 54 be 26 7c 35 be c1 ba 22 be
       0.540521 -0.20793842 -0.1772314 -0.15891553
000320 a9 e0 f1 be af f5 ef bc b6 da 23 be 25 41 13 3e
       -0.47241715 -0.029291956 -0.160014 0.1438032
000330 38 97 94 be a0 ec 9e 3e d6 e3 4b 3e 66 fa ab 3e
       -0.2902162 0.31039906 0.19911131 0.33589476
000340 0a 43 52 be d6 e0 e5 be be 2b 4e bd 01 cc 02 bd
       -0.20533386 -0.448981 -0.050334685 -0.031932835
000350 2e 10 1e 3f 69 6f d7 be 80 b4 87 bc 17 5c a5 3e
       0.6174344 -0.42077187 -0.016565561 0.3229682
000360 cd a6 66 be 39 0a 8e 3d 81 57 ce 3e 94 86 c3 3e
       -0.22524567 0.069355436 0.40301135 0.38188612
000370 d3 f8 9c be c5 f3 f5 bd 24 b1 3e be e6 a9 25 be
       -0.30658588 -0.12009386 -0.18622261 -0.16178092
000380 80 12 7e 3b 96 e5 d3 be d3 c6 f9 3c 17 87 b7 bd
       0.003876835 -0.41386098 0.030490315 -0.08961313
000390 46 a0 eb 3e 7f 84 03 3f 69 ea 23 3e f4 01 b9 3d
       0.46020716 0.5137405 0.16007389 0.09033576
0003a0 d7 57 2e be 1d c7 0f be fb a5 2c be 61 fd d8 bc
       -0.17025696 -0.140408 -0.16860192 -0.026488008
0003b0 54 64 8e be f3 af c7 bd 68 00 85 bc 78 b4 9e be
       -0.2781092 -0.097503565 -0.016235545 -0.30997062
0003c0 30 7c 94 3e 99 5b a0 3e 8a d7 8c bd 14 e4 36 3d
       0.29000998 0.31319883 -0.06877048 0.044651106
0003d0 21 2f 74 be b4 09 b8 be 25 52 8f bd fb b4 a3 3d
       -0.23846103 -0.35944903 -0.0699809 0.07993504
0003e0 27 74 8e be f1 f6 27 bd 46 8d 73 3c 91 f6 1a 3c
       -0.27822992 -0.041006986 0.014865225 0.0094582
0003f0 bb 54 82 be 6d 2c f0 bd 36 26 04 bd 0e fd 21 3e
       -0.2545527 -0.117272235 -0.032263003 0.15819189

lstm.weight_hh_l0 f4 [256, 64]
000000 3b 1e 91 bd cf 80 21 be 6f 92 5d bf 84 c6 35 bf
       -0.07085844 -0.15771793 -0.86551565 -0.71006036
000010 3a c9 19 bf c3 c9 5d bd ff 55 0b 3e f5 b5 65 3f
       -0.6007267 -0.054147493 0.13607024 0.8973077
000020 86 2a d9 3d aa 0b bb 3e 7d 13 e6 bd 08 a4 2b 3f
       0.10603814 0.36532336 -0.11234186 0.67047167
000030 b5 32 30 be aa 3e a6 3c f5 9b 88 3d aa 35 98 bd
       -0.17206843 0.020293552 0.066703714 -0.074321106
000040 d9 ec f1 bd ba 82 df 3e 29 29 c9 be b0 02 0f 3f
       -0.11812753 0.43654424 -0.39289215 0.55863476
000050 7e e8 7e 3e 56 38 26 be 83 d0 16 bf 76 49 e2 bc
       0.24893376 -0.16232428 -0.58911914 -0.02762292
000060 2d be 11 bd 2c 56 a0 3e 3c 88 ed 3e 90 d5 9a 3e
       -0.035581756 0.31315744 0.46393 0.3024106
000070 79 f2 47 be ef f3 2f bd 7c d3 c8 3e 0d 76 27 be
       -0.1952609 -0.042957243 0.3922385 -0.16353627
000080 4b 10 84 3e 54 25 43 bc a3 4f 33 bf 5a 0d 05 bf
       0.2579368 -0.011910755 -0.7004339 -0.519735
000090 72 90 0c be 83 97 49 3d 30 c0 0f be ca f5 7a be
       -0.13726977 0.04921676 -0.14038157 -0.24507824
0000a0 e8 e6 b9 3d 06 b6 b3 be 72 79 7e be f2 60 bb 3d
       0.09077245 -0.3509981 -0.24851015 0.0914935
0000b0 61 f8 53 be ff 9e a4 3d 4f da 23 be c9 f4 2e 3e
       -0.20700218 0.080381386 -0.16001247 0.17085566
0000c0 13 b8 bd bd 6c 33 be bd b9 53 23 3e be 0d 00 bf
       -0.09263625 -0.09287152 0.15949906 -0.5002097
0000d0 c7 48 52 3e 09 7a 28 be 70 9e bb be 73 6a b5 bc
       0.20535575 -0.16452803 -0.36644316 -0.022145486
0000e0 af ca 39 bf 1e 04 07 3d bc 8e 35 3c e9 87 a5 3e
       -0.72574896 0.03296291 0.011081394 0.32330254
0000f0 a1 ce bb 3e 5a 60 91 bf 74 f5 93 3e 58 3f 21 3f
       0.36681083 -1.1357529 0.28898203 0.6298728
000100 02 0a 14 be f3 ab ba 3d 98 13 08 bc 4c 4c 50 be
       -0.14456943 0.09114828 -0.008305453 -0.20341605
000110 aa 03 5c be a5 2a 0f bf 50 89 02 be df ba a1 be
       -0.21485773 -0.55924445 -0.12747693 -0.31587884
000120 60 27 1d bc 1a eb ba 3e f1 12 37 3f e1 b0 c1 3d
       -0.009591907 0.36507493 0.7151328 0.09457565
000130 f2 f1 06 bf 17 5a df bd 35 88 4a be 32 9f 7c 3e
       -0.5271293 -0.10905855 -0.19778521 0.24670103
000140 37 0d 8a be 3c ee 03 bf d7 65 0d be b0 15 54 bf
       -0.26963207 -0.5153539 -0.1380838 -0.8284559
000150 bf d2 10 3d ea ff 12 3c 75 2b 8e 3f 6f fe 24 bd
       0.035357233 0.0089721475 1.1107012 -0.04028171
000160 05 a8 5d 3d ea e9 c5 3e a6 20 0e be ad 42 54 3e
       0.054115314 0.38655025 -0.13879642 0.2072856
000170 85 6b 1c bf 5c fd e4 3d 9f c1 40 bd c3 56 d5 bc
       -0.6110156 0.11181137 -0.04705965 -0.026042348
000180 aa 2c 17 be 75 38 cc be 3a 89 82 3d 6a a5 57 3b
       -0.14763132 -0.39886823 0.0637383 0.003290499
000190 9c 44 29 be 4f 3f 1b 3e 0f 46 be be 3a 2e b8 be
       -0.16530079 0.15160869 -0.37162825 -0.35972768
0001a0 82 90 35 be 7e 45 c0 3d af e2 77 3f 70 be 95 3e
       -0.17730907 0.093882546 0.96830267 0.29246855
0001b0 08 20 fb bc 83 01 9d be 4f 0d c0 bd d8 60 a2 be
       -0.030654922 -0.30665216 -0.093775384 -0.3171451
0001c0 00 38 8c bd 0c a6 64 bf 99 0f cf 3e 3c c7 70 bf
       -0.06846619 -0.8931587 0.40441588 -0.9405401
0001d0 f8 4b 29 bf 7f e8 0b 3f f5 49 74 be 87 1a 5f 3d
       -0.66131544 0.54651636 -0.23856337 0.054468658
0001e0 63 a9 c8 be 9c 6a b5 3c f3 d0 c9 3b 56 69 f2 bc
       -0.39191732 0.022145562 0.006158942 -0.029591244
0001f0 c5 b0 c9 3d 9f e1 0a 3f a1 ea 9b be 63 d0 8f 3e
       0.09848169 0.5425052 -0.30452445 0.28088674
000200 c8 3a 75 3f 69 c9 0f bf b0 43 da 3d 10 c6 58 be
       0.9579282 -0.561667 0.106574416 -0.21169305
000210 7a 0a c5 3e 5a 05 f1 be 31 92 14 3f 50 26 5c bf
       0.38484555 -0.47074395 0.5803557 -0.8599596
000220 23 9c a6 3e ba 03 97 3d 5d 25 6c bf de 5e ba be
       0.32540998 0.07373758 -0.9224451 -0.36400503
000230 a1 3a 29 be 40 ea 8e 3e 6d 05 8e be 5c 17 53 3e
       -0.16526271 0.27913094 -0.27738515 0.2061438
000240 ab e1 bd bc 90 36 31 bf 5b fd d7 be a7 01 30 bf
       -0.023178896 -0.6922388 -0.42185482 -0.6875252
000250 ec 77 5f bc 6d 4f 07 3f e6 fd a8 3f 8d 9b c5 3e
       -0.013639431 0.5285557 1.3202484 0.38595238
000260 6f bd 47 be 68 bc c1 3e 8c 7f 38 3f d2 6d b0 3f
       -0.19505857 0.37839055 0.7206962 1.3783514
000270 03 72 75 be 93 52 09 3f 05 66 d8 3c ce 2d e6 be
       -0.23969273 0.53641623 0.026415834 -0.4495682
000280 3f ba 33 be 79 e5 cc be 5b 3a cd be 38 6b f9 bb
       -0.17551516 -0.40018824 -0.40083584 -0.0076116584
000290 b4 dd a2 be 7e 40 02 bf d9 b5 4b bf f1 35 f4 3b
       -0.3180977 -0.5087966 -0.7957435 0.0074527194
0002a0 74 2a 74 3e f9 be 55 bf 1b 02 5e bf b6 ab e0 be
       0.2384432 -0.83494526 -0.8672196 -0.43881005
0002b0 a8 bc 05 3f 1a 20 08 bf 22 d0 b4 be 7c 2c 0c be
       0.5224099 -0.53173983 -0.35315043 -0.13688844
0002c0 cf 9a b0 3d 1b e5 c0 3d 8b e8 3a be 4f cf 31 bf
       0.086232774 0.094186984 -0.1825277 -0.6945695
0002d0 12 dc 39 3e bc 67 f6 bd 45 8b 68 bf c3 67 a2 be
       0.18150356 -0.120315045 -0.9083751 -0.3171979
0002e0 2b 1a be be 30 fc 97 3e 24 ab 35 bf 42 b5 13 be
       -0.3712934 0.2968459 -0.70964265 -0.14424613
0002f0 f4 5b dd 3e 9e 76 af 3e 75 fd ac bd cc 4e 1e be
       0.43234217 0.34270185 -0.084467806 -0.15459746
000300 65 b2 38 3f 92 48 03 3d 12 9e 9b bf 58 1b 25 3f
       0.7214721 0.03205163 -1.2157614 0.6449485
000310 40 00 05 bd cf 59 96 be 3b 04 35 3e 2d 1c b1 3f
       -0.03247094 -0.29365394 0.17677395 1.3836724
000320 67 b6 26 be 13 f3 f8 3e 02 27 6e be db 6c 9f be
       -0.16280518 0.4862295 -0.23257068 -0.31137738
000330 64 31 46 bf d3 76 02 3f 52 59 a8 3c 85 d8 e1 be
       -0.77419114 0.5096256 0.020550404 -0.44110504
000340 01 be 52 3f 82 de 5a 3d a6 34 43 bd f4 b2 81 3d
       0.8232117 0.053434856 -0.04765763 0.06332961
000350 77 c5 0a 3f 09 74 1a 3e 14 00 e1 3e 08 03 95 3d
       0.5420756 0.15083326 0.43945372 0.07275969
000360 07 3f 0d be 6a 37 5b 3f aa 32 a9 be a2 d9 56 3d
       -0.13793574 0.8563143 -0.33046466 0.052453645
000370 e2 27 2d 3f e6 df e8 bd b4 0a af 3d bc ad 38 3f
       0.6763898 -0.1137083 0.08546963 0.721401
000380 d1 05 99 3c 1b e7 10 be eb b6 23 3e 14 db 42 bf
       0.018679531 -0.1415066 0.15987746 -0.76115537
000390 bc 5b 66 3e f3 59 03 3f 89 fb d1 3e b6 ce 0b bf
       0.22495931 0.51309127 0.4101222 -0.5461229
0003a0 44 1c 2f 3e dc c3 27 bf de 29 db be 4e b5 e4 be
       0.17100626 -0.6553323 -0.4280538 -0.44669574
0003b0 bd a9 25 3e df f6 d8 be d4 5e 07 3e c4 49 df 3e
       0.16178031 -0.42375848 0.13219768 0.43610966
0003c0 5d 30 05 bf a1 17 c9 3e 27 80 c2 3e bc eb 97 be
       -0.5202692 0.3927584 0.37988397 -0.2967204
0003d0 f8 54 ac be 97 34 12 3f c7 01 73 be 0a ed ff bc
       -0.33658576 0.57111496 -0.23731147 -0.031240959
0003e0 c8 f6 67 3d 3a 98 a1 be fc c5 8e 3e 6d d9 d6 be
       0.056631833 -0.31561452 0.27885425 -0.41962758
0003f0 72 45 db be 28 11 07 be 69 44 df 3e e7 a7 86 3e
       -0.4282642 -0.13190138 0.4360688 0.26299974

lstm.bias_ih_l0 f4 [256]
000000 5d c7 01 bf e7 6e d1 be 01 86 87 be 06 3c dc be
       -0.5069483 -0.40904924 -0.26469424 -0.43014544
000010 55 32 2c bf f7 f6 7a 3e 87 4c 8b be f9 8f 10 bf
       -0.672643 0.24508272 -0.27206823 -0.56469685
000020 4a 18 37 bf df 38 c7 be 42 a9 76 be 87 68 3d bf
       -0.7152144 -0.38910577 -0.24088004 -0.7398762
000030 f6 09 be be 9e 09 dd be 85 03 e5 be 1f d2 15 bf
       -0.37116975 -0.431714 -0.44729248 -0.58523744
000040 0b 12 3f be 87 9e b2 be 28 4f 75 be 00 76 c0 be
       -0.18659227 -0.34886572 -0.23955977 -0.37590027
000050 b8 55 5b be a1 86 f2 be de c9 1f bf bf 3e e0 be
       -0.21419418 -0.4736834 -0.624174 -0.4379787
000060 cc 74 b4 be b1 ed c2 be ae f6 e0 be b9 4e a9 be
       -0.3524536 -0.3807197 -0.43938202 -0.33067873
000070 85 ce 46 bf 9c af 22 bf b2 1e ba be a3 67 a1 be
       -0.77658874 -0.6354921 -0.36351544 -0.3152438
000080 ca 4e 52 be 04 e8 c6 be 37 69 a9 be ca 3d 61 be
       -0.20537868 -0.3884889 -0.33088085 -0.21996227
000090 c9 b0 d7 be 31 39 aa bd bd bf 3c bf 84 22 33 bf
       -0.42127064 -0.0831169 -0.7373007 -0.6997454
0000a0 3c 20 da bd 9f eb c5 be 1a d4 5d bf 5a 80 fb be
       -0.106506795 -0.38656327 -0.86651766 -0.49121362
0000b0 13 e4 2e bf ca b6 c4 be 4a 7b 2e bf 41 a4 6b bf
       -0.68316764 -0.38420707 -0.68156874 -0.92047507
0000c0 56 0e 4c be f6 aa 46 bf b0 4d e4 be bf 08 34 be
       -0.19927344 -0.77604616 -0.4459052 -0.17581461
0000d0 ab f1 0b 3e 19 57 e9 3d da ce a2 be 3d a1 ea be
       0.13666408 0.11393566 -0.3179844 -0.4582614
0000e0 94 e0 e3 be 64 bf bd be 0b 29 7b be 0d d5 e1 be
       -0.44507277 -0.37060082 -0.24527375 -0.44107857
0000f0 ca f7 8b be f0 c5 66 be 0d 31 1f bf d8 18 7b be
       -0.27337486 -0.22536445 -0.6218422 -0.24521196
000100 8c 3e e9 be 6a 94 d9 be 7f 1f 39 bf 3c 8d 3a bf
       -0.45555532 -0.42496043 -0.72313684 -0.72871757
000110 9d 96 8d bf 02 62 43 be 0b 52 40 bf 0b 29 cd bd
       -1.1061589 -0.19080356 -0.7512519 -0.10017594
000120 59 f6 b6 bd 03 ad fe be 74 58 9e be 84 c6 f3 be
       -0.08933706 -0.49741372 -0.3092686 -0.47612393
000130 cf ad a6 bd 67 b3 8f bd b6 1a cc 3d f2 d0 49 bd
       -0.0813862 -0.0701664 0.09966032 -0.04927153
000140 73 c2 d9 bc 58 87 15 3e b3 be 1a be b7 de db be
       -0.026581978 0.14602411 -0.15111808 -0.42943355
000150 b5 28 12 be 77 75 8d be 20 a0 41 bf 24 15 e1 bc
       -0.14273341 -0.2762868 -0.75634956 -0.027475901
000160 88 3f 80 be ad ff 26 bf 40 45 19 bd 8d 88 e0 be
       -0.2504847 -0.6523388 -0.037419558 -0.4385418
000170 d3 06 65 bf 2e 30 49 bd a4 b5 3c bc c9 ab 08 3e
       -0.8946354 -0.049118213 -0.011517916 0.13346781
000180 89 e5 14 bf 45 1a e0 bb 0f 8d 1d bc 74 7a 7b be
       -0.5816274 -0.006839069 -0.0096161505 -0.24558431
000190 6d 30 72 bc b0 6c c0 3e d9 c0 52 bf 54 c6 50 bf
       -0.014782053 0.37582922 -0.8232551 -0.81552625
0001a0 0f 25 48 3e 88 05 a2 be 72 8c 08 be da 8a 89 be
       0.19545387 -0.31644845 -0.13334826 -0.26863748
0001b0 91 d2 1b bf bb 08 99 be 54 70 7e bf 9e 7d 97 bf
       -0.60868174 -0.29889473 -0.9939015 -1.183521
0001c0 58 55 ea 3d ae e7 52 bf da 29 50 bd d2 a9 a9 bf
       0.11442059 -0.82384765 -0.050821163 -1.325495
0001d0 92 81 2d be a2 dd 55 be dd 8c 11 bf a7 2c 74 be
       -0.16943958 -0.20885327 -0.56855565 -0.23845159
0001e0 51 9e 6d bf 78 d4 ad be 26 1c 28 be eb 86 2c bf
       -0.92819697 -0.33951163 -0.16416988 -0.6739337
0001f0 69 7a 93 3d 50 44 15 bf e6 33 b6 be 21 1b 83 3e
       0.07201082 -0.5830736 -0.3558647 0.25606635
000200 34 1d 97 be 98 5a 9c 3e bf ec 88 3d fc 89 03 3f
       -0.29514468 0.30537868 0.06685781 0.5138242
000210 ba fd a6 3e 24 8e 9c 3d 1a 12 67 be 40 11 29 bd
       0.32615453 0.07644299 -0.22565499 -0.041276217
000220 60 04 ca be ff ea 91 bd 91 9e 82 3d 2a b1 79 be
       -0.39456463 -0.071249 0.063779004 -0.24383989
000230 b7 8b 9b bc cb 38 74 be 63 f3 7f 3d 33 3a b5 3c
       -0.01898752 -0.2384979 0.06248797 0.022122478
000240 25 b6 06 be 11 f7 89 3e 2a 6b 24 bd 18 c1 86 39
       -0.1315542 0.2694631 -0.040141262 0.00025702338
000250 46 28 8d ba 42 1b cc 3d bc 30 eb bd 7b fd cb 3d
       -0.0010769449 0.099661365 -0.11483905 0.09960457
000260 24 f5 91 3c 76 5c 9f be 1c 96 c7 3d c7 9a 3e bd
       0.017817087 -0.3112523 0.09745428 -0.046534326
000270 a6 0c 30 3e a7 52 44 3d 25 be 1d be d2 c1 c0 3d
       0.17192325 0.047930386 -0.15404566 0.09411968
000280 80 43 ed 3d 22 0a 1c 3e 3d 98 fb bc 66 38 f2 3d
       0.1158514 0.1523824 -0.030712241 0.118271634
000290 b7 b5 a8 3b 7f c9 1e be a1 65 8d 3e 9e 8a 94 3e
       0.005148615 -0.15506552 0.276166 0.29012007
0002a0 eb 50 72 3d 65 1d 65 3d 2d 4e 72 3c 8c 6e 60 be
       0.0591592 0.055936236 0.014789146 -0.2191717
0002b0 25 4b 72 3e 8c dd 01 be 7b 67 f9 3e c6 b0 4a be
       0.23661478 -0.1268217 0.48711762 -0.19793996
0002c0 dd 88 27 3d d4 89 5c be 47 25 2c be 3e 38 b0 3e
       0.040902007 -0.21536952 -0.16811095 0.3441791
0002d0 71 2e ef 3d 72 fd 7e bd f2 61 55 be 9b ef 84 3d
       0.1167878 -0.062253423 -0.20838144 0.064910136
0002e0 a5 45 7b 3d ed d3 d2 bc 6a 3e 67 bd fd cd a0 3e
       0.061345715 -0.02573582 -0.056456007 0.31407157
0002f0 8f bc 87 3d 37 1b 54 3e 9f 27 c6 be 26 ac 40 bd
       0.066277616 0.20713507 -0.38702103 -0.047039174
000300 88 9e 17 bf dd 7a d8 be 21 45 d8 bd c6 4d d3 be
       -0.59226274 -0.42281237 -0.1056006 -0.41270274
000310 0d 2b 3f bf c3 64 be 3e b2 94 ed bd cb df 07 bf
       -0.74675065 0.3718625 -0.11600627 -0.53075856
000320 06 86 27 bf 2b 2a 81 be 55 a3 cf bd 7a 17 ac be
       -0.6543888 -0.25227484 -0.10138575 -0.3361166
000330 fd 45 00 be d5 eb 13 be 58 48 df be 6d 37 38 be
       -0.12526698 -0.14445432 -0.4360988 -0.17989893
000340 5a c5 8e 3e db 39 a9 be 2c ad 86 3c fa 96 e4 bc
       0.27884942 -0.33051953 0.016439997 -0.027904022
000350 70 ff 48 3e f6 f5 0e bf 56 31 24 bf bf 52 9c bd
       0.19628692 -0.55844057 -0.6413778 -0.0763297
000360 12 e2 85 be dc ec a4 be b0 3f e6 be 1a 7e b0 bd
       -0.2614904 -0.3221196 -0.44970465 -0.08617802
000370 20 91 13 bf bc 45 ac be 41 21 0f be b3 ca c0 3e
       -0.5764332 -0.33646953 -0.13977529 0.37654647
000380 da 4d 33 bd d3 de bf be 7f 09 8e bd ea bf 55 be
       -0.043775417 -0.3747469 -0.06935405 -0.2087399
000390 7c f7 9b 3e d3 00 d9 3e 0c 67 e0 be e0 0a 14 bf
       0.30462253 0.4238344 -0.4382862 -0.57829094
0003a0 32 ad 93 3d 7f 98 c5 3b 0e 94 29 bf 7f 39 96 be
       0.07210769 0.006030142 -0.6624154 -0.2934074
0003b0 1c a8 14 bf ee e1 f2 bc 28 c5 34 be be 77 77 bf
       -0.58069015 -0.029648747 -0.17653334 -0.9666709
0003c0 e6 5b a7 3e e9 51 26 bf 98 9c 1c 3e c1 bb 1e bf
       0.326873 -0.64968735 0.15294111 -0.6200524
0003d0 31 db 02 3f a0 4b e2 bd 14 6c 1a bf 8d 31 d7 be
       0.5111571 -0.110495806 -0.60321164 -0.42029992
0003e0 7b 5f 14 be 6b 12 ca be 9d 49 9c 3e 9c 74 2a bf
       -0.14489548 -0.39467177 0.30524912 -0.6658418
0003f0 de 99 02 be 64 73 45 bd 79 9f 07 bf c2 41 30 bd
       -0.12754008 -0.04820575 -0.5297771 -0.04303146

lstm.bias_hh_l0 f4 [256]
000000 ca 0b e4 be 97 6e 02 bf 2e 61 c4 be c1 05 fe be
       -0.44540244 -0.50949997 -0.38355392 -0.49613765
000010 6f f8 39 bf d5 4a 8c 3c a9 99 89 be 86 90 3c bf
       -0.72644705 0.017125526 -0.26875046 -0.73658025
000020 c0 58 35 bf b7 c3 f3 be 13 39 03 be 59 3b 18 bf
       -0.70838547 -0.47610256 -0.12814741 -0.5946556
000030 38 1b 9e be 4c ca 8f be e1 48 b3 be 07 d5 0f bf
       -0.3088014 -0.28084028 -0.3501654 -0.5618443
000040 71 6c 19 be 07 55 dc be 7b 9b 01 be 06 52 a6 be
       -0.14982773 -0.4303362 -0.12656967 -0.32484454
000050 6e 26 2d be 0f 4a 0d bf 94 53 1a bf 13 d8 b4 be
       -0.16909191 -0.5519113 -0.6028378 -0.35321102
000060 c6 37 d0 be 63 5b cc be 28 c5 1c bf cf 96 8e be
       -0.40667552 -0.39913473 -0.61238337 -0.27849433
000070 37 54 30 bf b4 e7 1b bf ca 3b de be ae 3c 23 be
       -0.688785 -0.60900426 -0.4340499 -0.15941116
000080 a1 c5 a0 be 0d b5 79 be 91 9b d7 be 9b d7 65 be
       -0.3140078 -0.24385472 -0.42110875 -0.22445528
000090 f1 7f cc be 45 71 1a be d9 d1 25 bf c2 d1 3b bf
       -0.39941362 -0.15082271 -0.6477333 -0.7336694
0000a0 37 b0 4f be 0b 91 b1 be 14 e3 70 bf f7 52 00 bf
       -0.20282064 -0.34680972 -0.94096494 -0.50126594
0000b0 15 ba 1b bf fd 2e 18 bf de 2c 2c bf 92 b1 83 bf
       -0.60830814 -0.594467 -0.6725596 -1.0288565
0000c0 f5 79 c9 bd 7c 2d 27 bf 32 47 a9 be e6 0b 7d be
       -0.098377146 -0.6530378 -0.3306213 -0.2471157
0000d0 3f 71 18 3d 63 06 62 3e 4c 76 fb be fe b4 fb be
       0.037217375 0.22072749 -0.4911369 -0.49161524
0000e0 76 82 f3 be dc da 9e be 4b 52 89 bd ec 21 16 bf
       -0.4756047 -0.3102635 -0.06705149 -0.5864551
0000f0 0d ee 76 be 9a ca b3 be 33 45 4f bf 15 8f 57 be
       -0.24114247 -0.3511551 -0.80964965 -0.21050675
000100 ba 34 ba be 87 19 25 bf 63 8e 30 bf da 01 3f bf
       -0.36368352 -0.64492077 -0.68967265 -0.746122
000110 88 08 80 bf c7 a7 be be 99 fa 40 bf b8 ef 15 be
       -1.0002604 -0.3723738 -0.7538238 -0.14642227
000120 c5 d5 51 be 98 5d ce be 68 bf ff be 4e ba 8b be
       -0.20491703 -0.4030578 -0.4995072 -0.27290577
000130 0d 66 88 be 6a 7f b5 bc 73 84 6f 3d e7 ca 87 be
       -0.2664036 -0.022155482 0.058475923 -0.2652199
000140 5f f1 4a bd f4 2c c7 3d 24 d3 d8 bd 02 0e 70 be
       -0.049546596 0.09725371 -0.10587147 -0.23442844
000150 0a 73 26 be 2f a1 9b be 5e fc 53 bf 7e 03 3d 3d
       -0.16254821 -0.3039641 -0.82806957 0.04614591
000160 7b e5 6f be a9 64 30 bf 67 a3 56 be 3f fd 21 bf
       -0.23427384 -0.68903595 -0.2096077 -0.6327705
000170 01 74 6b bf 8e cf 30 3c d0 6a 7c bc 5d 25 72 3e
       -0.9197388 0.010791672 -0.015406325 0.23647065
000180 8b 9f d1 be 34 b0 0b bc a5 aa 09 3e 73 62 d3 be
       -0.40942034 -0.008525897 0.13444002 -0.41286048
000190 f3 a0 af bd 9f 60 65 3e 5d e1 40 bf 06 be 4e bf
       -0.085756205 0.2240014 -0.7534388 -0.807587
0001a0 9b 8e 69 3e 5e b1 98 be 10 5d 04 be 68 85 78 be
       0.22808306 -0.2982282 -0.12926126 -0.2426964
0001b0 b6 87 e6 be 19 f0 9c be f8 70 75 bf 56 20 97 bf
       -0.45025414 -0.3065193 -0.958755 -1.1806743
0001c0 bb 99 70 3e 08 fd 1c bf 85 04 70 be 3c bf ac bf
       0.23496144 -0.61323595 -0.23439224 -1.349586
0001d0 90 ed 33 be 3d f4 b8 be 5b 81 1f bf 8b a5 8e be
       -0.17571092 -0.3612384 -0.62306756 -0.27860674
0001e0 53 df 44 bf 2c 89 4a be e9 b2 81 be 25 08 2c bf
       -0.76903266 -0.1977889 -0.2533181 -0.6719993
0001f0 b1 e0 0a bd 46 76 ee be 0c cf de be 5b b9 13 3e
       -0.03390569 -0.4657461 -0.4351734 0.14426176
000200 88 03 89 be 82 ca 3f 3e 85 36 86 3e 55 58 04 3f
       -0.26760507 0.18729594 0.2621347 0.51697284
000210 d8 7b 7d 3e 6b cc 4b bd e6 30 3e be 52 a5 39 bd
       0.24754274 -0.049755495 -0.18573341 -0.045323677
000220 c8 02 00 bf 86 52 50 3d ad 64 29 3d 44 4e 9c be
       -0.50004244 0.05085995 0.041355778 -0.30528462
000230 b1 e8 78 3d 63 12 a0 be 34 ae a4 bd f3 c7 14 be
       0.060768787 -0.31264028 -0.08041039 -0.145294
000240 8d 8a 3a be 0a 25 94 3e 6c d4 28 be 54 7e db bc
       -0.18216915 0.2893451 -0.16487283 -0.026793636
000250 86 8b 02 bd 56 ca d6 3c fa 15 2b be b1 2b 76 3d
       -0.03187134 0.026219528 -0.16707602 0.06010026
000260 ec b2 02 bc f1 69 3f be 6d 75 2c 3e 8b 07 05 be
       -0.007977229 -0.18692757 0.1684167 -0.12991159
000270 1d 8c 90 3e ae a9 a1 bd 5b e7 ac bb 7d 99 42 3e
       0.28231898 -0.07893692 -0.005276603 0.19003864
000280 b0 ef 97 3d 03 ab be 3e 0e 88 1b 3e 43 de 72 3e
       0.07418764 0.37239847 0.1518862 0.23717599
000290 b1 4c 82 bd 05 61 3a bd 57 8c 92 3e 8e 6b 44 3e
       -0.06362284 -0.04550268 0.28622696 0.19181654
0002a0 e3 6d c4 bc c1 80 66 3d 13 7e b6 3b 1e 63 31 be
       -0.02397818 0.056275133 0.0055692284 -0.17322966
0002b0 8c e0 0e 3e 5d 5d 71 be 04 c5 8d 3e f6 d7 6b be
       0.13952845 -0.23570772 0.27689373 -0.23031601
0002c0 d4 92 db 3d d2 f2 63 be e0 72 d4 bd 02 cc a7 3e
       0.107213646 -0.22260597 -0.10373473 0.32772833
0002d0 f1 f5 82 3d fd 85 10 be 3e 3b 20 be 7b bd ce 3d
       0.06394566 -0.14113612 -0.15647599 0.10094734
0002e0 48 39 26 3d fb 2c ae bd 6c 4f 69 bd aa 78 64 3e
       0.04058197 -0.08504673 -0.05696051 0.22311655
0002f0 bb f4 0f be 46 e4 7e 3e 73 6c c8 be 26 6d 81 bd
       -0.14058201 0.24891767 -0.3914524 -0.063196465
000300 38 59 0a bf 57 86 f8 be fd 27 4e be c4 1c e2 be
       -0.54042387 -0.48539993 -0.20132442 -0.4416257
000310 63 98 2d bf a3 2f b2 3e 2a fe 31 be c4 3f e1 be
       -0.6781065 0.3480197 -0.17382112 -0.43993962
000320 3c e0 f9 be 40 8b 42 be 86 b5 68 3d 6c 9f 91 be
       -0.4880389 -0.18998432 0.05681374 -0.28441942
000330 cb bd c5 bd 3f 32 d1 bd 11 3f 83 be 1b 9f 59 be
       -0.09655341 -0.10214662 -0.25634053 -0.212521
000340 8a d6 80 3e a7 74 e0 be fb 28 fd 3d 6e 76 d6 bd
       0.2516368 -0.43839 0.12361332 -0.104718074
000350 91 6b bd 3d 52 3c 13 bf 36 96 23 bf 69 de e8 bd
       0.09249032 -0.57513916 -0.6390108 -0.11370546
000360 ad 55 cd bd 74 58 6b be 48 0f 07 bf 66 01 09 be
       -0.10026107 -0.22982961 -0.5275769 -0.1337944
000370 9c 55 e7 be 82 42 c7 be cb 5e 51 be a1 a5 d1 3e
       -0.45182502 -0.3891793 -0.20446317 0.40946677
000380 8c 66 11 3d ef bd e1 be 47 13 a3 3d c5 dd c1 bd
       0.035498187 -0.4409022 0.07962661 -0.09466127
000390 1d 07 59 3e 65 ba ba 3e d2 52 13 bf 94 60 f6 be
       0.2119412 0.36470333 -0.5754825 -0.48120558
0003a0 05 df 13 bc 1b 1a ce bd 7e 64 4c bf 67 1a 4e be
       -0.00902534 -0.10063573 -0.7984084 -0.20127259
0003b0 6e 3d 4c bf e3 01 bd 3c 5e 92 83 be 59 c3 84 bf
       -0.79781234 0.023072189 -0.25697607 -1.0372115
0003c0 fc f7 27 3e e5 cf 1d bf ba 1b 0d 3e ca 69 fb be
       0.16403192 -0.61645347 0.13780108 -0.49104148
0003d0 d3 40 01 3f 72 d4 90 3d 54 43 1f bf 46 b8 15 bf
       0.5048954 0.07071771 -0.6221211 -0.58484304
0003e0 68 87 06 be 6d a3 ce be f2 5d 44 3e f2 77 2a bf
       -0.13137591 -0.4035906 0.19176462 -0.6658927
0003f0 ad 69 94 be ba 68 32 be 92 3b d4 be c6 e5 65 bd
       -0.28986874 -0.17422763 -0.414517 -0.056127332

lstm.weight_ih_l1 f4 [256, 64]
000000 6f e4 21 3e fb 3d 01 3d 18 a8 00 bf 34 ee d5 be
       0.15809797 0.03155325 -0.5025649 -0.41783297
000010 54 68 38 bf 18 40 cf bc 98 70 25 3e 20 ce 40 bf
       -0.7203419 -0.025299117 0.16156232 -0.7531452
000020 86 be bc 3e 2c e1 08 3f a1 f2 b1 3e a7 17 b8 3e
       0.36864108 0.53468585 0.34755424 0.35955545
000030 9d 01 81 bd d3 d7 25 3e 7e 68 8e 3e 8c fb 39 3d
       -0.06299136 0.16195612 0.27814096 0.04540591
000040 25 74 40 3e 35 3a 3b bd 67 f7 51 3d 41 41 4d be
       0.18794306 -0.045709807 0.051261332 -0.20044424
000050 d2 4a 0c 3e b2 0e 18 bf 65 94 9f 3f 14 ad 84 3b
       0.13700417 -0.59397423 1.2467161 0.004048953
000060 4e 1c 96 3e 69 c3 4d 3e b7 c1 4e 3b ea d8 ce 3d
       0.2931847 0.20094074 0.0031548569 0.10099967
000070 4d c1 c8 be 6b 15 02 3d 84 2d 01 3f 6e e0 b3 3c
       -0.39209977 0.031758707 0.50460076 0.021957602
000080 a3 3d ef be 8a 96 3a 3e 8b 98 dc be b5 61 e8 be
       -0.46726713 0.18221489 -0.4308513 -0.45387045
000090 b1 b2 f7 bc bf 7b 84 bc 3d 83 11 bf 3a 4f 4d bf
       -0.030236574 -0.016172288 -0.5684088 -0.80199015
0000a0 a5 2e 3c be e9 48 b6 3d f8 05 0b 3f 4b c9 e3 bd
       -0.18377168 0.08900625 0.5430598 -0.11122378
0000b0 f2 6c d5 3e 7f 7c 82 3d 7f 1e b0 be 29 4c d8 bd
       0.4168468 0.06371402 -0.34398267 -0.105614014
0000c0 90 06 29 3e bd aa e2 3d ce 13 2b 3f 37 9c ac bf
       0.1650641 0.11067722 0.66827095 -1.3485173
0000d0 2f 6d a5 3e cd 42 8c 3e 47 30 03 bf 03 c6 29 3e
       0.32309863 0.27394715 -0.5124554 0.16579442
0000e0 02 41 b3 be 20 16 b8 3e 9f ba ea bd 2c 93 a0 bf
       -0.35010535 0.3595438 -0.114613764 -1.2544913
0000f0 83 9f 90 b9 11 e3 5e bc d8 b9 53 be 48 7f 21 3e
       -0.00027584666 -0.013603942 -0.20676363 0.1577121
000100 ca b1 af 3e 13 ba 09 bf 4d 5a da be 74 f0 c0 bb
       0.3431533 -0.5379955 -0.4264702 -0.0058880392
000110 97 c8 df be 4b 27 32 3e 7b a2 72 3e ce 52 53 3e
       -0.43707725 0.17397802 0.23694794 0.20637056
000120 4c 19 c3 be 31 74 ac be 94 15 5f 3e 6e 62 d9 3e
       -0.38105237 -0.33682397 0.21785575 0.42457908
000130 7c 85 7d 3e 1d 1f 24 3f 9c fa 0f be d9 d9 14 be
       0.24757951 0.64109975 -0.14060444 -0.14536227
000140 55 28 e5 3e 8d 50 9a be 13 a7 b5 be 3b e8 b5 3e
       0.44757333 -0.3013958 -0.3547903 0.3552874
000150 98 d5 ad be e6 e7 43 bc 51 c3 fd 3e c3 3b 2a be
       -0.33952022 -0.011957144 0.49563077 -0.1662436
000160 97 2a cf bd 38 58 6e 3f 40 04 f0 be fa 7c a2 3d
       -0.10115545 0.9310336 -0.46878242 0.07933994
000170 f2 7c 25 bf 8e cd 32 bf 60 f4 ed bd 4e 5d 39 3c
       -0.64643776 -0.698449 -0.116188765 0.0113137495
000180 ba 5a 18 be b4 a7 24 be 9c fe 47 be 4b 2d 41 3d
       -0.1487836 -0.16079599 -0.1953072 0.047162335
000190 4d 28 68 bd af a2 80 3e ba 90 2e bf 64 53 e7 be
       -0.05667906 0.25124118 -0.68189585 -0.4518081
0001a0 a2 35 31 bf 05 9a de bd 9b 08 f5 be 81 b4 db 3c
       -0.6922246 -0.10869221 -0.47858128 0.02681947
0001b0 98 c8 80 3e 6f bb 13 3e ac ec 93 be 78 76 3f 3f
       0.2515304 0.14426969 -0.28891504 0.74790144
0001c0 b3 76 62 be f0 94 d4 3a c3 10 f0 3d de 60 15 bf
       -0.22115593 0.0016218703 0.11721947 -0.5835093
0001d0 15 e2 af 3e 3a 70 63 3e 83 29 e4 3e 3f 34 91 3e
       0.34352174 0.2221078 0.4456292 0.28360173
0001e0 e3 e4 27 be e8 ae 91 be 66 94 c4 3e 97 80 c5 be
       -0.16395907 -0.28453755 0.3839447 -0.3857467
0001f0 54 c1 07 3f 7b 54 fe 3d c2 0e 33 3e 10 c9 49 bb
       0.5302937 0.12418457 0.17486098 -0.0030790009
000200 aa 9e cc 3e aa e5 20 bd 0c 69 8b bf 7d 7c af bf
       0.399648 -0.039281525 -1.0891433 -1.3709866
000210 5a 04 e4 3e d5 fb 9a 3e e9 55 76 be 5c 8a 09 3f
       0.4453457 0.30270258 -0.2405621 0.53726745
000220 23 e1 c2 3f 74 7a 8c 3e 0f 38 b8 bf 48 6e c8 be
       1.5224956 0.27437174 -1.4392108 -0.39146638
000230 f6 5a 9a 3d 06 b1 a2 bd 62 8c af 3f 57 84 64 be
       0.07536881 -0.07943921 1.3714716 -0.22316109
000240 5b 41 1f 3f 69 62 33 be 2d 6e 4d 3f ee 84 e2 3e
       0.622091 -0.17518009 0.8024624 0.44242042
000250 3f e4 5a bd 37 d4 7b be d2 9e 77 3e fc da c0 3e
       -0.05344033 -0.24592672 0.24181679 0.37667072
000260 fb 77 11 3f 16 27 a7 3e 4d 01 9a bf 0d d1 d1 3f
       0.568237 0.32647008 -1.2031647 1.6391922
000270 e0 9b 8a bf c9 e5 b2 3e 68 b5 fa 3d f6 cb f6 bd
       -1.0828819 0.34940937 0.12241632 -0.12050621
000280 1b c1 77 be 2e 96 b2 3e 80 66 21 3e 9d 23 90 be
       -0.24194758 0.34880203 0.15761757 -0.2815217
000290 ac 06 99 3e 17 a2 0d be 0d 6a f0 be c3 a0 79 be
       0.29887903 -0.13831364 -0.4695591 -0.24377732
0002a0 63 00 8b 3f fb ec 6d bf 04 05 8d bf b5 e0 3b 3f
       1.0859493 -0.9293973 -1.1017156 0.7338975
0002b0 48 04 36 3f 2a 6d 8b 3e 91 d7 51 bf 9c 0c 80 3f
       0.7110028 0.27231723 -0.81969553 1.0003848
0002c0 bb 1f 4c bf 02 6a c6 be 3b b1 bc bc eb 6c 7e bf
       -0.79735917 -0.38752753 -0.023033729 -0.99384946
0002d0 e3 df 19 bf 09 e2 8d bf 0a 81 bb 3e 86 aa 5c 3d
       -0.6010725 -1.1084605 0.36621886 0.05387356
0002e0 c6 8e 11 3f 3e ff a8 3e 33 04 b8 bf a4 9e eb bd
       0.5685848 0.33007234 -1.4376281 -0.11504868
0002f0 0e c9 8b be 1e f0 e7 bd 00 23 ef 3e 04 d9 65 be
       -0.2730183 -0.113250956 0.4670639 -0.22446066
000300 f2 38 a3 3c cf ae d0 3e 42 03 11 3f 3d 91 e6 3e
       0.019924615 0.40758368 0.56645596 0.45032683
000310 0f ff 29 3f 61 7f e8 be 93 c7 2a bf a8 d2 c6 3e
       0.66404814 -0.45409682 -0.66710776 0.38832593
000320 0b 32 49 3e 3b 09 84 bc 08 57 8f be 7b ce 0f 3f
       0.19647996 -0.016117683 -0.27996087 0.5617444
000330 36 86 da bd 3f c1 b0 3d 60 86 97 3e 3b 66 b9 be
       -0.1067013 0.08630609 0.29594707 -0.36210808
000340 9d 42 65 3d 59 2e 6d bd e5 d2 48 3f da d1 42 bf
       0.05597173 -0.05790553 0.784468 -0.7610146
000350 99 ac 0c 3e d4 c5 26 3f e9 72 45 3d 38 0d 11 3f
       0.13737716 0.6514561 0.04820529 0.56660795
000360 63 81 0f be 5a 6e 28 be b1 90 f2 be 29 cc c8 3f
       -0.14014201 -0.16448346 -0.47376016 1.5687305
000370 3c b2 8f be 02 e5 a7 3e 10 0b 14 bf b9 8b 59 3e
       -0.2806567 0.32791907 -0.5782938 0.21244706
000380 32 9c 5c bf 7a 3a ad bd 0b 93 00 3f b3 6d 9b 3d
       -0.86175835 -0.08458419 0.5022437 0.07589283
000390 aa 8f aa 3e a1 13 29 bf 5f bc 19 be ec 34 08 bf
       0.33312732 -0.66045576 -0.15013264 -0.5320575
0003a0 3a ec b2 be 95 48 bb be 4a b0 18 bf be 68 7f 3e
       -0.34945852 -0.36578813 -0.59643996 0.249423
0003b0 2c b4 42 bf 0c bf cf bc dc 3b b8 be a6 41 f1 bd
       -0.7605617 -0.025359653 -0.3598317 -0.117800996
0003c0 e5 1f 8c bd a9 b1 e4 be f5 e7 3a 3f 96 b3 d7 3e
       -0.06842021 -0.44666794 0.7301019 0.421292
0003d0 46 32 a6 be df 21 22 bf ae 9b 9f bb 4f f2 c6 be
       -0.3246023 -0.63332933 -0.0048708534 -0.38856742
0003e0 1f ba 82 3f 88 92 a5 bd de fd 36 bf 34 d7 c8 bc
       1.021305 -0.08084589 -0.7148112 -0.02451668
0003f0 1b eb aa bd ba 46 eb be de 01 73 be 19 d8 16 3f
       -0.08345624 -0.45952398 -0.23731181 0.5892349

lstm.weight_hh_l1 f4 [256, 64]
000000 87 aa b9 3e 55 1e a8 be 69 3d e9 3e bc 22 f0 3d
       0.36262915 -0.32835642 0.45554665 0.11725375
000010 20 53 31 3e b2 b8 0a 3e db 4c 57 3c 3b ee 12 3e
       0.17316866 0.13547018 0.013140882 0.1434869
000020 2f 25 6e be 40 c8 92 be c9 17 22 3c ac 94 00 bf
       -0.23256372 -0.28668404 0.009893366 -0.50226855
000030 99 d7 7e 3e d5 ba 37 3e 20 86 83 3d b0 60 8f 3e
       0.24886931 0.17942365 0.06422067 0.28003454
000040 b6 24 da be a3 0e 06 bc 04 cb c5 3c 35 7b 2f 3f
       -0.42606133 -0.008182201 0.024144657 0.68547374
000050 cc 3d c1 be 6a 22 33 bd a8 df 94 bd ac 98 17 bf
       -0.3774246 -0.04373399 -0.072692215 -0.59217334
000060 80 e5 a3 3d 5e 3d a4 3b 72 f0 29 bf 22 df 67 3e
       0.08002758 0.0050121984 -0.66382515 0.22643712
000070 0b 97 97 bb a5 1c 0e be 86 0b ff be 87 35 bc be
       -0.00462616 -0.13878115 -0.4981348 -0.36759588
000080 4d 6d be be c9 6c e9 3c 96 99 fd be 95 c7 43 3e
       -0.37192765 0.028494256 -0.4953124 0.19119103
000090 be 4f 05 3c 17 07 8e 3c c9 57 0c be 01 8a ec 3d
       0.008136688 0.017337365 -0.13705362 0.1154976
0000a0 cd 93 3e be 81 71 84 be 7c 6e d1 be 03 7e 14 be
       -0.18611069 -0.25867847 -0.40904605 -0.14501195
0000b0 94 b2 45 be 34 1d 36 be db c5 89 3e f8 34 d1 be
       -0.19306403 -0.17784578 0.26908764 -0.40860724
0000c0 ee c1 eb 3d fc 6f a2 3c 28 b3 c4 3c ad 17 85 3e
       0.115115985 0.019828789 0.02401121 0.25994626
0000d0 59 76 80 be 5b 96 8c bd 22 ad 1b bf eb 47 60 3d
       -0.25090292 -0.068646155 -0.60811055 0.054756086
0000e0 a5 20 d8 be bb 49 ae be 97 04 52 be 95 ab 72 bf
       -0.42212406 -0.34040627 -0.20509563 -0.94793063
0000f0 e2 6f 4e bf 8a 7d 18 bf cb 3c 8e 3e 99 69 77 3d
       -0.8063947 -0.5956656 0.27780756 0.06040344
000100 c5 8e 7b be cf 96 1c be ee 4f d1 be 27 44 22 bf
       -0.24566181 -0.15291904 -0.40881294 -0.6338524
000110 e4 71 a3 3d 17 95 19 be f6 cb 99 be 39 bf 9e bd
       0.07980707 -0.1499828 -0.30038422 -0.077513166
000120 6b 8d 66 3e bc ef 8b be b5 68 e7 bd 69 c7 34 be
       0.22514884 -0.2733134 -0.11299268 -0.17654194
000130 c0 5a 05 be b7 0c 6e bd 90 db 1f 3e 75 36 39 be
       -0.130229 -0.058117595 0.156111 -0.1808718
000140 a0 f8 05 3d b8 10 3a bd 0f fe c2 bd d5 28 d7 3d
       0.03270781 -0.0454261 -0.09521114 0.10505835
000150 a9 ad da bd 53 4e 05 be 6e 59 62 3e b2 66 11 be
       -0.10677654 -0.1301816 0.22104427 -0.14199331
000160 89 26 bf 3d f6 11 4d bd 6a a4 f2 bd 02 12 45 be
       0.09333522 -0.050065957 -0.11847766 -0.1924515
000170 3f 72 bd 3e 76 35 7a be 7b 14 14 bf ee 06 64 be
       0.37001225 -0.24434456 -0.5784375 -0.22268268
000180 1e 9c 29 be bc f9 e1 3d 0e ff fa 3d 0a 4b 3b 3e
       -0.1656346 0.11033961 0.12255679 0.18290344
000190 d1 44 ec 3b be 25 0e be 81 49 a8 be f6 62 37 3d
       0.007210352 -0.13881585 -0.3286858 0.04477211
0001a0 de 27 56 3d a5 af 69 3d 3e 04 b1 3d 75 a3 22 be
       0.052284114 0.057052273 0.08643387 -0.15882666
0001b0 30 b8 01 be af 6e ea bd 22 aa 18 be 20 84 4b be
       -0.12667918 -0.114468925 -0.1490865 -0.1987462
0001c0 ac f1 2e 3d 49 4c 18 bc 12 57 5f be 7c 83 8c bc
       0.042710945 -0.009295532 -0.21810558 -0.01715254
0001d0 be c8 cb 3e c8 f3 0f be 59 70 42 3f d5 ac e1 bd
       0.39801592 -0.14057839 0.7595268 -0.11019293
0001e0 7d ca a6 bd 18 15 c2 bd 9e dc 3b bd ab 17 ea 3e
       -0.0814409 -0.094766796 -0.045864694 0.45721182
0001f0 f4 ed dd bd 0f 6e 0f bf 15 5f 5b be 8a 34 93 be
       -0.108364016 -0.5602731 -0.2142299 -0.28751022
000200 5c ba 22 3c fa 9a 34 3b 31 d6 0b 3f b6 3b 81 3f
       0.009932127 0.0027558194 0.54623705 1.0096347
000210 86 d2 6f be ff 51 29 3f 15 69 4f be 60 41 92 be
       -0.23420152 0.6614074 -0.2025493 -0.28565502
000220 87 b0 4d 3e 21 6a cf bd 6d b3 a3 bd 32 3d 46 3e
       0.20086871 -0.10127664 -0.07993207 0.19359282
000230 4c cf 1e be ce c7 f1 3e f6 2b 51 be 58 a6 21 3f
       -0.15508765 0.4722275 -0.20426926 0.63144445
000240 1b 71 f4 3b d2 0f da 3e 19 16 76 3e f6 5c 19 bf
       0.0074597723 0.42590195 0.24031867 -0.5990747
000250 6d b5 02 3f b4 e5 bf 3e 66 ea ad be fe 65 11 3f
       0.51058084 0.37479937 -0.33967894 0.5679625
000260 b7 c6 06 bf 56 c5 e5 3e 20 90 5d bf b1 f2 36 3c
       -0.52646965 0.44877118 -0.8654804 0.011166261
000270 dd 99 cf be ea f6 10 3f 46 a0 1e 3f f2 ff 3e be
       -0.40547076 0.5662676 0.6196331 -0.18652323
000280 6d da 23 3f d4 69 b1 3d 5d 2b 22 3e 1c 7f 0c bf
       0.64005166 0.08662763 0.15836854 -0.54881454
000290 5c 69 bc bd a6 d6 c7 be 02 57 10 bf 04 bb dc be
       -0.09199783 -0.3903095 -0.56382763 -0.43111432
0002a0 e2 30 a4 3e e9 90 d3 3e e7 db 3d be 89 1f 05 bf
       0.32068545 0.41321495 -0.18540917 -0.52001244
0002b0 8f 53 09 3e a3 e9 42 be de 7a ae be f3 c1 44 3d
       0.13410781 -0.19034438 -0.34078115 0.048036527
0002c0 02 d7 5d be 60 fe f3 3e c6 24 5a bf 76 6c 4b 3e
       -0.2166405 0.4765501 -0.8521236 0.19865593
0002d0 9c 50 1b bf e0 a9 1f bf 9c 60 d7 3e 4e 16 8a 3e
       -0.60669875 -0.62368584 0.42065895 0.26970142
0002e0 84 17 1e 3f c5 c8 c2 bd 54 b5 8b 3f 05 99 42 bf
       0.6175463 -0.0951095 1.0914712 -0.7601474
0002f0 c1 e8 78 be d7 eb df be 33 ad 70 3f ca 1e 6e 3d
       -0.24307539 -0.4373462 0.9401428 0.05813483
000300 cb 96 06 3f 23 66 2d 3e b6 99 87 3e b1 d4 ee be
       0.5257384 0.16933493 0.2648446 -0.46646646
000310 12 50 11 3f e8 16 4f be 52 dd cb be 36 9e d4 3e
       0.567628 -0.20223582 -0.39817291 0.41526955
000320 e1 c9 1d 3c 36 f9 1e bf 02 31 66 3d 5e e5 a8 3c
       0.009630651 -0.62099016 0.05619908 0.020617183
000330 1a be 5b 3e b0 c8 62 3f 84 bd 5c 3e 85 65 c6 be
       0.21459237 0.88587475 0.2155667 -0.38749328
000340 22 d5 c3 bd 4f 98 08 3e 42 ab 31 be e1 43 51 3e
       -0.09562136 0.13339351 -0.17350486 0.2043605
000350 b1 90 cd be 33 c9 2f be 81 b8 77 be ad 89 9a 3e
       -0.40149453 -0.17166595 -0.24191476 0.30183163
000360 87 63 42 be 4c 4e 05 3f 16 b5 8a bf 7f dc 6e be
       -0.18983279 0.52072597 -1.0836513 -0.233263
000370 03 c4 da 3d 8a f1 3a bf d4 17 59 be 9a 8e 75 3c
       0.106819175 -0.7302481 -0.21200496 0.014987612
000380 fe 41 63 be f2 5c 9a bc 57 94 b8 3e 87 0c fa 3d
       -0.22193143 -0.018843148 0.36050674 0.12209421
000390 5b 93 66 be bf 37 99 3d 2a 90 82 be b4 60 dd 3d
       -0.22517149 0.07481336 -0.25500613 0.1080946
0003a0 7e 43 c0 3e e4 f2 43 3e 60 f3 98 be b6 a6 97 be
       0.37551492 0.19135624 -0.2987318 -0.29619378
0003b0 51 6f d9 3e 36 10 d9 3d db 28 12 be 2e 67 bd 3c
       0.4246774 0.10598795 -0.14273398 0.023120489
0003c0 3a 3b 89 3d b2 e6 b1 3c c1 32 02 3e 41 be 3b be
       0.0670075 0.02171645 0.12714674 -0.18334295
0003d0 fd ac 1b bf 33 e0 19 bf b1 9f 46 3f 67 f4 9c bb
       -0.60810834 -0.60107726 0.7758742 -0.004789877
0003e0 fe 69 2b bc 13 cf ad be 9a 4e 7f be f6 de 18 bf
       -0.010462282 -0.33947048 -0.24932328 -0.5971521
0003f0 d8 a4 72 3e 5d 9a 69 3f 5a 48 9b 3e bc 2f af be
       0.23695695 0.91251165 0.30328637 -0.34216106

lstm.bias_ih_l1 f4 [256]
000000 50 00 d8 be 23 b7 a5 be 22 b6 6c bf 39 5e 2d bf
       -0.42187738 -0.32366285 -0.9246541 -0.677219
000010 65 89 04 bf 27 24 4e bf 22 f1 52 bf b0 c4 1e bf
       -0.5177215 -0.80523914 -0.8239919 -0.6201887
000020 06 c4 1b bf 48 cf 32 bf 63 ba 49 bf 76 e4 98 be
       -0.60845983 -0.69847536 -0.7880003 -0.29861802
000030 d5 9f 62 3d 6d 8e c7 be 00 7b 2c bf 85 c2 b4 bc
       0.05532821 -0.3897585 -0.67375183 -0.02206541
000040 d9 ad 10 bf a9 ab 9a be 93 f5 36 be 3c 5e 2c bf
       -0.5651527 -0.3020909 -0.17867117 -0.6733129
000050 d4 22 1d be ca c1 1c 3e 91 cc 5a bf 44 81 25 bf
       -0.15345317 0.153083 -0.85468394 -0.6465037
000060 6f 9f 8b be d2 5c 03 bf b9 ef 01 bf cb 91 03 bf
       -0.27270076 -0.5131351 -0.5075641 -0.5139434
000070 f6 cd 02 bf 58 f2 87 bf f4 f4 3f bf 0b 2c 6b bf
       -0.5109552 -1.0620832 -0.74983144 -0.9186408
000080 02 74 d8 be da 53 be be 3d 20 fb bd 54 d1 20 bf
       -0.42276007 -0.3717335 -0.12262008 -0.6281941
000090 e7 57 b8 be fe 0e 20 bf 7c 91 0f bf a6 3f 98 be
       -0.36004564 -0.62522876 -0.56081367 -0.2973606
0000a0 69 b3 c6 bd 09 06 c1 bd 77 2b 05 bf ad c9 c2 be
       -0.097021885 -0.09424979 -0.5201945 -0.3804449
0000b0 97 1c 8e be bb 77 ce 3d bc 35 89 be 4c 9a 32 bf
       -0.27756187 0.100814305 -0.2679881 -0.6976669
0000c0 6f 7b 99 be f3 0f 0b bf e1 b4 37 bf 73 0f 8c be
       -0.29976985 -0.5432121 -0.71760374 -0.27355537
0000d0 dc bf 41 bf b8 b8 3a bf 48 6a 04 bf f5 90 c5 be
       -0.7568338 -0.7293811 -0.5172467 -0.38587156
0000e0 86 a9 e7 be 5f 94 16 bf bb e5 13 bf 93 20 66 bf
       -0.45246524 -0.58820146 -0.57772416 -0.89893454
0000f0 d5 46 4c bf 8d 28 22 bf bb 2a 0f bf 4c cb 0e bf
       -0.7979558 -0.63343126 -0.55924577 -0.55778956
000100 fc 4a ac be 3e 53 91 be 8e a8 cb bd 0c bf a0 be
       -0.3365096 -0.2838382 -0.09944259 -0.31395757
000110 1f 78 c8 bd a1 56 2d be be 8e d7 bd 54 60 a5 be
       -0.09788536 -0.16927578 -0.10525273 -0.32300055
000120 55 b9 32 be 96 9e 94 be ef 2b da be 1f 56 fd bd
       -0.17453511 -0.2902724 -0.42611644 -0.12369942
000130 a7 30 10 3c b7 d0 a8 bc e2 6c f6 be 5a 83 d2 bd
       0.008800662 -0.020607335 -0.48129946 -0.102789596
000140 72 a4 db be cf 85 75 be 8c cc 3d 3e 29 9c 11 bf
       -0.428989 -0.23976825 0.1853506 -0.56878906
000150 8c 6a bd bd 1c 42 93 3d b9 94 f6 bd 07 eb 77 be
       -0.09248838 0.07190344 -0.12040085 -0.2421075
000160 8e c9 f5 3c fc 9d ee be ec d4 cd be cf d8 b7 be
       0.030003335 -0.46604908 -0.4020151 -0.359076
000170 6c 74 3a 3e 46 97 32 3d 50 82 26 bf c8 c4 94 be
       0.18208474 0.043601297 -0.6504259 -0.29056382
000180 05 a0 d0 bd 64 b5 e4 3c 70 da 19 be 79 be f6 be
       -0.10186771 0.027918525 -0.15024734 -0.48192194
000190 b1 9e 85 be 06 be 43 be f5 7a 2b bd 4c e2 a2 be
       -0.26097634 -0.19115457 -0.041865308 -0.31813276
0001a0 c4 33 67 3e 06 5d 6d be 1c 70 e4 be 25 95 e3 3d
       0.22578341 -0.23180017 -0.44616783 0.111124314
0001b0 c8 a1 0d 3d ff 2a a8 be c2 7c f7 be f4 bf 1b bd
       0.034578115 -0.32845303 -0.4833737 -0.038024858
0001c0 6e ed d0 bd 5b f5 ce be f5 da e7 be 95 d8 23 be
       -0.10201536 -0.40421566 -0.45284238 -0.16000588
0001d0 d5 2d 08 bf 13 19 32 bf 7d a1 c8 be 74 a1 87 bd
       -0.53194934 -0.6956951 -0.39185706 -0.066225916
0001e0 a0 78 7f be ab cd a1 3d 13 13 d4 be d5 8d 5d bf
       -0.24948359 0.07900556 -0.41420802 -0.86544544
0001f0 98 b3 61 be 4e 54 1f be 0f a3 9f be 70 38 15 bf
       -0.22041166 -0.15559503 -0.3117909 -0.5828924
000200 f2 65 13 bc b1 28 2a 3d 73 c7 32 3e ee 3d 1c be
       -0.008996474 0.041542713 0.17458896 -0.15258
000210 f2 d4 ad bd a2 be 24 be 3a 85 83 3b d2 23 51 3e
       -0.08487882 -0.16088346 0.0040136846 0.2042382
000220 76 6d 1a be 32 8e c2 bc a6 fa 92 bc 7a a3 ef bb
       -0.15080819 -0.023749445 -0.017941784 -0.007313189
000230 9d 5a 22 3c 0f 54 1a be e7 84 7e 3d 32 60 8f 3d
       0.009909299 -0.15071128 0.062138464 0.0700077
000240 d0 17 2c be 9d 0b bd bc 97 12 79 bd a4 2c 2f 3d
       -0.16805959 -0.023076827 -0.060808744 0.042767182
000250 4f bb 62 bd 57 20 47 bc 3f 6c ab bd 98 7c 10 3d
       -0.055354413 -0.0121537065 -0.08370256 0.03527507
000260 d8 a7 3e bd 11 3d 4a 3d 84 2a c0 bd 34 b0 ba bb
       -0.046546787 0.049374644 -0.09383109 -0.0056972746
000270 5f 38 05 3e ea 34 4e 3e 33 a6 b2 bc 2e dc 0b 3d
       0.13009785 0.20137373 -0.021807766 0.034145527
000280 5d 0e c6 bc 92 c1 32 3e 20 5d 88 bd 80 45 3f be
       -0.02417677 0.17456654 -0.06658387 -0.18678856
000290 86 1e f6 3d b6 00 49 3c b2 12 3e 3d 8b a0 cc bc
       0.12017541 0.012268236 0.046404548 -0.024978897
0002a0 b6 35 38 3c 45 98 13 3d da 94 16 3d 25 8a e4 3b
       0.011243274 0.036033887 0.03676305 0.006974476
0002b0 5e e4 93 bd a9 89 c6 b9 76 d8 f8 bd d2 9a d3 3d
       -0.07221292 -0.00037868068 -0.12150662 0.10332264
0002c0 3b be cd 3d f7 78 02 3c 43 50 9a bd 4c f1 f9 bc
       0.10046049 0.007963411 -0.0753484 -0.030510567
0002d0 2a 02 90 bc 95 62 96 3e 68 fb 3f bb a2 ba ea 3d
       -0.017579157 0.29372087 -0.0029294137 0.11461379
0002e0 2e eb 3f bd 21 ca 94 3c 89 af 2f bd ad ba 60 be
       -0.046855144 0.018162789 -0.042892013 -0.21946211
0002f0 eb 84 9f bc 78 d0 18 3e 4b ad 72 3e da b4 f5 bd
       -0.01947256 0.14923275 0.23698919 -0.11997385
000300 dc 98 99 be 73 50 01 bf 34 99 c0 be e3 f4 27 bf
       -0.29999435 -0.5051338 -0.37616885 -0.6560804
000310 fb 4d 0d bf 40 1f 48 bf 26 70 73 bf 60 3c 2a bf
       -0.55197114 -0.78172684 -0.95093 -0.66498375
000320 e9 80 15 bf 4b 69 ae be 90 6d 33 bf da 67 83 be
       -0.58399826 -0.34064707 -0.70089054 -0.2566517
000330 22 f4 80 3e 35 7a 72 bd 8a ca 1b bf e0 1b 8c be
       0.2518626 -0.059198577 -0.60855925 -0.27365017
000340 14 c8 03 bf c5 8c 86 be 5a c7 8b be b8 e8 cf be
       -0.5147717 -0.26279274 -0.2730053 -0.40607238
000350 81 8b 23 be f4 29 c5 bd 47 9e 3a bf 62 40 29 bf
       -0.15971185 -0.096271425 -0.7289776 -0.66113865
000360 ea 55 bd be 3b a5 3e bf 18 da 2b be a3 d4 24 bf
       -0.3697961 -0.7447087 -0.16782415 -0.6438696
000370 0d 32 06 bf 50 7d 24 bf f8 e4 24 bf b0 2a 38 bf
       -0.5242012 -0.6425371 -0.6441188 -0.71940136
000380 48 e4 eb be 1a 42 11 bf 39 18 c6 be 19 a2 30 bf
       -0.46072602 -0.5674149 -0.38690355 -0.6899734
000390 71 3e 28 bf fb 72 17 bf 9c 8e 09 bf 52 1a 90 be
       -0.6572028 -0.5915982 -0.5373323 -0.2814508
0003a0 50 96 b2 be ae 12 0d be 8e 10 24 bf 19 04 29 be
       -0.34880304 -0.13776657 -0.6408776 -0.1650547
0003b0 80 06 83 be 68 80 8c 3e 08 92 fe be cd a4 38 bf
       -0.25590897 0.27441716 -0.49720788 -0.72126466
0003c0 06 63 c5 be 4e 4b 64 be ac ae 28 bf 29 1d fb 3d
       -0.3855211 -0.22294351 -0.6589153 0.12261421
0003d0 91 b6 40 bf cd e0 22 bf e2 93 43 bf 65 0a c9 be
       -0.75278574 -0.6362427 -0.76397526 -0.39265743
0003e0 5d 38 f4 be 34 ea 65 bf 05 ec f4 be 0c d1 29 be
       -0.47699252 -0.8981049 -0.4783632 -0.16583651
0003f0 0f 79 57 bf a5 5e 08 bf 50 65 01 bf c9 b9 f0 be
       -0.84169096 -0.53269416 -0.50545216 -0.47016743
