Net/LSTM_TL_YaoLU_sourceforcast_net.pkl (torch, 704655 bytes, 53 tensors)

weight f4 [8, 8]
000000 26 3e fc be 19 72 04 3f 60 60 3b bd 3a 2e e6 3e
       -0.49266165 0.517366 -0.045746207 0.44957143
000010 76 91 db 3e a0 47 f0 be 2a 51 f1 be 18 cd ed 3d
       0.42884415 -0.46929646 -0.47132236 0.11611384
000020 ba 8a b1 3e 00 e4 fc 3b a0 63 62 3e d0 d1 2b 3d
       0.34676152 0.0077176094 0.22108316 0.04194814
000030 91 80 1c 3f aa 8c b2 3e b0 95 33 bd 5d 1a 02 bf
       0.61133677 0.34872943 -0.043843925 -0.5082148
000040 6e 7a 7f be d6 f2 e9 3e ac d0 9d 3e 24 4e e8 be
       -0.24949047 0.45693082 0.30823267 -0.45372117
000050 c8 d7 a2 bd c9 56 14 3f 70 0f 34 be 4a 1a 02 be
       -0.07951313 0.57944924 -0.17584014 -0.12705341
000060 a4 ee 24 be 00 d1 1c 3e 38 ec bd bd 02 53 92 3e
       -0.16106659 0.15314102 -0.09273571 0.28578955
000070 1c 2f b9 3e db 21 af be 06 dc c6 3e dd 93 a1 be
       0.36168754 -0.34205517 0.3883974 -0.31558123
000080 ae 00 ca be 36 13 86 3e 00 b3 05 bc 62 2a a1 be
       -0.39453644 0.26186532 -0.008160353 -0.31477648
000090 df c8 10 bf 62 42 f1 3e e5 3f 0c 3f c5 f6 08 3f
       -0.56556505 0.4712096 0.54784995 0.5350154
0000a0 24 6d 87 3e 1c 97 bd 3e a6 9f d9 3e dd 0a 0f bf
       0.26450455 0.3702935 0.42504615 -0.5587595
0000b0 41 5c 10 3f 66 a7 f1 be fa 6d c6 be 20 5f 84 3e
       0.5639077 -0.47198027 -0.3875578 0.25853825
0000c0 d7 b8 91 be 33 1e fa be ae 82 f6 3e 9e c8 c5 be
       -0.28461334 -0.48851165 0.48146576 -0.3862962
0000d0 0e 14 b3 3e 8c 63 16 bf 0a f9 82 be 74 5b 72 3e
       0.34976238 -0.58745646 -0.25580627 0.23667699
0000e0 f8 d9 c5 bd 04 a0 7f be a4 6b ea be 0c 24 5c 3e
       -0.09660715 -0.24963385 -0.45785248 0.21498126
0000f0 ea ea eb 3e d0 35 83 3d fa fb da 3e c0 4c c1 3c
       0.46077663 0.06406748 0.42770368 0.023596168

bias f4 [8]
000000 d0 36 cc bc 8e dc 95 be 74 d0 9c be 34 8e 85 bd
       -0.02492848 -0.29269832 -0.30627787 -0.06521264
000010 03 0e 88 3e f0 a1 07 3d a8 2c 3b bd 88 26 80 be
       0.2657319 0.03311342 -0.045696884 -0.25029397

weight f4 [8, 8]
000000 ee 7d ce 3e c9 f7 0b 3f 40 e9 eb bc 70 4c 8a 3d
       0.40330452 0.54674965 -0.028797746 0.067528605
000010 0c e6 ea be 60 f6 90 3c 58 55 1d 3e fd f0 11 3f
       -0.45878637 0.017695606 0.15364587 0.57008344
000020 a0 b8 63 3d e0 08 9e bc 38 4b 72 3e 70 a5 f1 be
       0.055595994 -0.019291341 0.23661506 -0.4719653
000030 e2 07 8b 3e 7a c6 f1 3e 3e 2c f9 3e 1e 18 cb 3e
       0.27154452 0.47221738 0.48666567 0.39666837
000040 3a 81 87 be 24 8c 20 be 21 51 0e bf 9e 86 73 be
       -0.2646578 -0.1567846 -0.5559254 -0.23781821
000050 6c 31 03 bf c0 ae 2c bc 72 66 f4 3e c4 cf 18 3e
       -0.51247287 -0.0105397105 0.4773441 0.14923006
000060 18 93 85 bd 7f 3e 9d be 66 07 15 be d8 98 8b bd
       -0.065221965 -0.30711743 -0.14553604 -0.06816262
000070 d0 59 44 3d 9d c1 10 bf c9 0c 19 3f 6e 32 f3 3e
       0.047937214 -0.5654543 0.59785134 0.47499412
000080 aa 6c e8 3e 12 83 b2 be 7b d2 b8 be 28 0c 0b be
       0.45395404 -0.34865624 -0.36098084 -0.13578856
000090 90 6f 44 bd 5e 91 e2 3e 9a e3 8e 3e b3 4e 09 3f
       -0.047957957 0.4425153 0.2790802 0.5363571
0000a0 c9 8b 95 be c1 de 18 bf f5 bc 0b bf 98 26 91 3d
       -0.2920821 -0.59714895 -0.545852 0.07087439
0000b0 b4 37 13 bf 30 9d 6f 3d 80 6c 92 3d 1c 9d 95 3e
       -0.5750687 0.058499515 0.07149601 0.29221427
0000c0 e9 97 0b 3f 1a 99 95 3e 28 12 b9 bd 46 3f a1 be
       0.5452867 0.2921837 -0.09036666 -0.31493586
0000d0 1f 59 02 3f d0 ce b6 bd 00 78 74 ba 48 30 bc 3e
       0.5091724 -0.08926165 -0.0009325743 0.36755586
0000e0 03 8f 0e 3f 4e ce 0f bf 4c b2 8d 3e c3 b7 9c be
       0.5568697 -0.5617417 0.27675092 -0.3060895
0000f0 92 fb 8c 3e e0 9d e2 3c 40 ed 89 3e d8 6c 18 3e
       0.27535683 0.027663171 0.2693882 0.1488527

bias f4 [8]
000000 d0 36 cc bc 8e dc 95 be 74 d0 9c be 34 8e 85 bd
       -0.02492848 -0.29269832 -0.30627787 -0.06521264
000010 03 0e 88 3e f0 a1 07 3d a8 2c 3b bd 88 26 80 be
       0.2657319 0.03311342 -0.045696884 -0.25029397

weight f4 [8, 8]
000000 c7 e3 2e bf 35 6d 32 be 8c 62 e9 3e 78 c4 fe 3e
       -0.6831631 -0.17424472 0.45582998 0.4975927
000010 2f 05 a1 be 77 d7 07 bf cd ad 9e be ff f1 40 bf
       -0.31449267 -0.5306315 -0.30991974 -0.75369257
000020 0d 90 30 3e dc e7 68 bf 6e 9e 17 3e 77 f3 56 3d
       0.17242451 -0.9097879 0.1480653 0.05247828
000030 b7 fb 14 bf 21 78 3e 3f a0 70 6a bf 31 45 77 3f
       -0.58196586 0.7440205 -0.915781 0.9658995
000040 c2 e2 4a bd d0 9b 56 3f 39 5e 33 3d b8 38 fc 3e
       -0.04953266 0.838315 0.04379103 0.49262023
000050 20 af 38 bf 1b 38 ce 3e 4c fe 42 be 84 8c 2d bf
       -0.7214222 0.4027718 -0.19042319 -0.67792535
000060 6a e4 f1 3d e7 fa af 3e 34 9a 64 3f bc 9f 09 3f
       0.11811145 0.3437111 0.89297795 0.5375936
000070 1f 40 49 be 76 db 8c be 97 6d 7a 3e a8 83 19 be
       -0.19653367 -0.27511185 0.24455868 -0.14991629
000080 b6 1d 49 be 9b ea e2 be 4f 9e c0 3e f2 54 d4 be
       -0.1964024 -0.44319615 0.3762078 -0.41471058
000090 51 22 fc 3c f2 87 c3 3e d1 93 06 3f 6e 65 8b 3f
       0.030778082 0.38189656 0.525693 1.0890329
0000a0 f9 29 62 bf 8f 18 c5 be 97 03 ca be 63 19 9e 3e
       -0.88345295 -0.384953 -0.39455864 0.30878744
0000b0 93 fb 09 3e fe 72 4d 3e 45 19 07 3f c2 3c 89 bc
       0.13474874 0.20063397 0.52772933 -0.016752604
0000c0 40 d8 92 3e 8d 93 bd bd b7 c9 0c bf 2a e7 bf be
       0.2868061 -0.09256659 -0.5499529 -0.37481052
0000d0 5f 20 0d 3e 08 c5 74 3e 63 12 ed be ef 6a 20 3f
       0.1378188 0.23903286 -0.4630309 0.6266317
0000e0 3c 18 25 be 48 16 5f 3d ba cd d5 be 9a 40 d5 be
       -0.16122526 0.05446461 -0.4175852 -0.4165085
0000f0 53 22 81 3f d6 10 27 3e 7b ed 17 3f e6 d9 55 3e
       1.00886 0.16315016 0.5934674 0.20883903

bias f4 [8]
000000 d6 88 83 be fd d6 d6 bd cb ea 2a be 12 f3 b7 be
       -0.25690335 -0.104902245 -0.16691129 -0.35927635
000010 35 96 96 3d 72 ff fa 3d 2b 43 82 3d 12 d5 94 3e
       0.073528685 0.122557536 0.063604675 0.2906881

weight f4 [8, 8]
000000 9d 77 b4 be 14 0f 68 bd 81 0e 99 bc 67 85 f2 3e
       -0.35247508 -0.056655005 -0.018683674 0.47367403
000010 51 f4 9c 3e 9d 3d 1d bf 57 3d a8 be fe b6 1b be
       0.3065515 -0.6142214 -0.328593 -0.15206525
000020 b2 dc 7b 3c dd 6c a3 3e 6b d3 04 3f 2f 54 11 bf
       0.015372442 0.31918994 0.518851 -0.5676908
000030 37 ad bf bd a4 a7 ea bd 1a 81 d6 3e 0a 6b 26 bb
       -0.0935921 -0.11457756 0.41895372 -0.002539339
000040 c7 ae 96 3c 5f ea 73 be 17 c2 14 bd 55 26 1d 3e
       0.018393887 -0.23819874 -0.03631791 0.15346654
000050 f2 83 ef be 1c f8 fb be 0a bf 82 be 30 1d bf 3e
       -0.46780354 -0.4921273 -0.25536376 0.37326956
000060 2e b7 1a bf e6 18 4a bf df c0 6d be 94 d9 02 bf
       -0.6043576 -0.7894424 -0.23218106 -0.5111325
000070 11 09 28 be b2 6d d2 3d d2 71 c9 3c 8f e3 3a 3f
       -0.16409709 0.10274829 0.024590407 0.73003477
000080 8b 9c 9b 3d 66 15 3a bd 6d bd 2e bf df 17 31 3d
       0.075982176 -0.045430563 -0.6825779 0.043235656
000090 1f da 66 3e 64 b6 8c bd 6c 3a 5c 3e b9 7b b1 3e
       0.22544144 -0.06870726 0.21506661 0.34664705
0000a0 48 51 b8 3e 5e bd e5 3e 74 b3 b7 bd 6c 8f 2f 3e
       0.35999513 0.44871038 -0.08969775 0.17144555
0000b0 be 9e 47 3e c6 73 96 3e 2e bc 95 be e1 e0 01 be
       0.19494149 0.29385203 -0.29245132 -0.1268344
0000c0 d9 fa 0e be 68 68 b9 bd 0d f0 ed 3d b9 da 12 3e
       -0.13962878 -0.09053117 0.11618052 0.14341249
0000d0 14 3f c1 3e 7e 21 6b 3e d2 93 1a bf e4 40 31 3e
       0.37743437 0.22961995 -0.60381806 0.1730991
0000e0 38 d6 ae 3e 75 50 da 3d 15 4f f2 3e af c5 32 3f
       0.3414781 0.10659877 0.4732596 0.6983289
0000f0 b0 03 9f 3d 3a cb be be e0 64 05 bf 11 c4 11 bf
       0.07764375 -0.37264425 -0.5210705 -0.569398

bias f4 [8]
000000 34 ab e9 bc 1a 7f e9 3d e7 00 0c be a4 3d 06 3d
       -0.028524019 0.11401196 -0.13672219 0.03277363
000010 84 82 b5 3e 67 4b 0e 3d 30 87 4e 3e ae 52 c7 be
       0.35451138 0.034739878 0.20168757 -0.38930267

p_attn f4 [90, 2, 1, 1]
000000 00 00 80 3f 00 00 80 3f 00 00 80 3f 00 00 80 3f
       1.0 1.0 1.0 1.0
000010 00 00 80 3f 00 00 80 3f 00 00 80 3f 00 00 80 3f
       1.0 1.0 1.0 1.0
000020 00 00 80 3f 00 00 80 3f 00 00 80 3f 00 00 80 3f
       1.0 1.0 1.0 1.0
000030 00 00 80 3f 00 00 80 3f 00 00 80 3f 00 00 80 3f
       1.0 1.0 1.0 1.0
000040 00 00 80 3f 00 00 80 3f 00 00 80 3f 00 00 80 3f
       1.0 1.0 1.0 1.0
000050 00 00 80 3f 00 00 80 3f 00 00 80 3f 00 00 80 3f
       1.0 1.0 1.0 1.0
000060 00 00 80 3f 00 00 80 3f 00 00 80 3f 00 00 80 3f
       1.0 1.0 1.0 1.0
000070 00 00 80 3f 00 00 80 3f 00 00 80 3f 00 00 80 3f
       1.0 1.0 1.0 1.0
000080 00 00 80 3f 00 00 80 3f 00 00 80 3f 00 00 80 3f
       1.0 1.0 1.0 1.0
000090 00 00 80 3f 00 00 80 3f 00 00 80 3f 00 00 80 3f
       1.0 1.0 1.0 1.0
0000a0 00 00 80 3f 00 00 80 3f 00 00 80 3f 00 00 80 3f
       1.0 1.0 1.0 1.0
0000b0 00 00 80 3f 00 00 80 3f 00 00 80 3f 00 00 80 3f
       1.0 1.0 1.0 1.0
0000c0 00 00 80 3f 00 00 80 3f 00 00 80 3f 00 00 80 3f
       1.0 1.0 1.0 1.0
0000d0 00 00 80 3f 00 00 80 3f 00 00 80 3f 00 00 80 3f
       1.0 1.0 1.0 1.0
0000e0 00 00 80 3f 00 00 80 3f 00 00 80 3f 00 00 80 3f
       1.0 1.0 1.0 1.0
0000f0 00 00 80 3f 00 00 80 3f 00 00 80 3f 00 00 80 3f
       1.0 1.0 1.0 1.0
000100 00 00 80 3f 00 00 80 3f 00 00 80 3f 00 00 80 3f
       1.0 1.0 1.0 1.0
000110 00 00 80 3f 00 00 80 3f 00 00 80 3f 00 00 80 3f
       1.0 1.0 1.0 1.0
000120 00 00 80 3f 00 00 80 3f 00 00 80 3f 00 00 80 3f
       1.0 1.0 1.0 1.0
000130 00 00 80 3f 00 00 80 3f 00 00 80 3f 00 00 80 3f
       1.0 1.0 1.0 1.0
000140 00 00 80 3f 00 00 80 3f 00 00 80 3f 00 00 80 3f
       1.0 1.0 1.0 1.0
000150 00 00 80 3f 00 00 80 3f 00 00 80 3f 00 00 80 3f
       1.0 1.0 1.0 1.0
000160 00 00 80 3f 00 00 80 3f 00 00 80 3f 00 00 80 3f
       1.0 1.0 1.0 1.0
000170 00 00 80 3f 00 00 80 3f 00 00 80 3f 00 00 80 3f
       1.0 1.0 1.0 1.0
000180 00 00 80 3f 00 00 80 3f 00 00 80 3f 00 00 80 3f
       1.0 1.0 1.0 1.0
000190 00 00 80 3f 00 00 80 3f 00 00 80 3f 00 00 80 3f
       1.0 1.0 1.0 1.0
0001a0 00 00 80 3f 00 00 80 3f 00 00 80 3f 00 00 80 3f
       1.0 1.0 1.0 1.0
0001b0 00 00 80 3f 00 00 80 3f 00 00 80 3f 00 00 80 3f
       1.0 1.0 1.0 1.0
0001c0 00 00 80 3f 00 00 80 3f 00 00 80 3f 00 00 80 3f
       1.0 1.0 1.0 1.0
0001d0 00 00 80 3f 00 00 80 3f 00 00 80 3f 00 00 80 3f
       1.0 1.0 1.0 1.0
0001e0 00 00 80 3f 00 00 80 3f 00 00 80 3f 00 00 80 3f
       1.0 1.0 1.0 1.0
0001f0 00 00 80 3f 00 00 80 3f 00 00 80 3f 00 00 80 3f
       1.0 1.0 1.0 1.0
000200 00 00 80 3f 00 00 80 3f 00 00 80 3f 00 00 80 3f
       1.0 1.0 1.0 1.0
000210 00 00 80 3f 00 00 80 3f 00 00 80 3f 00 00 80 3f
       1.0 1.0 1.0 1.0
000220 00 00 80 3f 00 00 80 3f 00 00 80 3f 00 00 80 3f
       1.0 1.0 1.0 1.0
000230 00 00 80 3f 00 00 80 3f 00 00 80 3f 00 00 80 3f
       1.0 1.0 1.0 1.0
000240 00 00 80 3f 00 00 80 3f 00 00 80 3f 00 00 80 3f
       1.0 1.0 1.0 1.0
000250 00 00 80 3f 00 00 80 3f 00 00 80 3f 00 00 80 3f
       1.0 1.0 1.0 1.0
000260 00 00 80 3f 00 00 80 3f 00 00 80 3f 00 00 80 3f
       1.0 1.0 1.0 1.0
000270 00 00 80 3f 00 00 80 3f 00 00 80 3f 00 00 80 3f
       1.0 1.0 1.0 1.0
000280 00 00 80 3f 00 00 80 3f 00 00 80 3f 00 00 80 3f
       1.0 1.0 1.0 1.0
000290 00 00 80 3f 00 00 80 3f 00 00 80 3f 00 00 80 3f
       1.0 1.0 1.0 1.0
0002a0 00 00 80 3f 00 00 80 3f 00 00 80 3f 00 00 80 3f
       1.0 1.0 1.0 1.0
0002b0 00 00 80 3f 00 00 80 3f 00 00 80 3f 00 00 80 3f
       1.0 1.0 1.0 1.0
0002c0 00 00 80 3f 00 00 80 3f 00 00 80 3f 00 00 80 3f
       1.0 1.0 1.0 1.0

weight f4 [200, 8]
000000 7d 38 c8 3d ea 83 85 3b ca 2c 35 bd 73 a7 b1 3d
       0.09776399 0.0040745633 -0.044232167 0.086745165
000010 cf fc 48 bd 7e e1 cf bd 19 b1 2a 3d a7 b7 8a bd
       -0.049069222 -0.10150431 0.0416728 -0.0677331
000020 d1 0a 67 bd 2f f3 8d bd 03 ef 7a 3d 8f 4e 83 3c
       -0.0564068 -0.06931149 0.061263096 0.01602867
000030 ca 6d 39 bc 44 25 11 be 0e 44 87 3c 4f 47 18 3e
       -0.01131768 -0.14174372 0.016511943 0.14870952
000040 f8 cc c0 bc 77 1e f6 bc 04 70 58 3d bd d5 d4 3d
       -0.023535237 -0.030043824 0.0528412 0.1039233
000050 ea 90 bb 3d 22 4a b2 3d c6 73 96 3d fa ce 01 be
       0.091584995 0.08705546 0.07346301 -0.12676612
000060 23 20 81 bd a3 c6 e8 bd d2 a7 dd 3d cd 45 19 be
       -0.06304958 -0.11366012 0.10823025 -0.14968033
000070 3d 82 e2 3d d6 9a 5d 3c 2b a6 d6 bc 6d 7b f5 3d
       0.11059997 0.013525685 -0.026202282 0.11986432
000080 a1 69 16 be 8c 0a 98 3d ba 96 ba 3d 01 24 33 3d
       -0.14688732 0.07423887 0.0911078 0.043735508
000090 db 98 77 bc 3c ea 79 bd 0d da cf bd 03 78 0c 3e
       -0.015112127 -0.0610144 -0.10149012 0.13717656
0000a0 51 ff 13 3e a4 0e 26 be 0d c3 a2 3d 2e 23 8c 3d
       0.14452864 -0.16216522 0.07947359 0.068426475
0000b0 a5 2f e4 bc bc 43 b7 3d 5f 36 36 3d 9f a9 8d 3d
       -0.02785475 0.08948466 0.044485446 0.06917118
0000c0 d3 84 57 3c ae 25 d9 bd d0 51 db bd 84 9b 2e be
       0.013154226 -0.1060289 -0.10708964 -0.17051512
0000d0 62 96 d2 3d 87 35 23 3e 5c a2 8e 3d 96 dd ca bd
       0.102825895 0.15938388 0.06964561 -0.099055454
0000e0 61 c5 33 bc 85 95 1e be 2c 25 d9 bd 87 64 1e be
       -0.010972352 -0.15486725 -0.10602793 -0.15468036
0000f0 3b f1 2d 3e 8e c0 a8 bd 1c 3a fe 3d 3c 53 1e be
       0.16986553 -0.08239852 0.12413427 -0.15461439
000100 01 4e 02 be 71 2e 1a 3d 5f ad 51 be 3f e3 17 3e
       -0.12725069 0.037641946 -0.20476292 0.14832781
000110 15 df 35 3e e6 61 d3 3c c3 90 0c be 81 9f 86 bd
       0.1776088 0.025803518 -0.13727097 -0.06573392
000120 ec 68 09 3e 5f bf 0a 3d f5 d1 90 3d fd 64 06 be
       0.13418931 0.033873912 0.07071296 -0.13124461
000130 a1 a5 e2 bd 7a e7 da bd a7 6a b8 bd 37 88 0a 3d
       -0.110667475 -0.10688682 -0.09004717 0.03382131
000140 bd 9a 8e bd 28 0b 19 be 3d c6 05 be d8 54 db bd
       -0.06963108 -0.14945662 -0.13063903 -0.10709542
000150 75 4a 10 be 5c 10 46 bc cc b5 50 3e ef 3a db bd
       -0.14090903 -0.012088861 0.2038185 -0.107046
000160 0f 19 b1 bd 23 fd 5f 3e fb 1c eb 3d 18 72 83 3c
       -0.08647358 0.21873908 0.11480137 0.016045615
000170 fe ca 00 3e e0 51 98 be af f2 e1 bd 42 cb 0e be
       0.12577435 -0.29749966 -0.11032616 -0.13944724
000180 b1 cc e2 3d 14 50 43 be 3e a2 42 be be f3 c4 bd
       0.11074198 -0.19073516 -0.19007203 -0.09616803
000190 17 2f c1 3c 79 6a a6 bc 48 3e 3e 3d 01 ba de 3d
       0.023582024 -0.020314442 0.046446115 0.10875321
0001a0 ca 51 c2 bd 4e 30 4d 3d a2 1d 0a bd 44 90 39 bc
       -0.09488256 0.050094895 -0.033719666 -0.0113258995
0001b0 2a bf a2 3d 24 c3 14 3d 01 c8 56 bc 56 23 1a 3e
       0.07946618 0.036318913 -0.013109208 0.15052542
0001c0 9b 99 2d be 8a 0d 48 bd f7 10 88 3d 2c 46 1e be
       -0.16953127 -0.048841037 0.06643861 -0.15456456
0001d0 4f ac 66 3c 5a 48 2a 3e 22 ee fe 3c 37 56 1c 3e
       0.0140791675 0.16629162 0.03111941 0.15267263
0001e0 b1 8e 20 be 25 53 d2 ba 6b 2a bb bc 14 ed f5 bc
       -0.15679432 -0.0016046508 -0.022847375 -0.030020274
0001f0 80 ba 2d 3e 9c 29 53 3d 12 df f5 bd 6f a6 0c 3e
       0.16965675 0.051553354 -0.12005438 0.13735364
000200 2c 35 09 be 36 7c d7 bd 3b c8 4d 3e 9b 8e f0 bb
       -0.1339919 -0.10521738 0.20095913 -0.0073412186
000210 fe 61 27 be 48 a5 44 be be 54 7e 3c 2f a7 c9 bb
       -0.16345975 -0.19203675 0.015523134 -0.006153963
000220 d3 9e cb bd 3b b6 80 be 6f 81 25 3e 07 f7 d5 3c
       -0.09942403 -0.2513903 0.16162656 0.026118768
000230 25 2a 5e 3d 44 0c ef 3d 48 df fc 3d 7e b4 37 3e
       0.05423941 0.11672261 0.12347275 0.17939946
000240 05 55 72 3c 04 87 5b be aa 41 33 3e fe 7f 2c 3d
       0.014790778 -0.21438223 0.17505518 0.04211425
000250 cf ce de bc 4a 36 1f bd 3b 81 ef 3d 9e 6f e2 3d
       -0.027198223 -0.038870133 0.11694571 0.110564455
000260 cc 0c 67 bc b8 38 ab 3b 8d c3 d9 3d 53 dd 90 3c
       -0.014102172 0.0052252673 0.106330015 0.01768366
000270 0d 11 1e bd 36 b3 21 be 4a c2 0f bd 6d 97 df 3d
       -0.03859048 -0.1579102 -0.035097398 0.10917554
000280 54 d0 21 be 6f 0c a6 ba e8 af 88 bd c3 3a 37 be
       -0.15802127 -0.00126685 -0.066741765 -0.1789351
000290 a8 fa ef 3c 4f 81 52 bc d3 05 21 bd e3 87 7f bd
       0.029294327 -0.012848212 -0.039312195 -0.06238545
0002a0 a0 41 56 bc a1 c4 f4 3d f2 5d 12 3d 00 bf c5 bd
       -0.01307717 0.119515665 0.035734124 -0.09655571
0002b0 0c 4d 4a bd 84 58 b8 3d 44 2d a3 3d d2 2e 03 3d
       -0.049389884 0.09001258 0.07967618 0.032027073
0002c0 09 5e 58 be b2 22 93 3d 03 f0 f6 3c 39 a1 6f 3d
       -0.21129622 0.07184352 0.030143743 0.058503363
0002d0 1a e7 25 3d 4f 7b 02 3e 0c 94 89 bd 4b bc 35 be
       0.0405036 0.12742351 -0.06717691 -0.1774761
0002e0 7c ab 1b 3c be 39 e3 3d df e6 1f be 5a 25 54 3e
       0.009501334 0.11094998 -0.15615414 0.20717373
0002f0 63 4c be 3d b0 e5 60 3d 86 d7 e1 bc e5 85 01 bd
       0.09291913 0.054906547 -0.02756859 -0.031621832
000300 d1 28 e8 bc 47 48 8e 3c a9 0a 90 bd 9c d9 c9 bc
       -0.028339775 0.017368449 -0.07033283 -0.024639897
000310 92 4f 83 3d ba d1 22 be 96 98 36 3e f7 6d 8d be
       0.06411661 -0.15900317 0.17831644 -0.2762296
000320 83 c7 c8 3d 43 28 08 3b b0 58 63 3e c7 5a f6 bd
       0.09803679 0.002077595 0.222018 -0.12029033
000330 ab 77 f3 3c 64 43 72 bc 06 ad 82 bd b4 69 93 3c
       0.029720148 -0.014786575 -0.06380658 0.01799474
000340 9e db ff bd 4f 9a 10 3c 71 33 2e 3d 8f 51 0d be
       -0.124930605 0.008825853 0.042529527 -0.13800643
000350 74 0c 66 bd 3d 01 03 bd 37 11 9e bd ca c6 ce bd
       -0.05616422 -0.031983603 -0.07718127 -0.1009651
000360 ad 3d 2b be 82 2e 85 bd fa 8e 5e 3e d7 0f 7c 3c
       -0.16722746 -0.06503011 0.21734229 0.015384636
000370 80 cd f8 bd 56 db a9 3c 09 2c 4b be f7 d1 90 3d
       -0.12148571 0.02073447 -0.19841017 0.070712976
000380 46 53 e7 bd de 42 a8 bd 3a 15 96 bd a3 59 19 bd
       -0.1129518 -0.08215879 -0.073282674 -0.037439
000390 59 18 2f be 32 db 79 3d e5 24 96 bc 50 40 1d 3e
       -0.17099132 0.061000057 -0.01832814 0.15356565
0003a0 4e 86 7d bc 50 8c 39 3d ab c7 86 3d e8 79 87 3e
       -0.015473915 0.045299828 0.065810524 0.26460195
0003b0 7c 1b c5 bb 60 b4 bd 3d 13 d2 ff bd b0 8c 80 be
       -0.0060152393 0.092629194 -0.1249124 -0.25107336
0003c0 aa a6 cd bd c0 46 58 3d 9c 14 e5 bd ee de 78 be
       -0.10041554 0.052801847 -0.111855716 -0.24303791
0003d0 bd d8 bd 3d 79 85 2e be e7 ea af bd 5f 0c 17 3d
       0.09269855 -0.17043103 -0.08589726 0.036877032
0003e0 e6 5b f5 bd 0a db 85 3d 5f 67 47 3d 4b 5c 3e bd
       -0.11980419 0.06535919 0.048682567 -0.046474736
0003f0 05 11 4c 3e 7e 5a 26 be 7c 43 4b bd 0b 24 1f be
       0.19928367 -0.16245458 -0.049624905 -0.15541093

bias f4 [200]
000000 d8 f9 d4 3a 0b cc 86 3e 21 ec f5 3d e2 83 7a 3e
       0.0016248776 0.26327547 0.12007929 0.24464372
000010 7b 8b aa be cb d7 d0 3d 45 87 08 3d ca 36 09 be
       -0.3330954 0.10197409 0.033332128 -0.13399807
000020 3d 0c fa bd 08 6a 83 be 62 aa f8 3d 28 e5 f7 bd
       -0.122093655 -0.25666833 0.12141873 -0.12104255
000030 26 10 15 3e 27 27 a6 be b8 ca 40 3e 89 a6 9e be
       0.14556941 -0.32451746 0.18827331 -0.3098643
000040 91 a4 a2 be 46 11 04 3e 3f 68 61 3c 64 ba 12 be
       -0.3176618 0.12897214 0.013757764 -0.14328915
000050 b8 b3 07 be ea 81 37 be 03 3f 6b 3d e6 90 1c be
       -0.13252151 -0.17920652 0.05743314 -0.1528965
000060 1a 95 5f 3e f8 ef 23 3d 1c 30 ce bd cf 00 89 be
       0.21834221 0.040023774 -0.1006777 -0.2675843
000070 a5 4b 5a 3e cc 0d 88 3d 17 c9 1d 3e c3 3a 2a 3e
       0.21317919 0.066432565 0.15408741 0.16623978
000080 72 80 42 be 9c 40 a5 be 87 20 4c 3e c2 07 a9 3d
       -0.1899431 -0.32275856 0.19934283 0.08253433
000090 ab e8 3b be dc 6a 4f 3e c9 55 c8 3d c0 23 a0 be
       -0.18350475 0.20255607 0.09781987 -0.31277275
0000a0 4f b1 ce 3d 5c 88 03 3e 94 a0 b4 be 22 8e 8a be
       0.10092413 0.12844986 -0.3527876 -0.27061564
0000b0 b8 d4 4b 3e d3 c1 06 be 40 9b a8 be 23 9e ee 3d
       0.19905365 -0.13159876 -0.32930946 0.11651256
0000c0 b8 69 3e 3e 02 ff 22 3e ea 34 60 be 86 d3 0c bc
       0.18595016 0.1591759 -0.21895185 -0.008595353
0000d0 8a 68 16 be 87 f0 eb 3d 96 78 57 3e 97 51 39 be
       -0.14688316 0.11520486 0.21042094 -0.1809753
0000e0 38 26 e9 3c 99 1a 63 3d a4 74 8d 3d 6d 4b 03 be
       0.028460607 0.055445287 0.06907013 -0.12821741
0000f0 d6 88 09 be cb 5b 33 be 4c 6f ab 3e cb 9d 67 3d
       -0.13431105 -0.17515485 0.3348335 0.056546967
000100 97 a7 8b 3d 4d 90 aa be b0 6a 41 3e 47 97 e4 3d
       0.068190746 -0.33313218 0.18888354 0.11161666
000110 cb 6d 94 3d e8 0e 8b bd d9 f0 8c 3d 0e 8e 6c be
       0.07247504 -0.067899525 0.068818755 -0.23101065
000120 77 59 36 bd 75 fb 46 be b7 46 2f 3d aa 34 1d 3d
       -0.044518914 -0.1943186 0.04279205 0.038380302
000130 d4 d9 a1 be 45 29 ad bd 62 42 75 be 4c 33 be bb
       -0.31611502 -0.08455137 -0.23951104 -0.005804455
000140 15 aa 34 3d fd f0 6f 3e 5d ef 50 be b0 6b 1c 3e
       0.044107515 0.23431773 -0.2040381 0.15275455
000150 a7 51 7d bc c3 91 c9 bd 2b 6d 87 3d 6c 5c 22 3d
       -0.015461362 -0.09842255 0.06612619 0.03963892
000160 79 5a 65 3e 3e b6 0c 3e db f3 d4 3c 1b 3f 86 3e
       0.22397794 0.13741395 0.025995186 0.2622002
000170 67 60 da bd 9b 42 d8 3d 5a e6 2e 3e 19 dc 8f bd
       -0.106629185 0.10559579 0.1708006 -0.07024402
000180 c0 93 df 3d 0f 81 12 bd 68 cd a7 be 47 13 60 3e
       0.10916853 -0.03576761 -0.327739 0.21882354
000190 48 b0 0e 3e 1b 58 55 be e2 30 72 3e a0 84 ff bd
       0.13934433 -0.20834391 0.2365146 -0.12476468
0001a0 3c de 90 be bf d9 88 3e 79 0b 24 be 56 d1 96 3d
       -0.2829455 0.26728627 -0.16020001 0.073641464
0001b0 10 f8 38 3d c0 ff 68 be 3a 91 62 be 31 73 17 3e
       0.045158446 -0.22753811 -0.22125712 0.14790036
0001c0 7b 66 4f bc 3d 37 84 be 25 b6 54 bc ac 10 9f bd
       -0.012658711 -0.25823393 -0.01298288 -0.07766852
0001d0 eb 65 78 be 5e c6 53 3e 74 e9 98 bd fd e2 10 be
       -0.24257629 0.2068114 -0.07466403 -0.14149089
0001e0 2a 17 3a 3e 67 c6 fc 3d 93 a3 8e be 61 1c 3b 3e
       0.18172899 0.1234253 -0.27859172 0.18272544
0001f0 75 1a 25 be 83 6f 1d 3e 37 5e 1a be 22 27 14 be
       -0.16123374 0.1537457 -0.15075003 -0.14468053
000200 cc 12 0a be 69 fb 5e bd 36 e8 98 3e 94 da 95 be
       -0.13483733 -0.054438982 0.29864663 -0.29268324
000210 d1 7c d0 bd ef 33 2d bd ea eb 35 be 79 52 18 be
       -0.10180057 -0.042285856 -0.17765775 -0.14875211
000220 93 d9 84 be 59 46 94 bc 94 c7 39 3d c0 99 92 bd
       -0.25947246 -0.01809995 0.04535635 -0.07158232
000230 0f 46 28 be 10 ac 1f 3e 2b 79 5e 3e bc 0d bb be
       -0.16432975 0.1559298 0.2172591 -0.36533916
000240 ad fb 04 3e e2 56 28 be 7e 12 86 be 0c 28 e9 bc
       0.12986632 -0.16439393 -0.26185983 -0.028461479
000250 e4 17 39 3d 28 6a 8e be e8 cb a1 be b0 35 6e be
       0.0451888 -0.27815366 -0.3160088 -0.23262668
000260 0c 61 19 3e a6 a9 74 be 91 26 9d bd f2 2d 20 be
       0.14978427 -0.2389284 -0.076733716 -0.15642527
000270 7c ca 3a 3e a2 49 96 be 05 80 19 3d 4e 63 2b be
       0.18241304 -0.29353052 0.037475605 -0.167371
000280 f3 c7 b4 bd 76 22 2d be 85 5d bc 3b 61 77 fd 3d
       -0.088272 -0.16907677 0.005748453 0.12376285
000290 c1 73 b2 bc 33 fb 59 3e fa 07 f0 ba 5a 34 16 bd
       -0.021783711 0.21287231 -0.0018312924 -0.03667102
0002a0 ff fb b6 be c5 2b f4 bd aa 9a 7d 3e a6 5d 11 bd
       -0.35739133 -0.11922411 0.24766031 -0.0354897
0002b0 f8 f8 30 be 0b 1e ff bc 80 1b d7 3d d3 49 14 bd
       -0.17282474 -0.031142255 0.10503292 -0.036203217
0002c0 a0 eb 6a 3e 44 e9 29 be c5 59 70 3e 54 0d c5 3d
       0.22941446 -0.1659289 0.23471744 0.09621683
0002d0 d6 e2 24 3d 74 e8 31 3e 53 94 69 be 93 0b 2d 3e
       0.04025539 0.1737383 -0.22810487 0.16898946
0002e0 e2 c2 93 bd 18 85 9e be 0c 78 9e be 0b f6 ef 3c
       -0.07214905 -0.30960917 -0.30950963 0.029292127
0002f0 20 94 ab 3d e6 44 da bc f7 fa 92 3e 74 1e 02 be
       0.08377862 -0.026644181 0.28707096 -0.1270693
000300 64 60 49 3d 21 15 0b 3e e0 bb b6 bd d1 e8 97 be
       0.04916419 0.13582279 -0.08922553 -0.29669812
000310 8c 89 f6 bd 58 d5 de 3d 15 2c 48 3c 49 6f ad bc
       -0.12037954 0.10880536 0.012217541 -0.021171229

weight f4 [8, 200]
000000 dc d1 a6 3c da 31 73 3d a2 9c 85 3d eb 23 fc 3c
       0.02036374 0.059373714 0.06524016 0.030778846
000010 ff c2 d8 bd c2 43 34 3e 3b 02 8c bd 67 e2 2b be
       -0.105840676 0.17603973 -0.06836363 -0.16785584
000020 09 a9 8e bd 1a 4a c0 3a 0c 6b 52 3d b4 87 c8 3d
       -0.06965835 0.0014670521 0.05137162 0.09791508
000030 af 97 22 3e c7 1d 92 bc b0 46 c2 bd 85 fd 00 3e
       0.15878175 -0.017836465 -0.09486139 0.1259671
000040 c4 ae 1c 3e 95 39 51 3e 0a de 36 3e a4 d5 8d bd
       0.15301043 0.20432122 0.17858139 -0.06925514
000050 72 fa e2 3c 42 b2 36 3d d0 86 e4 bd ca e5 37 be
       0.027707312 0.044603594 -0.11158526 -0.17958751
000060 b8 5a 32 be ce 3a c3 3d 41 e5 61 3d 28 6e ab 3c
       -0.17417419 0.095327005 0.055150274 0.02092655
000070 15 6c 0d be 8b e0 1b be be 55 05 be 8b ef 39 3d
       -0.13810761 -0.15222375 -0.1302099 0.04539446
000080 d6 fa b8 bc 6a 1b c5 3d 10 74 3d be 3a 66 c5 bc
       -0.022580545 0.096243694 -0.18501306 -0.024096597
000090 f1 e7 e3 bd 58 de dc bd 29 11 58 be bc c9 0e 3e
       -0.11128224 -0.10784596 -0.21100296 0.13944143
0000a0 d4 44 a4 3d 8c 5c da bd e7 3b f2 bb f8 dd 2f bd
       0.080209404 -0.10662183 -0.007392395 -0.042936295
0000b0 3a 95 c1 3c 8c d2 c9 bd ce 2e a2 3a e0 15 d7 3d
       0.023630727 -0.09854612 0.0012373568 0.10502219
0000c0 9d 60 94 bd 62 8e 0b bc 44 de c8 3d e7 7e 91 bc
       -0.0724499 -0.008517833 0.09808019 -0.017760707
0000d0 d4 0c 2b 3e 49 51 8f 3d 59 59 2e 3d da 8c 25 be
       0.16704112 0.06997926 0.042565677 -0.16167012
0000e0 33 33 84 bd 06 61 06 bd 33 62 15 3e 2f f5 62 bd
       -0.06455078 -0.032807373 0.14588241 -0.055409607
0000f0 19 ab 10 3d 0d 5e 19 3e b3 5a 39 3e 81 0a 25 3d
       0.03531942 0.14977284 0.18101005 0.04029322
000100 fe c4 1f 3d 2d 13 2e 3e 84 54 d7 3d af 72 6f be
       0.039006226 0.16999502 0.10514167 -0.23383592
000110 fb 9b 0c bd e1 5c 0a 3e a2 dd 93 3d bf 01 09 bd
       -0.034328442 0.13511993 0.072200075 -0.03344893
000120 e9 0f da 3c 75 ea 37 be 3d 02 ba 3d da 9b 05 3e
       0.026618915 -0.17960532 0.09082458 0.13047734
000130 84 ea 09 bd 44 4c c2 bc 48 ad 24 be f4 e1 22 3e
       -0.033670917 -0.023718007 -0.16081727 0.15906507
000140 d5 04 df bc d3 51 f3 bc 04 c2 ae 3d e2 ab bf bd
       -0.027223984 -0.029702103 0.08533099 -0.09358956
000150 c1 6e 51 bd 65 5e f6 3d 37 59 d2 3c f7 22 f6 bd
       -0.051131014 0.12029723 0.025677307 -0.12018388
000160 11 83 bb bd b8 15 1e be 34 ba ff 3c 29 34 91 3c
       -0.09155858 -0.15437973 0.031216718 0.017725067
000170 78 4b 77 3b 5a 5a 05 3e 06 93 86 3c b7 03 d0 bd
       0.0037734192 0.13022748 0.016427528 -0.101569586
000180 c7 6b f9 3d 0c 11 0e 3e 91 bc 09 3e eb 5a b6 3c
       0.1217876 0.1387369 0.13450839 0.02226015
000190 8e b3 3d be f1 79 fc 3d 12 94 8b bd 4d f9 77 be
       -0.18525526 0.12327946 -0.068153515 -0.24216194
0001a0 d0 c0 8e bd f5 69 81 bd 98 e2 0c be 39 97 8b bd
       -0.0697037 -0.06319038 -0.13758314 -0.06815953
0001b0 03 37 8f bd eb 42 ab 3d bb cb 0d 3e c9 55 80 3d
       -0.069929145 0.08362373 0.13847248 0.06266362
0001c0 81 99 a8 bc 7a 11 f7 3d f2 73 82 3d 20 47 3b be
       -0.020581009 0.1206388 0.06369771 -0.18288851
0001d0 78 f0 17 be 64 f3 34 3c b1 92 fa bc 6b 82 81 bd
       -0.14837825 0.011044357 -0.030587526 -0.063237034
0001e0 89 f0 37 bd dd 6a 1a 3d d4 7f 61 3d 93 29 99 3d
       -0.044907127 0.03769957 0.055053547 0.07478633
0001f0 bf ee a0 3a 8b c1 d6 bd d2 a4 02 bc de b5 08 be
       0.0012278183 -0.10486134 -0.007973867 -0.13350627
000200 52 2e 1e be 2e c2 93 bb 34 89 60 3d a3 ed bb bd
       -0.15447357 -0.004509232 0.054818347 -0.09176185
000210 9d 1d 27 3e aa f7 d7 bc e0 aa 20 3d 22 db 69 bb
       0.1631989 -0.026363213 0.03922546 -0.0035683592
000220 58 22 f0 3d c2 a7 39 be 96 b4 3e be c3 9e 03 be
       0.117253006 -0.18130401 -0.18623576 -0.12853532
000230 ac ef 93 bc 82 40 bb 3d 7f b9 99 bd 83 5b ca 3d
       -0.01805862 0.09143163 -0.07506084 0.09880736
000240 3c 65 98 bd 22 47 5b bd 48 a6 a9 3d 97 30 b5 3d
       -0.07441184 -0.053534634 0.08283669 0.088471584
000250 92 76 9e bd 14 2d 31 3e 10 5d 13 be f9 ad c5 bd
       -0.07737459 0.17302352 -0.1439097 -0.09652323
000260 dc 8c 34 be 78 96 05 be 8f 9b 61 3e e7 ea d3 38
       -0.17631859 -0.1304568 0.22031997 0.00010105018
000270 ea f9 13 be 81 e7 2d be a5 17 19 3e e2 64 d7 3d
       -0.14450803 -0.16982843 0.14950426 0.10517289
000280 55 bd f1 3d e8 4f 4d 3e d9 89 1b 3e 6f 2f 3f be
       0.1180369 0.20050013 0.15189303 -0.18670438
000290 c5 3f 33 be b3 b6 01 3d d4 96 3b 3d 10 4f 49 bb
       -0.17504795 0.031668376 0.045798138 -0.003071729
0002a0 42 87 fa bc bb 0f a3 3d 0d a8 3b 3e 51 15 05 bd
       -0.030582074 0.07961985 0.18325825 -0.032491032
0002b0 a7 d5 a1 3d 12 d2 bf 3d 8e 74 d2 3d e7 ac 50 bc
       0.07902079 0.093662396 0.10276137 -0.012736536
0002c0 a4 40 0d 3e 04 f3 20 bd a6 1e cd bd e4 73 f4 bd
       0.1379419 -0.039294258 -0.10015611 -0.11936167
0002d0 4a 88 75 bd eb 64 c0 3d b4 04 b2 3c a4 cd 05 be
       -0.05994443 0.093942486 0.021730758 -0.13066727
0002e0 f4 b8 e1 3d 90 ae bf 3b 7e 8d f9 3c 92 4d 46 3c
       0.11021605 0.005849667 0.030462977 0.012103455
0002f0 a6 84 1f 3d 95 cc 75 3d 57 21 5c bd b9 7a 15 3d
       0.038944863 0.060009558 -0.053742733 0.03649399
000300 31 41 dd bd 08 08 fa bd 8c a4 5d 3d 42 93 bf 3d
       -0.1080345 -0.12208563 0.054112002 0.09354259
000310 de 6a c6 bd 81 7b 0c be bc e2 80 bd eb cb 82 3d
       -0.09688352 -0.13718988 -0.06293246 0.063865505
000320 be c2 94 3d fc c2 fe bd 2c 04 b1 3d 2b 45 ab bb
       0.072637066 -0.12439534 0.08643374 -0.0052267513
000330 2c ed 23 3e d9 0e d3 3d e6 f0 ed 3d cc 89 c8 3c
       0.16008443 0.10305566 0.11618213 0.02447977
000340 f9 c7 eb 3c 9f b5 9f 3c ed 7e 42 3c bb cb 89 be
       0.028781878 0.019495783 0.011871082 -0.26913247
000350 53 b6 48 3d b1 ec cc 3d 58 6c 46 3d 97 bb 3b 3e
       0.049002003 0.10006083 0.04844317 0.18333279
000360 9d 66 05 3d 43 ca 05 3e ad 3c dd 3c 37 f1 0e be
       0.032568563 0.13065438 0.027006472 -0.13959204
000370 08 0e 12 bc 26 b5 d3 bd 52 1e e5 3d d0 e8 dc bd
       -0.008914478 -0.10337286 0.11187424 -0.10786593
000380 74 df 40 3d fc 8d 5b 3d 37 0b 6d bd 92 a9 94 3d
       0.0470881 0.053602204 -0.057872023 0.072589055
000390 80 47 37 3d ef da df 3c 08 6e ee bd 22 9b ac bd
       0.044745922 0.027326075 -0.116420805 -0.08428027
0003a0 0f 4c 1e bd 33 d0 2d be b9 c0 06 3e 8f be 77 bd
       -0.038646754 -0.16973953 0.13159455 -0.060484465
0003b0 19 bc 67 bc 3d 2b 8a 3d e0 cf bb bd 17 33 4f 3d
       -0.014143967 0.06746528 -0.091705084 0.050585832
0003c0 2f bd 14 bd c4 16 31 be cc 7c f1 bd ee ed bf 3d
       -0.036313232 -0.1729384 -0.11791381 0.09371553
0003d0 20 7c 4d 3e ff f5 65 3b f8 62 92 bd 22 3f 03 be
       0.20066881 0.0035089252 -0.07147783 -0.12817052
0003e0 25 10 18 3e 03 62 69 bd c8 bc fa 3d 68 95 a6 3d
       0.14849909 -0.056978237 0.122430384 0.08133966
0003f0 40 81 1e 3e 67 17 70 3d c0 34 03 bd 8b e2 b2 3d
       0.15478992 0.05861607 -0.03203273 0.08734616

bias f4 [8]
000000 e2 6e f0 3d b9 d1 20 3d 2a 23 29 bb d0 0f 28 bd
       0.11739899 0.039262507 -0.0025808313 -0.041030705
000010 4c d8 8f 3b fd 9d 9f 3d 8f 13 5b 3d 70 19 13 be
       0.0043897983 0.07793806 0.05348545 -0.14365172

a2 f4 [8]
000000 16 1b 8e 3f 74 a4 8f 3f 13 61 eb 3f 4a b4 e3 3f
       1.1102016 1.1222062 1.8389 1.7789395
000010 3e 01 c7 3f 96 b5 81 3f 7d 72 a4 3f 16 11 0c 40
       1.5547254 1.0133541 1.2847439 2.1885428

b2 f4 [8]
000000 68 90 04 3f ec 65 1a bd 36 04 8a bd 36 c6 7f bf
       0.51782846 -0.037694857 -0.067390844 -0.9991182
000010 4c 9f ed 3e f2 76 11 be b2 4b d7 3e 12 50 37 bf
       0.46410596 -0.1420553 0.42049938 -0.7160655

a2 f4 [8]
000000 b3 60 7b 3f e1 21 98 3f e9 bf 80 3f 0a d5 8d 3f
       0.98194426 1.1885339 1.0058566 1.1080639
000010 c5 b4 8f 3f 5d 3e 93 3f c9 5b 74 3f 7b 5f 93 3f
       1.1227041 1.1503407 0.95452553 1.1513513

b2 f4 [8]
000000 9e 1b 85 3d a6 7d 21 bd bd 1c 16 3e 30 f4 93 3d
       0.06499408 -0.03942647 0.146594 0.072243094
000010 1d 54 6c 3c 34 49 91 3c 4d bd 34 bd db 8a 68 3c
       0.014424351 0.017735101 -0.044125844 0.014193262

a2 f4 [8]
000000 06 b6 bb 3f 6f 00 c4 3f 9d 86 a9 3f 2b 1e 55 3f
       1.4664924 1.5312632 1.3244206 0.8324916
000010 14 eb 66 3f be 80 73 3f 72 f2 9f 3f 3f ed 84 3f
       0.9020245 0.9511832 1.2495863 1.0384902

b2 f4 [8]
000000 87 fa f8 bd b8 c9 c1 3e 7b 4b 0f 3e 62 a9 f3 3c
       -0.12157159 0.37849212 0.13993637 0.029743854
000010 e5 f5 72 be fe 08 59 be ce 25 c8 bd be cd d4 3e
       -0.23726614 -0.21194836 -0.09772836 0.4156322

weight f4 [8, 8]
000000 00 c6 b0 bc b6 c5 0b bf 29 bc 93 be 3b b4 af be
       -0.021578789 -0.5459856 -0.28854492 -0.34317192
000010 fe f7 8c 3e 58 f3 f4 be 0d d3 13 3f d5 69 12 3f
       0.27532953 -0.47841907 0.5774391 0.57192737
000020 34 12 a6 3e 0c ed 1a 3e 58 ed 10 3e ba c3 e7 3e
       0.32435763 0.15129489 0.1415304 0.45266515
000030 7b 55 8e be 84 8b ee be 08 fd 6f 3e b2 26 f2 be
       -0.2779959 -0.46590817 0.23436368 -0.47295147
000040 c7 48 16 3f 6e 11 3a be 5e d2 aa 3e 60 20 a9 bd
       0.587048 -0.18170711 0.33363622 -0.08258128
000050 4a da ba 3e 7b d0 ec be 20 7e 46 bd ec 21 49 be
       0.36494666 -0.46252808 -0.048460126 -0.19641846
000060 26 06 df 3e e0 3a 1d be a1 21 85 be dc f1 4b be
       0.43559378 -0.1535449 -0.2600222 -0.19916481
000070 ac d4 31 3e a0 f4 82 3c 68 98 04 3e 5d 54 16 3f
       0.17366284 0.015985787 0.12948763 0.5872248
000080 2c ce b2 be 84 cf 42 3e 88 3a 5c 3e 34 1f f2 be
       -0.34922922 0.19024473 0.21506703 -0.4728943
000090 e8 31 79 3e 20 b3 75 bd 9c 5a 95 3e 04 e1 ae 3e
       0.24335444 -0.05998528 0.29170692 0.34156048
0000a0 2c 59 25 3e 40 71 8f bc f5 97 fe be e8 5e 6f 3e
       0.16147298 -0.017510056 -0.4972531 0.23376048
0000b0 a0 d6 b5 bd b8 20 f3 3d 60 8c a8 3d 9a e0 a7 3e
       -0.08878827 0.11871475 0.082298994 0.32788545
0000c0 d0 fe ad 3e de 5d 1a be c9 4f 06 3f a0 64 4e bd
       0.3398347 -0.1507487 0.5246549 -0.050388932
0000d0 9e fe a3 3e 6b 1a 1b 3f f7 c5 9d be 6b 2b 13 bf
       0.32030195 0.60587186 -0.30815098 -0.57488126
0000e0 90 13 4e 3d e0 b2 bd be c5 80 19 3f bc 60 0e 3e
       0.050311625 -0.37050533 0.5996211 0.13904089
0000f0 bb b7 09 bf 52 66 db 3e 4d 06 00 3f 85 6b 06 3f
       -0.53795975 0.42851502 0.50009614 0.5250781

bias f4 [8]
000000 d0 36 cc bc 8e dc 95 be 74 d0 9c be 34 8e 85 bd
       -0.02492848 -0.29269832 -0.30627787 -0.06521264
000010 03 0e 88 3e f0 a1 07 3d a8 2c 3b bd 88 26 80 be
       0.2657319 0.03311342 -0.045696884 -0.25029397

weight f4 [8, 8]
000000 2e cb 8a be 60 4c 02 3e e0 cf 0e 3e c0 72 64 3e
       -0.2710814 0.12724447 0.13946486 0.22309399
000010 30 8c 98 3e f6 79 98 3e d0 7e bd bd d2 c1 fe be
       0.29794455 0.2978055 -0.09252703 -0.49757248
000020 58 bf ca 3d 42 e4 d5 be 88 0a ae 3d 68 ec cd be
       0.09899777 -0.4177571 0.084981024 -0.40219426
000030 a8 a6 ff bd 00 66 16 3c 4b 16 0b bf c8 41 e4 bd
       -0.12482959 0.009179592 -0.5433089 -0.11145359
000040 00 1f 78 bc 88 c6 9c 3d d6 10 66 be e5 88 02 3f
       -0.01514411 0.07655054 -0.2246736 0.50990134
000050 20 6e 8e bd 5e 3e 03 bf e0 48 88 3e 50 53 5a 3d
       -0.069545984 -0.5126704 0.266181 0.05330211
000060 34 24 8d 3e 60 4f 65 3e 10 c0 28 be 78 60 70 3e
       0.27566683 0.2239356 -0.16479516 0.234743
000070 98 da b7 3e 80 1d 94 bc ee 11 78 be c2 3f d3 3e
       0.3590896 -0.018080473 -0.2422559 0.4125958
000080 e1 c0 df be be 86 04 bf 18 60 a0 3e f6 ee 19 bf
       -0.43701842 -0.517681 0.31323314 -0.6013025
000090 00 e6 8b 3a 39 08 03 3f 81 8c 9b be 5b 82 a3 be
       0.0010673404 0.5118442 -0.30380633 -0.3193539
0000a0 62 5f e8 be fa 26 a3 be 7a 80 a2 3e 90 96 6d 3d
       -0.4538527 -0.31865674 0.31738645 0.058004916
0000b0 3e b4 fb 3e 54 3f 0b be 96 b1 e4 3e 9e 8d 4e be
       0.4916095 -0.13598377 0.44666737 -0.2017121
0000c0 64 54 a9 be db 52 15 3f 8c 80 66 3e 68 fc 9e bd
       -0.33072197 0.5832955 0.22509974 -0.077629864
0000d0 85 73 0f 3f a8 30 ad bd c8 06 ad 3e 98 6e b8 3d
       0.56035644 -0.08456546 0.33794236 0.09005469
0000e0 8f fb 08 3f c2 46 d6 3e 2c f7 01 be e6 c5 9c 3e
       0.5350885 0.4185086 -0.12691945 0.30619735
0000f0 d0 3d 02 bf e5 99 1b 3f 3b 7f 0b 3f 56 3e e1 3e
       -0.5087557 0.607817 0.54491013 0.4399287

bias f4 [8]
000000 d0 36 cc bc 8e dc 95 be 74 d0 9c be 34 8e 85 bd
       -0.02492848 -0.29269832 -0.30627787 -0.06521264
000010 03 0e 88 3e f0 a1 07 3d a8 2c 3b bd 88 26 80 be
       0.2657319 0.03311342 -0.045696884 -0.25029397

weight f4 [8, 8]
000000 e1 52 4e 3f 0a 02 1f 3d 15 ca 44 3f 9a 69 d3 3e
       0.80595213 0.038820304 0.7687085 0.41291505
000010 6e 85 dd be 55 79 82 3e b5 cb 70 be 7d 72 a1 bc
       -0.4326586 0.25483194 -0.23515208 -0.019707913
000020 42 57 b4 3f 85 e0 ae 3e 23 6b 97 be 5d 67 ca be
       1.4089129 0.3415567 -0.29573926 -0.39531985
000030 2e d1 0c be 2f 64 6c 3e db 57 8e 3e f6 1b 5d 3f
       -0.1375167 0.23085092 0.27801403 0.8637079
000040 c8 33 92 3e 10 14 96 3f 59 8e cd be a8 2b 86 3e
       0.2855513 1.1724873 -0.40147665 0.26205182
000050 48 34 0a 3d c9 f8 87 3e 54 75 1a 3d cd 1c 89 bf
       0.033741266 0.26556996 0.03770955 -1.0711914
000060 db 3d 06 3f 56 c1 3e 3d c7 97 31 3f 79 62 9a 3e
       0.52438134 0.0465711 0.6937222 0.30153254
000070 d6 3f 3d 3f 9b d6 2d 3f c7 99 7a 3f 61 a9 93 3e
       0.7392553 0.67905587 0.97890896 0.28840163
000080 a9 7a af bd be 5c b3 3d 14 cb ff 3e 00 e3 4d 3f
       -0.085683174 0.087579235 0.49959624 0.804245
000090 d7 58 8e be c1 7d e0 3e 16 ad 1f 3f 3d 29 63 bf
       -0.27802154 0.43845943 0.62373483 -0.887348
0000a0 ea 37 f3 be db f9 60 bf 0c 19 1f 3f 14 11 4a be
       -0.47503597 -0.8788125 0.62147593 -0.19733077
0000b0 d3 fd 78 be 4e bd b9 bc f3 56 2f bf 4c 44 94 3e
       -0.24315576 -0.022673275 -0.6849205 0.28958356
0000c0 03 44 48 3e 47 0f 9b 3e 74 5d 57 3f cb 04 d2 3c
       0.19557194 0.30285093 0.84126973 0.025637051
0000d0 4b 78 9c 3f b1 33 17 be 35 c9 0c be 86 ad 13 3f
       1.222421 -0.14765812 -0.1374863 0.5768665
0000e0 ba 59 46 3f 08 93 53 3f fd a9 5a 3e 34 ce f3 3d
       0.7748066 0.82646227 0.21353908 0.119045645
0000f0 23 59 8f be 32 07 0e 3e a0 eb 36 bf 54 e0 2b be
       -0.27997693 0.13869932 -0.71453285 -0.16784793

bias f4 [8]
000000 85 a9 78 3d 69 ea 82 be a5 6a a5 be 34 ab 26 3d
       0.06070854 -0.25569466 -0.32307926 0.040690616
000010 b9 30 08 3e 04 11 21 3e 06 c8 0c bd 68 4c 39 bc
       0.13299836 0.15729147 -0.034370445 -0.011309721

weight f4 [8, 8]
000000 7d 1f f4 be 12 d6 88 bd 7b 39 5e 3f 4a 98 76 bf
       -0.47680274 -0.06681456 0.8680646 -0.96326125
000010 4a 1a 4f bc 66 ab 11 bf 91 29 66 bf fc b4 e5 bc
       -0.012640545 -0.5690216 -0.89907175 -0.028040402
000020 fe bd b9 3d f1 ba c8 bf 28 b2 b6 3e 7c 91 d5 3d
       0.09069441 -1.568205 0.35682797 0.104281396
000030 01 5c 25 3f eb b7 e8 3d 9a 66 fe 3e dc 17 12 be
       0.6459351 0.113632046 0.49687654 -0.14266914
000040 be ff 6f 3f 02 93 c8 3c d7 44 2f bf f2 b4 88 be
       0.93749607 0.024484161 -0.68464416 -0.2670055
000050 b0 8b 53 be 50 a4 85 3f 4e f0 8c 3c 9e 56 08 3f
       -0.20658755 1.0440769 0.01720443 0.5325717
000060 4c 5f 82 be 74 4c a1 be 86 94 3a be 59 de 8e bf
       -0.2546333 -0.31503642 -0.1822072 -1.1161605
000070 88 46 05 bf 3a 63 b5 3d 39 42 56 bf c6 e2 fa bd
       -0.5206075 0.088568166 -0.836948 -0.12250285
000080 f6 18 63 3f 5f 8d b3 3e ee be b8 3f 99 ac 7b 3f
       0.8870996 0.35068795 1.4433267 0.9831024
000090 bb 53 5a 3f 2f 06 53 bf 68 fc 34 3f 07 7c 94 3f
       0.8528401 -0.8243131 0.7069764 1.160035
0000a0 c9 79 22 bf e5 f9 89 3f 8b 94 f6 3d 03 c7 20 be
       -0.6346708 1.0779387 0.12040051 -0.15700917
0000b0 c9 b9 80 bf f8 ab 1b bf 65 da 49 3f f0 71 05 3f
       -1.0056697 -0.6080928 0.7884887 0.5212698
0000c0 9f 86 6e be b5 e4 d2 3e 97 53 20 bd 4b 6e c4 3e
       -0.23293541 0.41190115 -0.039142217 0.38365397
0000d0 4a 0f 94 3c df 5b 54 be eb bd 95 3c 15 6e 6f be
       0.018073697 -0.20738171 0.018279037 -0.23381837
0000e0 46 b1 aa 3f 00 67 b9 bc 48 a6 b5 3e df 9b 92 bc
       1.333535 -0.022632122 0.35478425 -0.01789659
0000f0 b3 30 a6 3f 83 97 90 3e 4d 46 1d bf b3 ec 2c 3f
       1.2983612 0.28240594 -0.61435395 0.67548674

bias f4 [8]
000000 36 f3 1b be 77 25 2d be 71 3c e8 bd 52 40 10 3f
       -0.15229496 -0.16908823 -0.11339653 0.56348145
000010 7d 0b d6 3e 70 1d a7 be 76 a0 16 3e 13 61 e8 be
       0.4180564 -0.32639647 0.14709648 -0.45386562

p_attn f4 [90, 2, 1, 1]
000000 00 00 80 3f 00 00 80 3f 00 00 80 3f 00 00 80 3f
       1.0 1.0 1.0 1.0
000010 00 00 80 3f 00 00 80 3f 00 00 80 3f 00 00 80 3f
       1.0 1.0 1.0 1.0
000020 00 00 80 3f 00 00 80 3f 00 00 80 3f 00 00 80 3f
       1.0 1.0 1.0 1.0
000030 00 00 80 3f 00 00 80 3f 00 00 80 3f 00 00 80 3f
       1.0 1.0 1.0 1.0
000040 00 00 80 3f 00 00 80 3f 00 00 80 3f 00 00 80 3f
       1.0 1.0 1.0 1.0
000050 00 00 80 3f 00 00 80 3f 00 00 80 3f 00 00 80 3f
       1.0 1.0 1.0 1.0
000060 00 00 80 3f 00 00 80 3f 00 00 80 3f 00 00 80 3f
       1.0 1.0 1.0 1.0
000070 00 00 80 3f 00 00 80 3f 00 00 80 3f 00 00 80 3f
       1.0 1.0 1.0 1.0
000080 00 00 80 3f 00 00 80 3f 00 00 80 3f 00 00 80 3f
       1.0 1.0 1.0 1.0
000090 00 00 80 3f 00 00 80 3f 00 00 80 3f 00 00 80 3f
       1.0 1.0 1.0 1.0
0000a0 00 00 80 3f 00 00 80 3f 00 00 80 3f 00 00 80 3f
       1.0 1.0 1.0 1.0
0000b0 00 00 80 3f 00 00 80 3f 00 00 80 3f 00 00 80 3f
       1.0 1.0 1.0 1.0
0000c0 00 00 80 3f 00 00 80 3f 00 00 80 3f 00 00 80 3f
       1.0 1.0 1.0 1.0
0000d0 00 00 80 3f 00 00 80 3f 00 00 80 3f 00 00 80 3f
       1.0 1.0 1.0 1.0
0000e0 00 00 80 3f 00 00 80 3f 00 00 80 3f 00 00 80 3f
       1.0 1.0 1.0 1.0
0000f0 00 00 80 3f 00 00 80 3f 00 00 80 3f 00 00 80 3f
       1.0 1.0 1.0 1.0
000100 00 00 80 3f 00 00 80 3f 00 00 80 3f 00 00 80 3f
       1.0 1.0 1.0 1.0
000110 00 00 80 3f 00 00 80 3f 00 00 80 3f 00 00 80 3f
       1.0 1.0 1.0 1.0
000120 00 00 80 3f 00 00 80 3f 00 00 80 3f 00 00 80 3f
       1.0 1.0 1.0 1.0
000130 00 00 80 3f 00 00 80 3f 00 00 80 3f 00 00 80 3f
       1.0 1.0 1.0 1.0
000140 00 00 80 3f 00 00 80 3f 00 00 80 3f 00 00 80 3f
       1.0 1.0 1.0 1.0
000150 00 00 80 3f 00 00 80 3f 00 00 80 3f 00 00 80 3f
       1.0 1.0 1.0 1.0
000160 00 00 80 3f 00 00 80 3f 00 00 80 3f 00 00 80 3f
       1.0 1.0 1.0 1.0
000170 00 00 80 3f 00 00 80 3f 00 00 80 3f 00 00 80 3f
       1.0 1.0 1.0 1.0
000180 00 00 80 3f 00 00 80 3f 00 00 80 3f 00 00 80 3f
       1.0 1.0 1.0 1.0
000190 00 00 80 3f 00 00 80 3f 00 00 80 3f 00 00 80 3f
       1.0 1.0 1.0 1.0
0001a0 00 00 80 3f 00 00 80 3f 00 00 80 3f 00 00 80 3f
       1.0 1.0 1.0 1.0
0001b0 00 00 80 3f 00 00 80 3f 00 00 80 3f 00 00 80 3f
       1.0 1.0 1.0 1.0
0001c0 00 00 80 3f 00 00 80 3f 00 00 80 3f 00 00 80 3f
       1.0 1.0 1.0 1.0
0001d0 00 00 80 3f 00 00 80 3f 00 00 80 3f 00 00 80 3f
       1.0 1.0 1.0 1.0
0001e0 00 00 80 3f 00 00 80 3f 00 00 80 3f 00 00 80 3f
       1.0 1.0 1.0 1.0
0001f0 00 00 80 3f 00 00 80 3f 00 00 80 3f 00 00 80 3f
       1.0 1.0 1.0 1.0
000200 00 00 80 3f 00 00 80 3f 00 00 80 3f 00 00 80 3f
       1.0 1.0 1.0 1.0
000210 00 00 80 3f 00 00 80 3f 00 00 80 3f 00 00 80 3f
       1.0 1.0 1.0 1.0
000220 00 00 80 3f 00 00 80 3f 00 00 80 3f 00 00 80 3f
       1.0 1.0 1.0 1.0
000230 00 00 80 3f 00 00 80 3f 00 00 80 3f 00 00 80 3f
       1.0 1.0 1.0 1.0
000240 00 00 80 3f 00 00 80 3f 00 00 80 3f 00 00 80 3f
       1.0 1.0 1.0 1.0
000250 00 00 80 3f 00 00 80 3f 00 00 80 3f 00 00 80 3f
       1.0 1.0 1.0 1.0
000260 00 00 80 3f 00 00 80 3f 00 00 80 3f 00 00 80 3f
       1.0 1.0 1.0 1.0
000270 00 00 80 3f 00 00 80 3f 00 00 80 3f 00 00 80 3f
       1.0 1.0 1.0 1.0
000280 00 00 80 3f 00 00 80 3f 00 00 80 3f 00 00 80 3f
       1.0 1.0 1.0 1.0
000290 00 00 80 3f 00 00 80 3f 00 00 80 3f 00 00 80 3f
       1.0 1.0 1.0 1.0
0002a0 00 00 80 3f 00 00 80 3f 00 00 80 3f 00 00 80 3f
       1.0 1.0 1.0 1.0
0002b0 00 00 80 3f 00 00 80 3f 00 00 80 3f 00 00 80 3f
       1.0 1.0 1.0 1.0
0002c0 00 00 80 3f 00 00 80 3f 00 00 80 3f 00 00 80 3f
       1.0 1.0 1.0 1.0

weight f4 [8, 8]
000000 e8 44 77 be f1 0a 10 3f 3f 75 89 be 7a 92 ee 3e
       -0.2414738 0.56266695 -0.26847264 0.46596128
000010 e9 38 0a bf 48 6b ae 3e 0c bd 0a be 30 11 41 bd
       -0.5399309 0.34066224 -0.13548678 -0.047135532
000020 4a 19 24 be d0 4b 2b 3e 24 2a 24 3e 4e a6 9b 3e
       -0.16025272 0.16728139 0.160317 0.30400318
000030 10 71 c3 bd 13 12 19 bf fc 08 7b be 0c f9 33 be
       -0.09543049 -0.59793204 -0.24515146 -0.17575473
000040 a8 68 88 3d 7a 69 ff 3e 1e d4 69 be be 85 ba be
       0.066605866 0.4988516 -0.22834823 -0.36430162
000050 40 d4 62 bc b3 cc 05 bf ff c5 be be b2 56 ff 3e
       -0.01384455 -0.5226547 -0.37260434 0.4987083
000060 8c 0d 2c 3e 73 d4 11 bf 9c a6 d4 be aa 3c ca be
       0.16802043 -0.56964797 -0.41533363 -0.39499408
000070 25 6d f1 be c2 37 f6 be 7e de d6 be 00 69 28 bb
       -0.47153583 -0.48089415 -0.41966623 -0.002569735
000080 0e 27 f6 3e 6b bf 9f be 78 08 c9 3d 79 dd 0c 3f
       0.4807667 -0.31200728 0.098160684 0.5502544
000090 2e 03 e0 be b0 1b 8a 3e ab 6c ab be cf 33 16 bf
       -0.43752426 0.2697425 -0.33481345 -0.58672804
0000a0 24 ef aa 3e 10 fe 8b 3e a5 6a 12 bf 08 f5 8a bd
       0.33385575 0.27342272 -0.57193977 -0.06785017
0000b0 00 de fd 3c 51 60 09 3f c5 28 0d 3f 72 19 c5 be
       0.030989647 0.5366259 0.55140334 -0.38495976
0000c0 1a ea ab 3e 28 bd 66 3e 29 c1 9d be c5 47 16 bf
       0.33577043 0.22533095 -0.30811432 -0.5870326
0000d0 17 07 0a 3f 9c d5 90 3e 30 87 e2 bd 52 38 b6 3e
       0.5391707 0.2828797 -0.11060941 0.35589844
0000e0 68 df e7 be 51 ec 05 bf d6 f5 ec 3e ae d2 8a 3e
       -0.45287633 -0.52313715 0.46281308 0.2711386
0000f0 00 06 05 3c c2 12 b5 3e e0 d3 a4 bd 31 83 1a 3f
       0.008119106 0.35365874 -0.080482244 0.6035643

bias f4 [8]
000000 d0 36 cc bc 8e dc 95 be 74 d0 9c be 34 8e 85 bd
       -0.02492848 -0.29269832 -0.30627787 -0.06521264
000010 03 0e 88 3e f0 a1 07 3d a8 2c 3b bd 88 26 80 be
       0.2657319 0.03311342 -0.045696884 -0.25029397

weight f4 [8, 8]
000000 6c b4 40 3e 08 5d 61 3e 7e 48 1a be 7c 61 57 3e
       0.18818825 0.22008145 -0.15066716 0.21033281
000010 2c 93 60 be 9c 10 0a be de ad 98 be e8 ac 82 3d
       -0.21931142 -0.13482898 -0.2982015 0.063806355
000020 00 57 97 3b 09 45 0c 3f e0 2c 8b bc 52 47 0c be
       0.0046185255 0.5479284 -0.016989172 -0.13699082
000030 80 ec d4 3d 10 6b 79 be c0 f1 93 bc 6c 00 a8 3e
       0.10396671 -0.24357247 -0.018059611 0.32812822
000040 16 91 17 be 80 53 e2 bd ee c9 ed 3e 82 4d fb 3e
       -0.1480144 -0.110510826 0.46443123 0.4908257
000050 20 ca be 3d 16 cd f0 3e 1a 0f 85 3e b5 33 03 3f
       0.09315896 0.47031468 0.25988084 0.51250774
000060 c0 ea 5b 3c 21 d7 03 bf 42 ba 90 be a6 dc ca be
       0.013422668 -0.51500136 -0.28267103 -0.39621466
000070 00 47 88 bc 19 a6 af be d8 d1 9f 3d 58 81 f7 bd
       -0.016635418 -0.3430641 0.078036964 -0.12085217
000080 64 dd 34 3e 8a 59 8b 3e 03 68 19 3f 3e 03 be 3e
       0.17662579 0.2721675 0.59924334 0.3711185
000090 fc 7c b7 3e be 22 0b be b0 46 99 3e b7 3f 92 be
       0.35837543 -0.13587472 0.29936743 -0.28564236
0000a0 1f f5 04 3f a0 8c 1d 3e 3e 92 9a 3e 44 33 0e 3e
       0.51936525 0.15385675 0.301897 0.13886744
0000b0 d0 8f c2 be 7c 08 0d 3e dd ae cb be 2a 7a 9c 3e
       -0.38000345 0.13772768 -0.39781848 0.30561954
0000c0 e8 73 d5 be 46 6d d4 3e fc 14 6d be b0 72 72 3d
       -0.41689992 0.4148962 -0.23152536 0.059191406
0000d0 68 cb de 3d 2f 99 0a 3f 80 64 c1 bb 1c e2 da be
       0.108786404 0.5413999 -0.005901873 -0.42750633
0000e0 38 1c 7b be 12 fe 9f 3e 78 c6 6e 3e c6 ee f4 3e
       -0.24522483 0.31248528 0.23317897 0.4783842
0000f0 74 5a 64 3e 80 f7 11 3c 17 92 0c 3f e8 83 b7 bd
       0.2230013 0.008909106 0.54910415 -0.08960706

bias f4 [8]
000000 d0 36 cc bc 8e dc 95 be 74 d0 9c be 34 8e 85 bd
       -0.02492848 -0.29269832 -0.30627787 -0.06521264
000010 03 0e 88 3e f0 a1 07 3d a8 2c 3b bd 88 26 80 be
       0.2657319 0.03311342 -0.045696884 -0.25029397

weight f4 [8, 8]
000000 8d cd 99 bd b1 e7 8a bf 20 24 3d 3e ef fd 54 3d
       -0.07509909 -1.0851957 0.18470812 0.051999982
000010 51 7f 77 3e d5 56 69 3e 0c 54 1e 3f d5 83 04 be
       0.24169661 0.2278703 0.61846995 -0.12940915
000020 3d 05 08 bf 20 0c b9 3d 85 02 0d 3f 74 02 00 3f
       -0.53132993 0.09035516 0.5508197 0.50003743
000030 95 38 7c be 96 37 2f bf d5 ff 98 bd e9 d8 37 3d
       -0.2463096 -0.6844419 -0.07470671 0.044884596
000040 d2 1e b6 3e dc 7e 61 be 60 30 a0 3e 99 f0 33 be
       0.3557039 -0.2202105 0.31286907 -0.1757225
000050 88 a1 66 be c6 7a b3 3e 43 26 0e 3e 6f 33 32 3f
       -0.22522557 0.35054606 0.13881783 0.6960973
000060 22 2a a8 be 90 be 18 3f 55 0b dc 3d 8b 7d 50 be
       -0.32844645 0.59665775 0.10744349 -0.20360391
000070 be 7c 58 bf 4d f8 bd 3e 9c e1 85 3e 7b 69 ef 3d
       -0.8456534 0.371035 0.2614869 0.11690041
000080 0e f8 9b bf 28 2d ff 3e 44 94 1d bf 5a 91 5d 3e
       -1.2185075 0.4983914 -0.6155436 0.21637478
000090 4c e8 40 3d 08 ea 2f 3e 0d 8f 84 3e 55 90 d2 be
       0.047096536 0.1717912 0.2589039 -0.41125742
0000a0 72 e1 64 be 4c b3 6b be b7 a0 9b 3e 6d 37 30 bf
       -0.22351626 -0.23017615 0.30396053 -0.68834573
0000b0 d5 08 ff be 79 aa 07 3f 73 b9 87 3e d6 a2 cb 3e
       -0.49811426 0.52994496 0.26508674 0.3977267
0000c0 5a ee af 3e 5a ad 2f 3f 73 15 f6 be d5 9d fa be
       0.34361535 0.6862389 -0.4806324 -0.4894854
0000d0 84 75 2b bc bc 90 ea 3e 3c 91 ed bd af 06 03 3e
       -0.01046503 0.4581355 -0.11599967 0.12795518
0000e0 42 9b 6d 3e 0f 67 42 3f 0d af 38 3f 49 cf cb 3e
       0.23203757 0.75938505 0.72142106 0.39806584
0000f0 fe a6 6d be 0a 41 16 3e 09 32 40 bf 0e 23 38 3f
       -0.23208234 0.14673248 -0.7507635 0.7192849

bias f4 [8]
000000 ab 83 f6 3d c9 0b 15 bd df e1 74 bd d3 80 a3 3d
       0.120368324 -0.036388192 -0.05978572 0.07983556
000010 55 68 8e 3e d7 4c 2c 3b d0 2e 0b bc 85 b6 9d be
       0.27813974 0.0026290917 -0.008495048 -0.30803314
