Net/Transformer_Testmachine_sourceforcast_net.pkl (torch, 707209 bytes, 53 tensors)

weight f4 [8, 8]
0.46764356 -0.35352397 -0.06411272 0.3984633 0.3109699 0.48957676 -0.15699616 -0.554445
-0.5688907 -0.06550336 -0.46776193 -0.34443834 0.40008956 0.4960578 0.054829 -0.5499287
-0.5223979 -0.39039478 -0.2726876 -0.044730783 0.49948674 -0.33984807 0.2926938 0.18857211
0.06527865 -0.4222148 0.122314215 0.48035246 0.017531335 -0.16867289 -0.27421582 -0.5131365
-0.60740906 -0.5996057 -0.1970267 0.06454164 -0.05997801 -0.28008375 0.18150926 -0.5740957
-0.22697005 -0.28257152 -0.03491479 -0.20860255 -0.541519 -0.3237046 0.4867223 0.40493292
-0.041325808 -0.10186064 -0.050284386 0.29535145 0.11542815 0.225667 0.35001892 0.114977
-0.16540259 -0.19131449 -0.5629983 0.20961595 0.21350181 -0.17830333 0.40675563 -0.05790323
00000000: fa6e ef3e 1801 b5be 884d 83bd 6203 cc3e
00000010: 7237 9f3e cea9 fa3e 9ac3 20be 1cf0 0dbf
00000020: d2a2 11bf a026 86bd 7e7e efbe 395a b0be
00000030: 8ad8 cc3e 4afb fd3e 6094 603d 21c8 0cbf
00000040: debb 05bf d3e1 c7be b69d 8bbe a037 37bd
00000050: babc ff3e 9100 aebe f6db 953e 0c19 413e
00000060: d0b0 853d 8a2c d8be e07f fa3d c2f0 f53e
00000070: e09d 8f3c 96b8 2cbe 0466 8cbe ea5c 03bf
00000080: 297f 1bbf c27f 19bf 5ec1 49be 682e 843d
00000090: 80ab 75bd 2367 8fbe 90dd 393e f0f7 12bf
000000a0: d66a 68be 37ad 90be d002 0fbd e89b 55be
000000b0: fda0 0abf 9cbc a5be aa33 f93e 5e53 cf3e
000000c0: 4045 29bd 509c d0bd 00f7 4dbd 4e38 973e
000000d0: 9865 ec3d 4015 673e ae35 b33e 1079 eb3d
000000e0: 4c5f 29be f2e7 43be a820 10bf 90a5 563e
000000f0: 38a0 5a3e 2695 36be 4642 d03e f02b 6dbd

bias f4 [8]
0.045990378 -0.08063084 -0.022403955 -0.2035477 0.0063153207 0.06335062 -0.08978197 -0.013821632
00000000: 6860 3c3d c821 a5bd 8088 b7bc cf6e 50be
00000010: c0f0 ce3b f8bd 813d 9cdf b7bd 2074 62bc

weight f4 [8, 8]
0.50535434 -0.58958566 -0.09602022 -0.3988334 0.07756764 0.27292395 0.476667 -0.20629185
0.16867769 -0.23028323 0.076957166 -0.061852217 0.0753628 -0.47869694 -0.09009218 -0.15243968
-0.22208828 -0.08462399 -0.50021094 -0.5559206 -0.3553254 0.2554494 -0.31740218 0.045885086
-0.34988877 0.22723621 -0.58066016 0.59302634 -0.3640403 0.27506155 0.25023347 0.5104714
-0.12167874 0.066957235 -0.24220139 -0.04643196 -0.28483513 0.45420104 0.3744381 0.20076221
0.38820738 -0.41632354 0.098323345 -0.27710524 -0.13537589 0.5417029 0.30297422 0.20025003
-0.52433157 -0.38569838 0.38935012 -0.29683924 0.017249405 -0.18781352 -0.5881793 -0.5751517
0.06384355 -0.15097436 0.056874514 -0.19159934 -0.13047954 -0.11170995 0.22455364 -0.028679907
00000000: e75e 013f 16ef 16bf 40a6 c4bd e433 ccbe
00000010: c8db 9e3d b0bc 8b3e b20d f43e 2c3e 53be
00000020: d8b9 2c3e 5ecf 6bbe b89b 9d3d c058 7dbd
00000030: d057 9a3d c417 f5be 4082 b8bd 2619 1cbe
00000040: 1c6b 63be 584f adbd d30d 00bf d050 0ebf
00000050: 36ed b5be 44ca 823e 8a82 a2be 00f2 3b3d
00000060: 9f24 b3be 9cb0 683e 25a6 14bf 93d0 173f
00000070: 7d63 babe ded4 8c3e 9a1e 803e 41ae 023f
00000080: b432 f9bd e020 893d a403 78be 702f 3ebd
00000090: e9d5 91be 0a8d e83e 5ab6 bf3e 9c94 4d3e
000000a0: 1ec3 c63e 5c28 d5be c05d c93d bde0 8dbe
000000b0: fa9f 0abe 0bad 0a3f 701f 9b3e 580e 4d3e
000000c0: 983a 06bf 427a c5be e658 c73e 50fb 97be
000000d0: a04e 8d3c 3052 40be eb92 16bf 243d 13bf
000000e0: 68c0 823d 0699 1abe 40f5 683d 9e32 44be
000000f0: 6e9c 05be 30c8 e4bd 64f1 653e 20f2 eabc

bias f4 [8]
0.045990378 -0.08063084 -0.022403955 -0.2035477 0.0063153207 0.06335062 -0.08978197 -0.013821632
00000000: 6860 3c3d c821 a5bd 8088 b7bc cf6e 50be
00000010: c0f0 ce3b f8bd 813d 9cdf b7bd 2074 62bc

weight f4 [8, 8]
0.24886681 0.43086088 0.10296314 -0.44691268 0.08905115 0.5183761 0.6093367 0.029979065
-0.17097028 -0.06741876 -0.5305482 0.23085271 -0.059565473 0.14814754 -0.121951364 -0.47439423
-0.38257626 -0.14449982 0.5102355 0.5676888 0.29879296 0.54933536 -0.0011508806 -0.3362429
0.02102278 -0.3927716 0.114056334 -0.43147615 0.31522936 -0.124187134 0.22888045 0.2244512
0.2525789 0.351787 -0.3835505 -0.3983308 -0.43590915 0.33502468 -0.49906856 0.2880871
-0.017750435 0.59619766 -0.41203246 0.08127633 0.15767886 0.01130662 0.4899204 0.24891801
0.34375086 0.3101924 -0.14066327 0.10441298 -0.117435895 -0.26761845 -0.58479184 0.58125234
-0.24817725 0.5046488 0.5957913 0.49212632 -0.4404763 -0.21122985 0.28995523 0.35819346
00000000: f1d6 7e3e cc99 dc3e 57de d23d bdd1 e4be
00000010: 7360 b63d 4cb4 043f 7dfd 1b3f a896 f53c
00000020: d512 2fbe d912 8abd 02d2 07bf a764 6c3e
00000030: edfa 73bd fdb3 173e a3c1 f9bd cde3 f2be
00000040: 09e1 c3be c3f7 13be cb9e 023f 0e54 113f
00000050: 64fb 983e 3ea1 0c3f 25d9 96ba 0828 acbe
00000060: f737 ac3c 5c19 c9be 5e96 e93d 71ea dcbe
00000070: be65 a13e d355 febd a35f 6a3e 89d6 653e
00000080: 0652 813e 6d1d b43e bb60 c4be 04f2 cbbe
00000090: 7c2f dfbe 5b88 ab3e ea85 ffbe 2780 933e
000000a0: 5c69 91bc 69a0 183f ebf5 d2be 3474 a63d
000000b0: 9176 213e 673f 393c d9d6 fa3e 5de4 7e3e
000000c0: 1d00 b03e 8ad1 9e3e 080a 10be 79d6 d53d
000000d0: 3b82 f0bd 4905 89be ebb4 15bf f4cc 143f
000000e0: 2d22 7ebe aa30 013f c785 183f fbf7 fb3e
000000f0: 1c86 e1be a34c 58be 0375 943e 2265 b73e

bias f4 [8]
0.0412561 -0.07489785 -0.016213873 -0.21113406 0.0064053647 0.070268 -0.08870733 -0.010725901
00000000: 28fc 283d 0b64 99bd f5d2 84bc 8733 58be
00000010: 18e4 d13b abe8 8f3d 30ac b5bd b1bb 2fbc

weight f4 [8, 8]
0.4773246 -0.4903723 -0.39621454 0.59901303 0.04009844 -0.45519447 -0.33755147 -0.39290306
-0.42787066 -0.2058803 0.48069397 -0.18708943 0.29150587 0.2024164 -0.3762035 -0.4301067
0.41686764 -0.29129776 0.4213465 0.5693624 -0.10550407 0.38562468 0.12708633 -0.2451591
0.039351866 -0.4907121 -0.49546215 -0.09778396 -0.052219298 0.33196098 -0.040337924 -0.13801835
0.588705 0.41351572 0.14664315 -0.20132923 0.5430602 0.5755588 -0.40206513 -0.011732822
-0.323619 -0.046298042 0.22962476 0.34347588 0.4549016 0.04757664 -0.26455405 -0.008545266
0.3079192 0.58092487 -0.011323105 0.3682564 -0.06898693 -0.5119214 -0.547813 -0.3223201
-0.45111915 -0.26632208 -0.0058181216 -0.2570677 0.4848386 -0.2641291 0.4477256 0.5162645
00000000: e463 f43e 1412 fbbe a2dc cabe eb58 193f
00000010: 433e 243d 400f e9be 8cd3 acbe 972a c9be
00000020: dd11 dbbe 49d2 52be 851d f63e 5f94 3fbe
00000030: 4240 953e 3f46 4f3e bf9d c0be f236 dcbe
00000040: ad6f d53e fb24 95be baba d73e bcc1 113f
00000050: 8512 d8bd 9970 c53e eb22 023e fd0a 7bbe
00000060: 6c2f 213d 9e3e fbbe 37ad fdbe f542 c8bd
00000070: e7e3 55bd caf6 a93e 6139 25bd af54 0dbe
00000080: 5fb5 163f 55b8 d33e 9f29 163e 4029 4ebe
00000090: fe05 0b3f d257 133f 7bdb cdbe 063b 40bc
000000a0: 64b1 a5be 04a3 3dbd c122 6b3e 12dc af3e
000000b0: dde8 e83e b9df 423d a173 87be 7201 0cbc
000000c0: 96a7 9d3e 7eb7 143f 8b84 39bc 1a8c bc3e
000000d0: 0549 8dbd 480d 03bf 793d 0cbf 2407 a5be
000000e0: 17f9 e6be 5e5b 88be f1a5 bebb 619e 83be
000000f0: c43c f83e ee3b 87be 4a3c e53e e929 043f

bias f4 [8]
0.029168127 -0.080743104 -0.016867055 -0.19896126 0.0070795626 0.06504899 -0.08557488 -0.016151102
00000000: fff1 ee3c a45c a5bd c72c 8abc 80bc 4bbe
00000010: adfb e73b 6838 853d e241 afbd 514f 84bc

p_attn f4 [86, 2, 1, 1]
1.0 1.0 1.0 1.0 1.0 1.0 1.0 1.0
1.0 1.0 1.0 1.0 1.0 1.0 1.0 1.0
1.0 1.0 1.0 1.0 1.0 1.0 1.0 1.0
1.0 1.0 1.0 1.0 1.0 1.0 1.0 1.0
1.0 1.0 1.0 1.0 1.0 1.0 1.0 1.0
1.0 1.0 1.0 1.0 1.0 1.0 1.0 1.0
1.0 1.0 1.0 1.0 1.0 1.0 1.0 1.0
1.0 1.0 1.0 1.0 1.0 1.0 1.0 1.0
1.0 1.0 1.0 1.0 1.0 1.0 1.0 1.0
1.0 1.0 1.0 1.0 1.0 1.0 1.0 1.0
1.0 1.0 1.0 1.0 1.0 1.0 1.0 1.0
1.0 1.0 1.0 1.0 1.0 1.0 1.0 1.0
1.0 1.0 1.0 1.0 1.0 1.0 1.0 1.0
1.0 1.0 1.0 1.0 1.0 1.0 1.0 1.0
1.0 1.0 1.0 1.0 1.0 1.0 1.0 1.0
1.0 1.0 1.0 1.0 1.0 1.0 1.0 1.0
1.0 1.0 1.0 1.0 1.0 1.0 1.0 1.0
1.0 1.0 1.0 1.0 1.0 1.0 1.0 1.0
1.0 1.0 1.0 1.0 1.0 1.0 1.0 1.0
1.0 1.0 1.0 1.0 1.0 1.0 1.0 1.0
1.0 1.0 1.0 1.0 1.0 1.0 1.0 1.0
1.0 1.0 1.0 1.0
00000000: 0000 803f 0000 803f 0000 803f 0000 803f
00000010: 0000 803f 0000 803f 0000 803f 0000 803f
00000020: 0000 803f 0000 803f 0000 803f 0000 803f
00000030: 0000 803f 0000 803f 0000 803f 0000 803f
00000040: 0000 803f 0000 803f 0000 803f 0000 803f
00000050: 0000 803f 0000 803f 0000 803f 0000 803f
00000060: 0000 803f 0000 803f 0000 803f 0000 803f
00000070: 0000 803f 0000 803f 0000 803f 0000 803f
00000080: 0000 803f 0000 803f 0000 803f 0000 803f
00000090: 0000 803f 0000 803f 0000 803f 0000 803f
000000a0: 0000 803f 0000 803f 0000 803f 0000 803f
000000b0: 0000 803f 0000 803f 0000 803f 0000 803f
000000c0: 0000 803f 0000 803f 0000 803f 0000 803f
000000d0: 0000 803f 0000 803f 0000 803f 0000 803f
000000e0: 0000 803f 0000 803f 0000 803f 0000 803f
000000f0: 0000 803f 0000 803f 0000 803f 0000 803f
00000100: 0000 803f 0000 803f 0000 803f 0000 803f
00000110: 0000 803f 0000 803f 0000 803f 0000 803f
00000120: 0000 803f 0000 803f 0000 803f 0000 803f
00000130: 0000 803f 0000 803f 0000 803f 0000 803f
00000140: 0000 803f 0000 803f 0000 803f 0000 803f
00000150: 0000 803f 0000 803f 0000 803f 0000 803f
00000160: 0000 803f 0000 803f 0000 803f 0000 803f
00000170: 0000 803f 0000 803f 0000 803f 0000 803f
00000180: 0000 803f 0000 803f 0000 803f 0000 803f
00000190: 0000 803f 0000 803f 0000 803f 0000 803f
000001a0: 0000 803f 0000 803f 0000 803f 0000 803f
000001b0: 0000 803f 0000 803f 0000 803f 0000 803f
000001c0: 0000 803f 0000 803f 0000 803f 0000 803f
000001d0: 0000 803f 0000 803f 0000 803f 0000 803f
000001e0: 0000 803f 0000 803f 0000 803f 0000 803f
000001f0: 0000 803f 0000 803f 0000 803f 0000 803f
00000200: 0000 803f 0000 803f 0000 803f 0000 803f
00000210: 0000 803f 0000 803f 0000 803f 0000 803f
00000220: 0000 803f 0000 803f 0000 803f 0000 803f
00000230: 0000 803f 0000 803f 0000 803f 0000 803f
00000240: 0000 803f 0000 803f 0000 803f 0000 803f
00000250: 0000 803f 0000 803f 0000 803f 0000 803f
00000260: 0000 803f 0000 803f 0000 803f 0000 803f
00000270: 0000 803f 0000 803f 0000 803f 0000 803f
00000280: 0000 803f 0000 803f 0000 803f 0000 803f
00000290: 0000 803f 0000 803f 0000 803f 0000 803f
000002a0: 0000 803f 0000 803f 0000 803f 0000 803f

weight f4 [200, 8]
-0.02647535 -0.07256831 0.16929002 -0.024293765 -0.058199998 -0.028918838 -0.072786145 -0.066335775
0.11874221 0.10891667 -0.08590181 -0.04719214 0.07839444 -0.11193881 -0.034389473 -0.008137882
-0.03233207 -0.14607643 0.0786079 -0.01290282 -0.15088889 0.030331101 -0.022519791 -0.12487417
0.16258368 0.020068426 0.109759375 0.06836166 -0.051347543 0.10747583 -0.07565736 -0.07916289
0.13232756 0.07870905 -0.039330952 0.057332158 0.080137216 -0.057822976 -0.13155496 -0.13861889
0.07690397 0.13572751 -0.15589452 -0.030068723 -0.046444718 0.070438676 0.010213486 0.08300002
-0.038203254 0.08002066 0.056847304 0.05779029 -0.06676466 -0.1676348 -0.02396766 0.10982673
-0.02903685 -0.005108819 0.025687383 0.09646862 0.032252837 0.10654947 -0.15419917 0.13914931
0.03045162 0.05741755 0.08568664 0.1121264 0.028017834 -0.118441395 -0.13580172 0.10450263
0.0012716902 -0.12371911 0.100140326 -0.05397236 0.12654813 -0.12149142 -0.108491234 -0.10005242
0.0059779403 0.036184352 -0.04154843 0.13182083 -0.16717409 -0.16881405 -0.10976758 0.05332114
-0.016244259 -0.16984771 0.15128139 -0.0023819674 -0.05039929 -0.056170043 -0.1541404 -0.10478875
-0.09298712 0.026100734 -0.025205733 -0.07211658 -0.053043913 -0.08848622 -0.0007466036 0.05000657
0.054493744 -0.15321589 -0.14865828 -0.10557243 -0.018375305 -0.036778968 0.1329474 0.013308884
-0.12037523 -0.03219497 0.12436719 0.092125565 -0.060101807 0.16706377 0.045307696 -0.15812477
-0.057237912 -0.08332052 -0.12177874 0.031719923 0.055244945 -0.04837666 0.13679065 0.067872554
-0.041055553 -0.16387586 -0.11213907 -0.010505838 -0.070059426 0.020554204 -0.14211653 0.04764722
-0.009493091 0.07740072 -0.13905126 -0.06599993 0.07421063 0.02348273 0.13539356 -0.14062622
0.054465957 -0.040260646 0.1164828 0.14918949 -0.13183926 -0.039992582 -0.017413223 0.095288806
-0.09064979 -1.420091e-05 -0.13951981 -0.009266381 -0.06973754 -0.002525041 0.019437274 -0.097429246
-0.0142322825 -0.08713571 -0.12997012 0.080705084 -0.017529173 0.05260207 -0.026560362 -0.06855216
-0.14158277 0.12113611 -0.004747355 -0.0861131 -0.028531604 0.109942846 0.009040704 -0.15027243
-0.065676056 0.028244654 -0.049304806 -0.11959672 -0.12794077 0.0042743855 -0.16817746 0.08484977
0.07838882 0.14987253 0.12981786 -0.08396793 0.018558519 0.001214253 0.16221422 0.11102345
-0.058940034 -0.047197152 0.066021964 -0.08229264 0.06130108 -0.058120362 0.1394801 0.16467357
-0.12239601 0.07325358 0.08066847 -0.058940202 -0.06160357 0.10407675 0.092594065 -0.12511298
-0.08944152 0.1114596 -0.060748436 -0.14340672 0.13454624 0.14167061 0.0035500212 0.022217387
0.06435595 -0.0340236 -0.020912936 0.15369868 -0.013564856 0.1302536 0.08693639 0.038379285
-0.06407303 0.028327435 -0.06863917 -0.0228659 -0.15614481 0.13051082 -0.035463877 -0.1451543
-0.14450862 0.015110879 0.14434028 0.08163658 -0.036881596 -0.07591536 -0.04139443 -0.05918854
-0.030067688 -0.011405266 0.021371346 0.11545003 -0.11662552 0.14942014 0.13891134 -0.08016992
-0.10741357 0.07705487 -0.11925108 0.15388824 0.05161031 -0.067832805 0.1297053 0.15982828
00000000: d5e2 d8bc b29e 94bd 5d5a 2d3e b803 c7bc
00000010: 1f63 6ebd 33e7 ecbc e710 95bd 0ddb 87bd
00000020: 1e2f f33d b40f df3d 4aed afbd 8c4c 41bd
00000030: 448d a03d 2d40 e5bd fadb 0cbd c054 05bc
00000040: a26e 04bd 0f95 15be 2efd a03d 5966 53bc
00000050: 9e82 1abe ee78 f83c 6d7b b8bc 07be ffbd
00000060: 567c 263e 8a66 a43c 86c9 e03d 3301 8c3d
00000070: cd51 52bd 4a1c dc3d 3ff2 9abd 2720 a2bd
00000080: e080 073e 3632 a13d 7e19 21bd 20d5 6a3d
00000090: fb1e a43d c9d7 6cbd 58b6 06be 1cf2 0dbe
000000a0: d47f 9d3d 27fc 0a3e d0a2 1fbe af52 f6bc
000000b0: d13c 3ebd 2742 903d 7756 273c eafb a93d
000000c0: 047b 1cbd dfe1 a33d b8d8 683d 83b5 6c3d
000000d0: e9bb 88bd 75a8 2bbe d357 c4bc d6ec e03d
000000e0: b0de edbc e167 a7bb 596e d23c 5791 c53d
000000f0: 8d1b 043d 9c36 da3d 63e6 1dbe 287d 0e3e
00000100: ad75 f93c aa2e 6b3d 7a7c af3d 87a2 e53d
00000110: a885 e53c 6791 f2bd 9b0f 0bbe 7a05 d63d
00000120: d8ae a63a 7260 fdbd 5f16 cd3d 1f12 5dbd
00000130: d595 013e 7ed0 f8bd a730 debd 48e8 ccbd
00000140: 99e2 c33b 0b36 143d b02e 2abd 0afc 063e
00000150: af2f 2bbe 97dd 2cbe d3cd e0bd 4567 5a3d
00000160: ae12 85bc 8fec 2dbe 82e9 1a3e c81a 1cbb
00000170: 7c6f 4ebd 8f12 66bd fbd6 1dbe 7c9b d6bd
00000180: 0870 bebd 35d1 d53c 417c cebc dcb1 93bd
00000190: 9344 59bd 4338 b5bd b8b7 43ba b0d3 4c3d
000001a0: d534 5f3d a0e4 1cbe e039 18be 5c36 d8bd
000001b0: cf87 96bc 8ba5 16bd 5d23 083e 810d 5a3c
000001c0: 4a87 f6bd dfde 03bd 3ab4 fe3d 54ac bc3d
000001d0: 502d 76bd c412 2b3e 9094 393d 76eb 21be
000001e0: 4d72 6abd f3a3 aabd 2267 f9bd c0ec 013d
000001f0: 8648 623d 9b26 46bd d912 0c3e c400 8b3d
00000200: de29 28bd 13cf 27be 2ba9 e5bd ae20 2cbc
00000210: 517b 8fbd 4a61 a83c ff86 11be bb29 433d
00000220: e988 1bbc 4584 9e3d 7463 0ebe f92a 87bd
00000230: befb 973d db5e c03c 9ca4 0a3e 5200 10be
00000240: b217 5f3d 59e8 24bd 898e ee3d 21c5 183e
00000250: df00 07be 43cf 23bd 2da6 8ebc c726 c33d
00000260: 99a6 b9bd 7240 6eb7 48de 0ebe 05d2 17bc
00000270: 8ed2 8ebd 297b 25bb eb3a 9f3c fc88 c7bd
00000280: 852e 69bc 3574 b2bd e316 05be b548 a53d
00000290: 5799 8fbc 4575 573d 1e95 d9bc 1365 8cbd
000002a0: 13fb 10be 3516 f83d b38f 9bbb 115c b0bd
000002b0: 1cbb e9bc b729 e13d 761f 143c 04e1 19be
000002c0: 2b81 86bd 5561 e73c d6f3 49bd 20ef f4bd
000002d0: e802 03be 2510 8c3b b636 2cbe b7c5 ad3d
000002e0: 518a a03d 2f78 193e f9ee 043e 61f7 abbd
000002f0: 0908 983c 9227 9f3a 7c1b 263e 4360 e33d
00000300: 1b6b 71bd cd51 41bd 8636 873d 0b89 a8bd
00000310: d716 7b3d 9e0f 6ebd dfd3 0e3e 30a0 283e
00000320: c2aa fabd f905 963d 8335 a53d 486b 71bd
00000330: 0654 7cbd 3126 d53d f5a1 bd3d 9e1d 00be
00000340: 1e2d b7bd ee44 e43d 5ad3 78bd 36d9 12be
00000350: 7dc6 093e 1a12 113e 79a7 683b 3d01 b63c
00000360: 0dcd 833d 555c 0bbd 9b51 abbc 3063 1d3e
00000370: 213f 5ebc 3361 053e b50b b23d 9933 1d3d
00000380: b938 83bd f00e e83c b192 8cbd 4551 bbbc
00000390: 6de4 1fbe a1a4 053e 9242 11bd 54a3 14be
000003a0: 11fa 13be 9f93 773c f0cd 133e 1431 a73d
000003b0: 2811 17bd 8379 9bbd 358d 29bd af6f 72bd
000003c0: 8350 f6bc 27dd 3abc f612 af3c 1171 ec3d
000003d0: 5cd9 eebd 9801 193e c63e 0e3e 2130 a4bd
000003e0: a5fb dbbd f2ce 9d3d e939 f4bd e194 1d3e
000003f0: 5565 533d edeb 8abd 77d1 043e 06aa 233e

bias f4 [200]
-0.004167228 -0.14080487 0.2442773 -0.3436108 -0.21761051 -0.17858978 -0.34812883 0.29194245
-0.0926518 0.15075192 0.011745371 -0.0445735 -0.15563542 0.15945047 0.3247458 0.26199168
0.05619863 0.12578976 0.30698636 0.15308201 0.17365879 -0.29250592 -0.002031255 0.29328844
0.124379866 -0.20199507 0.021931306 0.26014867 0.08801704 -0.040643092 -0.3225429 0.1586593
0.1060481 -0.17283642 0.07266132 -0.09979423 0.21839322 -0.07178933 0.11268866 0.24446054
0.33294776 -0.10973516 -0.18312281 -0.29692963 0.059729364 -0.02727458 0.2577261 0.23581046
0.16614617 0.07398381 -0.18938372 0.1878792 0.24344318 -0.009043439 0.3054208 0.16390325
0.109313704 -0.023672055 0.0785995 -0.3201027 0.12799592 0.1178499 -0.18337163 0.1547916
0.16690949 0.10612715 0.013862972 0.2455304 0.14740409 -0.14225182 -0.1461913 0.013149281
-0.22007978 0.27410495 0.15713292 0.1389953 -0.114437856 -0.11904837 0.02005614 -0.2959337
-0.3285919 0.080549575 0.2622805 0.30913827 -0.09838044 -0.29190823 0.18735778 -0.0878845
0.04246852 0.21019459 -0.109149225 0.21555379 -0.23140268 -0.2822174 -0.097037174 -0.048695046
-0.27837026 -0.1893392 -0.099786684 -0.19869025 -0.224273 0.18565886 -0.14406006 0.06721716
0.13419864 -0.22778706 -0.31472707 0.15427858 -0.09653545 -0.30542764 0.25465834 0.005137124
0.24294925 0.29487583 -0.006036303 -0.3215603 0.012524449 0.008955001 -0.026315136 0.34585148
0.32773134 0.34793937 -0.17769459 -0.16947262 -0.2065657 -0.26340258 -0.021446645 -0.029039193
0.34057623 -0.077146344 -0.114685014 -0.3005385 0.11832986 0.08843904 -0.3022803 -0.14204279
0.26487553 -0.097193085 -0.013203885 0.2049435 0.10300264 0.25371572 -0.31974718 -0.19564702
0.16688201 -0.33617756 0.34279025 -0.18108869 0.26573828 -0.2522774 -0.3089807 -0.13937204
-0.10704341 0.17909811 -0.119260915 -0.33113065 0.30110464 0.32517037 0.09323241 -0.24183862
-0.2928674 0.31351542 0.19456035 -0.14500462 -0.012544944 0.17098679 0.10663264 -0.3138085
0.28796667 0.23895834 -0.085905276 0.04059644 -0.047352172 0.11212103 -0.28937542 -0.13863505
0.00048997195 -0.2393803 -0.062106043 -0.31910738 0.05244778 -0.34256384 -0.3439514 0.33423218
0.19629122 -0.19490676 -0.009858175 -0.2489194 0.089195564 -0.27158946 -0.06108439 0.30866867
0.24130641 0.08505669 -0.18020031 0.18948585 0.10392133 -0.19786483 0.0546497 0.20165038
00000000: 3e8d 88bb 272f 10be d423 7a3e c1ed afbe
00000010: 4ad5 5ebe 3de0 36be f13d b2be 7b79 953e
00000020: 3ac0 bdbd b65e 1a3e a86f 403c b492 36bd
00000030: e45e 1fbe fc46 233e 1545 a63e c623 863e
00000040: 8930 663d 08cf 003e 512d 9d3e 88c1 1c3e
00000050: 9cd3 313e 56c3 95be ce1e 05bb e729 963e
00000060: dfba fe3d ccd7 4ebe 48a9 b33c 3532 853e
00000070: 4742 b43d 5f79 26bd 5824 a5be 9577 223e
00000080: bf2f d93d 08fc 30be 75cf 943d eb60 ccbd
00000090: 79a2 5f3e 4906 93bd 50c9 e63d dd53 7a3e
000000a0: 2178 aa3e d4bc e0bd 8c84 3bbe 2907 98be
000000b0: c7a6 743d f16e dfbc adf4 833e 4c78 713e
000000c0: 3922 2a3e d384 973d ceed 41be 6863 403e
000000d0: 2b49 793e ef2a 14bc 1d60 9c3e 41d6 273e
000000e0: dddf df3d e6eb c1bc c6f8 a03d 80e4 a3be
000000f0: 5d11 033e 4a5b f13d c6c5 3bbe b081 1e3e
00000100: 52ea 2a3e 3159 d93d 8521 633c 526c 7b3e
00000110: 19f1 163e 76aa 11be 2cb3 15be 1570 573c
00000120: 985c 61be 7c57 8c3e 74e7 203e c954 0e3e
00000130: 655e eabd a2cf f3bd c64c a43c 9f84 97be
00000140: 333d a8be 2df7 a43d a149 863e 5f47 9e3e
00000150: af7b c9bd ff74 95be b8da 3f3e cafc b3bd
00000160: 79f3 2d3d 403d 573e a189 dfbd 22ba 5c3e
00000170: d3f4 6cbe cd7e 90be 6dbb c6bd 7574 47bd
00000180: 8c86 8ebe 23e2 41be f65c ccbd 7575 4bbe
00000190: d2a7 65be 5b1d 3e3e 7b84 13be 26a9 893d
000001a0: 5e6b 093e 0341 69be e823 a1be 34fb 1d3e
000001b0: 61b4 c5bd 0361 9cbe 9462 823e 5255 a83b
000001c0: b0c7 783e f7f9 963e 2ecc c5bb 8da3 a4be
000001d0: 5933 4d3c ffb7 123c d792 d7bc 7213 b13e
000001e0: 67cc a73e 1c25 b23e 92f5 35be 3b8a 2dbe
000001f0: f585 53be b4dc 86be e0b0 afbc 9ae3 edbc
00000200: 0260 ae3e e7fe 9dbd fadf eabd 2fe0 99be
00000210: ed56 f23d 871f b53d 7cc4 9abe aa73 11be
00000220: c49d 873e 2b0d c7bd 1c55 58bc b5dc 513e
00000230: 0cf3 d23d 07e7 813e e7b5 a3be b157 48be
00000240: 1ee3 2a3e 771f acbe 3482 af3e 506f 39be
00000250: d90e 883e 812a 81be b832 9ebe 8bb7 0ebe
00000260: 9339 dbbd 7f65 373e 113f f4bd f589 a9be
00000270: 632a 9a3e bb7c a63e a2f0 be3d 8ba4 77be
00000280: b7f2 95be 1885 a03e d43a 473e 177c 14be
00000290: 4f89 4dbc 2917 2f3e 3762 da3d 82ab a0be
000002a0: 5e70 933e 7fb1 743e 1bef afbd 7448 263d
000002b0: 5af4 41bd b69f e53d 0429 94be 59f6 0dbe
000002c0: 7671 003a 1c20 75be e862 7ebd 0b62 a3be
000002d0: 7cd3 563d 8764 afbe 661a b0be 7b20 ab3e
000002e0: 9100 493e a395 47be 2f84 21bc bae4 7ebe
000002f0: 2aac b63d c60d 8bbe a033 7abd d209 9e3e
00000300: 0719 773e 3432 ae3d 6e86 38be 9408 423e
00000310: b5d4 d43d 149d 4abe 5dd8 5f3d 707d 4e3e

weight f4 [8, 200]
-0.05735526 0.13938114 0.072676376 0.1323891 -0.1180098 -0.059491273 0.04358969 0.063757636
-0.0199208 -0.053182352 0.1642357 -0.14627351 -0.031732745 0.016297877 -0.033394236 -0.14676756
-0.07758805 0.048833683 0.079977445 0.13598715 0.085817 -0.13024263 0.06841602 -0.0918861
-0.025503395 0.0962233 -0.13752037 0.13974647 0.044401098 0.13553157 0.0040491433 -0.1692784
-0.046250515 0.06318081 0.099663146 0.078931294 0.08234538 -0.1373053 0.000850119 -0.050193682
0.022697873 0.03363853 0.034238864 -0.018578703 0.08729609 0.02348618 -0.0068562804 0.13322352
0.011453253 0.090868756 0.14769292 -0.06083105 -0.12131531 -0.06848155 0.11118472 -0.076935664
-0.050518397 -0.045336418 -0.13580352 -0.04917525 0.0034183317 -0.13259174 0.12666544 -0.024569677
-0.10420512 0.0072587854 0.09239718 -0.08061927 0.020677947 0.025273649 0.10775092 -0.07866582
-0.15149567 0.02062349 0.1276417 -0.07686191 -0.028833695 -0.1488953 0.104951404 0.035771452
0.08021003 -0.047601692 -0.1257021 0.11908556 0.1266083 0.16017996 0.101427905 -0.039275177
0.060294863 -0.060668524 -0.07506599 -0.145725 0.052924246 -0.113534324 0.036683656 0.13559054
0.07888587 -0.17151417 0.033610974 -0.15389635 0.04157944 -0.084948055 0.06764875 -0.028389225
-0.15888019 -0.15847732 -0.08721282 -0.12688905 0.059858523 0.11657829 0.0985422 0.009876952
-0.13934377 0.019976497 0.09580016 0.15963961 -0.038713288 -0.031571396 0.08845626 0.13629073
-0.13321634 0.16007437 -0.16032505 0.024273533 0.017683618 0.04477723 0.14174719 0.1487177
0.0039664567 0.12634456 0.06613018 0.14512052 -0.16525264 -0.085072614 -0.030680818 -0.03597595
-0.02759433 0.14207496 -0.021226328 -0.09193563 0.0832745 -0.01964028 0.11673043 -0.04137938
-0.123746954 -0.011399026 0.15716045 0.052725278 -0.1128704 -0.15641834 -0.15987585 0.087375514
-0.15809548 -0.07327207 -0.10992866 -0.11214514 0.095232144 -0.011563799 0.11706957 -0.12068696
-0.09559551 0.041273177 -0.06568381 0.10094604 -0.04635739 -0.05928947 -0.10711644 -0.107872024
0.13439639 -0.10476117 0.10418843 -0.039169908 0.018866079 0.004394708 0.026764158 0.06552056
0.0029611012 0.051256817 0.046775065 -0.023823813 0.095670104 -0.083564475 0.012879855 0.008833112
0.12480042 -0.035703994 0.046643052 0.15127069 -0.037676807 0.0045279902 -0.09221531 -0.11151686
0.050848827 0.07822946 -0.061030224 -0.05555698 0.042791154 0.07256938 -0.17008391 0.120156474
-0.01133547 0.16447425 -0.12328851 -0.04252558 -0.09236268 -0.093258 -0.14535153 -0.16645528
0.087940566 -0.02715195 -0.1399911 -0.086957574 -0.03243909 -0.008728912 0.14292383 0.07600357
-0.16078483 -0.0045823026 -0.07973888 0.12947915 -0.07257097 0.020940296 -0.0053278217 -0.088123165
0.13712578 -0.0015918917 -0.059033174 -0.1412133 0.11182386 0.15625857 -0.15856566 -0.09524586
-0.07244227 -0.040231206 0.10488021 0.026567535 0.13066147 -0.099973865 -0.15391822 -0.0059692264
-0.12709731 -0.1666802 -0.13860786 -0.004044697 -0.1469346 0.10368339 0.05861072 0.01981283
0.1607966 0.1463708 -0.013896803 -0.056807157 -0.029192703 0.050681904 0.020422047 -0.028897416
00000000: 59ed 6abd eeb9 0e3e 5ad7 943d 0291 073e
00000010: 1faf f1bd 1fad 73bd 1a8b 323d 5d93 823d
00000020: f230 a3bc bdd5 59bd 672d 283e b9c8 15be
00000030: 32fa 01bd 2083 853c 65c8 08bd 3c4a 16be
00000040: 7ce6 9ebd d405 483d 37cb a33d 3740 0b3e
00000050: d3c0 af3d 535e 05be b31d 8c3d c82e bcbd
00000060: 7fec d0bc b910 c53d 24d2 0cbe b319 0f3e
00000070: eddd 353d cac8 0a3e adae 843b 5157 2dbe
00000080: 2e71 3dbd f164 813d 311c cc3d bba6 a13d
00000090: b2a4 a83d c399 0cbe 85da 5e3a e497 4dbd
000000a0: e4f0 b93c 8ec8 093d 0d3e 0c3d 5d32 98bc
000000b0: 4bc8 b23d 1766 c03c a6aa e0bb bf6b 083e
000000c0: 6da6 3b3c 6619 ba3d d03c 173e fb29 79bd
000000d0: 2974 f8bd 0e40 8cbd d1b4 e33d 7290 9dbd
000000e0: 61ec 4ebd aeb2 39bd 1410 0bbe fd6b 49bd
000000f0: 1706 603b 21c6 07be 96b4 013e 5946 c9bc
00000100: 7e69 d5bd 1bdb ed3b bc3a bd3d b71b a5bd
00000110: cc64 a93c af0a cf3c 84ac dc3d 8c1b a1bd
00000120: ae21 1bbe 98f2 a83c 81b4 023e c769 9dbd
00000130: a434 ecbc 0278 18be c3f0 d63d 1685 123d
00000140: 2845 a43d fef9 42bd 0db8 00be 21e3 f33d
00000150: 9ba5 013e 3706 243e 6fb9 cf3d 02df 20bd
00000160: bff7 763d 8f7f 78bd 33bc 99bd ef38 15be
00000170: 18c7 583d af84 e8bd 9a41 163d 3fd8 0a3e
00000180: ea8e a13d 69a1 2fbe a9ab 093d 0197 1dbe
00000190: 344f 2a3d 3ff9 adbd 6e8b 8a3d 8590 e8bc
000001a0: 7db1 22be e147 22be a39c b2bd 34ef 01be
000001b0: 362e 753d 99c0 ee3d 7ed0 c93d f0d2 213c
000001c0: 22b0 0ebe c0a5 a33c e032 c43d 9178 233e
000001d0: d391 1ebd 0251 01bd 8e28 b53d cc8f 0b3e
000001e0: dd69 08be 89ea 233e 402c 24be 4ad9 c63c
000001f0: 3cdd 903c 5468 373d 2d26 113e 7449 183e
00000200: 0df9 813b 7860 013e 436f 873d 799a 143e
00000210: fd37 29be 8d3a aebd 5756 fbbc 855b 13bd
00000220: 810d e2bc 197c 113e d6e2 adbc bf48 bcbd
00000230: d28b aa3d a7e4 a0bc 5d10 ef3d 6d7d 29bd
00000240: 0b6f fdbd fbc2 3abc abee 203e 76f6 573d
00000250: 9928 e7bd 212c 20be 7fb6 23be eff1 b23d
00000260: c8e3 21be ab0f 96bd 4722 e1bd 5aac e5bd
00000270: 1209 c33d 1776 3dbc 2cc2 ef3d ba2a f7bd
00000280: 94c7 c3bd 100e 293d 3c85 86bd ccbc ce3d
00000290: 3fe1 3dbd 84d9 72bd dd5f dbbd 02ec dcbd
000002a0: 359f 093e 068d d6bd be60 d53d a070 20bd
000002b0: 098d 9a3c 7c01 903b 8240 db3c a52f 863d
000002c0: 090f 423b abf2 513d 3697 3f3d 282a c3bc
000002d0: b0ee c33d da23 abbd 0706 533c c2b8 103c
000002e0: 5d97 ff3d 5a3e 12bd c90c 3f3d b4e6 1a3e
000002f0: ff52 1abd 895f 943b 61db bcbd f462 e4bd
00000300: dc46 503d c436 a03d d4fa 79bd b78f 63bd
00000310: c745 2f3d 419f 943d 7a2a 2ebe 9914 f63d
00000320: 68b8 39bc f06b 283e b07e fcbd 4d2f 2ebd
00000330: a528 bdbd 0dfe bebd 08d7 14be 4173 2abe
00000340: 2f1a b43d c46d debc d459 0fbe d016 b2bd
00000350: dade 04bd b603 0fbc a05a 123e c2a7 9b3d
00000360: c7a4 24be 2427 96bb 234e a3bd 2f96 043e
00000370: 17a0 94bd fc8a ab3c 0295 aebb eb79 b4bd
00000380: b36a 0c3e 06a7 d0ba c5cc 71bd 389a 10be
00000390: e803 e53d 3f02 203e 095f 22be 4310 c3bd
000003a0: 9d5c 94bd 7ac9 24bd 6fcb d63d 29a4 d93c
000003b0: 1fcc 053e 19bf ccbd bd9c 1dbe 8099 c3bb
000003c0: cc25 02be 37ae 2abe 38ef 0dbe 6189 84bb
000003d0: 0676 16be f557 d43d cb11 703d 844e a23c
000003e0: dda7 243e 3ae2 153e 6baf 63bc 9fae 68bd
000003f0: 8925 efbc d497 4f3d 234c a73c 46ba ecbc

bias f4 [8]
-0.068906106 0.061820507 -0.04317206 -0.039371826 0.02986454 0.040116653 -0.05276029 -0.030913226
00000000: a51e 8dbd 8037 7d3d 30d5 30bd 5a44 21bd
00000010: 7ba6 f43c 5c51 243d 2d1b 58bd bc3d fdbc

a2 f4 [8]
1.0024037 0.9949106 0.9991568 1.0013716 1.0000757 1.0003294 1.0012946 0.99619764
00000000: c44e 803f 76b2 7e3f bdc8 7f3f f22c 803f
00000010: 7b02 803f cb0a 803f 6c2a 803f cf06 7f3f

b2 f4 [8]
-0.0051285913 0.005767889 -0.002430057 0.012380518 -0.0017621742 0.0018882997 -0.0017393966 -0.003208873
00000000: be0d a8bb 8f00 bd3b 9741 1fbb a8d7 4a3c
00000010: c1f8 e6ba d380 f73a 77fc e3ba f54b 52bb

a2 f4 [8]
0.99987185 0.9999863 0.99977577 1.0004311 1.0000522 1.0002029 1.0004852 1.0006311
00000000: 9af7 7f3f 1aff 7f3f 4ef1 7f3f 200e 803f
00000010: b601 803f a606 803f e60f 803f ae14 803f

b2 f4 [8]
-0.00078515 0.00060894026 -0.0013866705 0.00049863936 -9.562198e-05 -0.00040309064 -0.0009608985 0.0011116576
00000000: 86d2 4dba 4aa1 1f3a f1c0 b5ba 1fb7 023a
00000010: a988 c8b8 e955 d3b9 cfe4 7bba 0ab5 913a

a2 f4 [8]
4.861827 4.0773797 1.0016171 0.98915976 1.2952422 1.0034046 1.9296154 0.5290688
00000000: 1694 9b40 e579 8240 fd34 803f 9339 7d3f
00000010: 7fca a53f 906f 803f a3fd f63f 0e71 073f

b2 f4 [8]
-4.0464406 -3.2550216 0.0607548 -0.02945795 0.9524465 -0.006647088 1.571182 -0.70626104
00000000: 717c 81c0 4652 50c0 06da 783d cc51 f1bc
00000010: 89d3 733f d1cf d9bb 7e1c c93f 86cd 34bf

weight f4 [8, 8]
-0.032117307 0.5040063 0.3580305 0.053016067 0.45386547 -0.51871055 0.36853468 -0.03208661
-0.5960223 -0.18330443 -0.26936024 -0.5845705 0.23887396 -0.078982055 -0.41055393 -0.58690864
-0.36236128 -0.069764316 -0.15618351 -0.119344324 0.26831788 0.14421725 -0.54778033 -0.10252935
-0.38902456 0.18880779 0.09668362 0.60824233 0.1918127 0.53434044 0.5636509 0.49703342
-0.040033698 0.20839447 -0.2837591 0.3040254 0.24407583 -0.34238008 -0.5710885 -0.30122796
-0.33393094 0.06528193 -0.51505804 -0.106269896 0.4915244 -0.14106634 -0.41925514 -0.108511984
-0.17900106 -0.12953943 -0.0007249713 -0.3608755 -0.49452347 0.2952729 0.29753488 0.51470214
-0.078225374 0.29857296 0.09101778 -0.021952093 -0.040582657 0.07776755 0.05849743 -0.18709543
00000000: 708d 03bd 8f06 013f c64f b73e 6027 593d
00000010: 0e61 e83e 37ca 04bf 94b0 bc3e 406d 03bd
00000020: eb94 18bf 28b4 3bbe 96e9 89be 6aa6 15bf
00000030: 609b 743e 58c1 a1bd 2034 d2be a53f 16bf
00000040: 6b87 b9be 98e0 8ebd 92ee 1fbe cc6a f4bd
00000050: f660 893e b0ad 133e 553b 0cbf e8fa d1bd
00000060: 3a2e c7be d456 413e 1002 c63d c5b5 1b3f
00000070: 8c6a 443e 89ca 083f 6d4b 103f 2a7b fe3e
00000080: 60fa 23bd 5c65 553e df48 91be 38a9 9b3e
00000090: 04ef 793e 714c afbe db32 12bf 8d3a 9abe
000000a0: fff8 aabe 88b2 853d d8da 03bf 08a4 d9bd
000000b0: 16a9 fb3e b273 10be 9ca8 d6be 883b debd
000000c0: 0e4c 37be fca5 04be 000c 3eba acc4 b8be
000000d0: 2e32 fdbe 022e 973e 7e56 983e 85c3 033f
000000e0: a034 a0bd 8ede 983e 8867 ba3d e0d4 b3bc
000000f0: 003a 26bd 9844 9f3d 009b 6f3d f295 3fbe

bias f4 [8]
0.045990378 -0.08063084 -0.022403955 -0.2035477 0.0063153207 0.06335062 -0.08978197 -0.013821632
00000000: 6860 3c3d c821 a5bd 8088 b7bc cf6e 50be
00000010: c0f0 ce3b f8bd 813d 9cdf b7bd 2074 62bc

weight f4 [8, 8]
0.039556682 0.34160447 0.35348386 -0.022653997 0.46079212 -0.43012428 0.43415052 -0.5853864
0.20355296 0.6069614 0.30064726 -0.0007442236 -0.039703786 -0.29672596 -0.17741176 -0.22679222
0.598939 0.018795967 -0.42666623 0.17332637 0.025194585 -0.57691664 -0.5188538 -0.061946034
-0.4693426 0.20907384 -0.24172497 -0.32802534 -0.017942011 0.5621093 -0.035330057 -0.16513646
0.33299083 -0.050768852 0.13608569 0.30716628 -0.567106 0.60924333 0.15914309 0.2364651
-0.0818823 -0.15417191 -0.55436504 -0.17170525 0.3532924 0.041242957 -0.20395073 -0.2298235
0.51016206 0.43588763 -0.6064427 0.4355834 0.58062416 -0.38395715 0.5072184 0.41942233
-0.10605413 -0.52311796 0.33482814 -0.5776038 -0.0062744617 0.23097235 -0.52446556 -0.36760074
00000000: 3006 223d c8e6 ae3e d6fb b43e e094 b9bc
00000010: f2ec eb3e 4039 dcbe fa48 de3e e2db 15bf
00000020: 3070 503e d361 1b3f 70ee 993e 0018 43ba
00000030: 70a0 22bd 77ec 97be 6eab 35be 383c 68be
00000040: 1154 193f 00fa 993c ff73 dabe 787c 313e
00000050: e064 ce3c cfb0 13bf 9ad3 04bf 20bb 7dbd
00000060: ac4d f0be 7417 563e c086 77be f0f2 a7be
00000070: 20fb 92bc 65e6 0f3f 40b6 10bd 8819 29be
00000080: c67d aa3e 00f3 4fbd 0c5a 0b3e e644 9d3e
00000090: dc2d 11bf 5ff7 1b3f 68f6 223e e823 723e
000000a0: e8b1 a7bd 3edf 1dbe deea 0dbf 80d3 2fbe
000000b0: bee2 b43e 60ee 283d 76d8 50be da56 6bbe
000000c0: fb99 023f aa2c df3e d43f 1bbf ca04 df3e
000000d0: c9a3 143f 0896 c4be 11d9 013f 86be d63e
000000e0: e832 d9bd 0feb 05bf 986e ab3e d8dd 13bf
000000f0: 009a cdbb 0484 6c3e 6043 06bf 2a36 bcbe

bias f4 [8]
0.045990378 -0.08063084 -0.022403955 -0.2035477 0.0063153207 0.06335062 -0.08978197 -0.013821632
00000000: 6860 3c3d c821 a5bd 8088 b7bc cf6e 50be
00000010: c0f0 ce3b f8bd 813d 9cdf b7bd 2074 62bc

weight f4 [8, 8]
0.6695832 0.04962765 0.10252758 0.34106344 0.22358559 0.53689456 -0.12910199 0.294155
-0.18538286 0.6109853 0.4149107 0.46019682 -0.25170818 0.060311858 -0.19237125 0.27470225
0.35565984 0.2561087 0.1738385 -0.110479444 -0.018683799 -0.050047535 -0.46792874 -0.23913805
-0.6601809 -0.96571845 -0.12900715 0.026957585 -0.09646608 0.10953951 0.5026856 -0.074080616
-0.7340163 -0.44692263 -0.29392976 -0.4611793 -0.49521884 0.1332492 0.2844918 -0.49724633
-0.43774876 0.36823866 -0.5155574 -0.13405296 0.41403615 -0.21241245 0.76015127 0.39645767
0.7832331 0.54259664 -0.42672017 -0.33669734 0.19571444 0.25276968 -0.116781145 -0.80837744
0.025365027 -0.32551706 -0.22267413 0.22879891 0.10830852 -0.254458 0.106885195 -0.43393767
00000000: ce69 2b3f 5d46 4b3d fbf9 d13d de9f ae3e
00000010: 9ff3 643e ec71 093f 5033 04be 7c9b 963e
00000020: 01d5 3dbe 8869 1c3f 2d6f d43e eb9e eb3e
00000030: e5df 80be 9109 773d f8fc 44be c6a5 8c3e
00000040: 0c19 b63e ae20 833e b802 323e 0c43 e2bd
00000050: c40e 99bc a5fe 4cbd 5b94 efbe 9be0 74be
00000060: 9e01 29bf 5339 77bf 731a 04be 27d6 dc3c
00000070: 0290 c5bd 4056 e03d 01b0 003f 94b7 97bd
00000080: 7ee8 3bbf 0bd3 e4be f67d 96be b11f ecbe
00000090: 538d fdbe 7a72 083e e9a8 913e 1297 febe
000000a0: 9b20 e0be c789 bc3e 92fb 03bf 2e45 09be
000000b0: 8cfc d33e a682 59be 4699 423f 80fc ca3e
000000c0: f781 483f 9de7 0a3f 117b dabe 9863 acbe
000000d0: 5e69 483e 076b 813e f42a efbd d3f1 4ebf
000000e0: 51ca cf3c 2caa a6be b004 64be 434a 6a3e
000000f0: dbd0 dd3d 5248 82be a0e6 da3d 142d debe

bias f4 [8]
-0.008614211 -0.18857582 -0.3435295 0.07121231 0.0721838 0.06794168 -0.3176817 -0.14381373
00000000: 9f22 0dbc 051a 41be 19e3 afbe c2d7 913d
00000010: 1ad5 933d 0225 8b3d 2da7 a2be e843 13be

weight f4 [8, 8]
-0.1249024 -0.3842212 -0.31446254 0.96170175 0.20920901 0.3191024 -0.96154153 -0.15135427
-0.118587114 0.079845786 0.72343767 -0.21648553 0.2492739 0.3535549 0.27271238 0.069398895
-0.34902066 -0.2375536 0.561918 0.07376294 0.073552765 -0.37931687 0.07377973 -0.2702835
-0.020981418 -0.08389287 0.24777271 0.30646902 -0.14141364 -0.5408632 0.43395525 0.45378396
-0.20010541 -0.3566902 -0.014692699 -0.45316255 0.45468625 -0.058707446 0.63538456 -0.42018917
0.5263651 -0.33550662 0.50885266 -0.0734378 0.0150412535 0.39146286 0.6537644 -0.28755006
0.74322426 -0.316133 -0.097872436 -0.24682908 -0.45487127 -0.5504757 0.39073038 -0.5377678
0.32586947 0.32145867 0.5922026 -0.38888326 -0.5676445 -0.25772983 0.46266577 -0.59233445
00000000: d4cc ffbd a4b8 c4be 3c01 a1be 1632 763f
00000010: e33a 563e 6461 a33e 9627 76bf 9dfc 1abe
00000020: cddd f2bd 3086 a33d 3633 393f 62ae 5dbe
00000030: a841 7f3e 2605 b53e f5a0 8b3e 0221 8e3d
00000040: d6b2 b2be 4041 73be dcd9 0f3f 0611 973d
00000050: d5a2 963d d235 c2be d419 973d 9962 8abe
00000060: 39e1 abbc 06d0 abbd 21b8 7d3e 82e9 9c3e
00000070: bdce 10be 0376 0abf 622f de3e 5f56 e83e
00000080: 6fe8 4cbe 19a0 b6be a5b9 70bc ec04 e8be
00000090: a3cc e83e 3877 70bd 90a8 223f 0923 d7be
000000a0: ddbf 063f 86c7 abbe 2b44 023f 8f66 96bd
000000b0: 976f 763c d26d c83e 1b5d 273f c339 93be
000000c0: f243 3e3f 2fdc a1be 5871 c8bd c3c0 7cbe
000000d0: e3e4 e8be faeb 0cbf d00d c83e 27ab 09bf
000000e0: 5dd8 a63e 3b96 a43e 979a 173f b51b c7be
000000f0: 2651 11bf 2af5 83be 87e2 ec3e 3ba3 17bf

bias f4 [8]
0.0884152 -0.26885125 -0.0054037436 -0.17619005 0.06171203 0.07545004 -0.095880754 0.01853307
00000000: 0713 b53d dfa6 89be e311 b1bb 2a6b 34be
00000010: c1c5 7c3d 8d85 9a3d 215d c4bd aad2 973c

p_attn f4 [86, 2, 1, 1]
1.0 1.0 1.0 1.0 1.0 1.0 1.0 1.0
1.0 1.0 1.0 1.0 1.0 1.0 1.0 1.0
1.0 1.0 1.0 1.0 1.0 1.0 1.0 1.0
1.0 1.0 1.0 1.0 1.0 1.0 1.0 1.0
1.0 1.0 1.0 1.0 1.0 1.0 1.0 1.0
1.0 1.0 1.0 1.0 1.0 1.0 1.0 1.0
1.0 1.0 1.0 1.0 1.0 1.0 1.0 1.0
1.0 1.0 1.0 1.0 1.0 1.0 1.0 1.0
1.0 1.0 1.0 1.0 1.0 1.0 1.0 1.0
1.0 1.0 1.0 1.0 1.0 1.0 1.0 1.0
1.0 1.0 1.0 1.0 1.0 1.0 1.0 1.0
1.0 1.0 1.0 1.0 1.0 1.0 1.0 1.0
1.0 1.0 1.0 1.0 1.0 1.0 1.0 1.0
1.0 1.0 1.0 1.0 1.0 1.0 1.0 1.0
1.0 1.0 1.0 1.0 1.0 1.0 1.0 1.0
1.0 1.0 1.0 1.0 1.0 1.0 1.0 1.0
1.0 1.0 1.0 1.0 1.0 1.0 1.0 1.0
1.0 1.0 1.0 1.0 1.0 1.0 1.0 1.0
1.0 1.0 1.0 1.0 1.0 1.0 1.0 1.0
1.0 1.0 1.0 1.0 1.0 1.0 1.0 1.0
1.0 1.0 1.0 1.0 1.0 1.0 1.0 1.0
1.0 1.0 1.0 1.0
00000000: 0000 803f 0000 803f 0000 803f 0000 803f
00000010: 0000 803f 0000 803f 0000 803f 0000 803f
00000020: 0000 803f 0000 803f 0000 803f 0000 803f
00000030: 0000 803f 0000 803f 0000 803f 0000 803f
00000040: 0000 803f 0000 803f 0000 803f 0000 803f
00000050: 0000 803f 0000 803f 0000 803f 0000 803f
00000060: 0000 803f 0000 803f 0000 803f 0000 803f
00000070: 0000 803f 0000 803f 0000 803f 0000 803f
00000080: 0000 803f 0000 803f 0000 803f 0000 803f
00000090: 0000 803f 0000 803f 0000 803f 0000 803f
000000a0: 0000 803f 0000 803f 0000 803f 0000 803f
000000b0: 0000 803f 0000 803f 0000 803f 0000 803f
000000c0: 0000 803f 0000 803f 0000 803f 0000 803f
000000d0: 0000 803f 0000 803f 0000 803f 0000 803f
000000e0: 0000 803f 0000 803f 0000 803f 0000 803f
000000f0: 0000 803f 0000 803f 0000 803f 0000 803f
00000100: 0000 803f 0000 803f 0000 803f 0000 803f
00000110: 0000 803f 0000 803f 0000 803f 0000 803f
00000120: 0000 803f 0000 803f 0000 803f 0000 803f
00000130: 0000 803f 0000 803f 0000 803f 0000 803f
00000140: 0000 803f 0000 803f 0000 803f 0000 803f
00000150: 0000 803f 0000 803f 0000 803f 0000 803f
00000160: 0000 803f 0000 803f 0000 803f 0000 803f
00000170: 0000 803f 0000 803f 0000 803f 0000 803f
00000180: 0000 803f 0000 803f 0000 803f 0000 803f
00000190: 0000 803f 0000 803f 0000 803f 0000 803f
000001a0: 0000 803f 0000 803f 0000 803f 0000 803f
000001b0: 0000 803f 0000 803f 0000 803f 0000 803f
000001c0: 0000 803f 0000 803f 0000 803f 0000 803f
000001d0: 0000 803f 0000 803f 0000 803f 0000 803f
000001e0: 0000 803f 0000 803f 0000 803f 0000 803f
000001f0: 0000 803f 0000 803f 0000 803f 0000 803f
00000200: 0000 803f 0000 803f 0000 803f 0000 803f
00000210: 0000 803f 0000 803f 0000 803f 0000 803f
00000220: 0000 803f 0000 803f 0000 803f 0000 803f
00000230: 0000 803f 0000 803f 0000 803f 0000 803f
00000240: 0000 803f 0000 803f 0000 803f 0000 803f
00000250: 0000 803f 0000 803f 0000 803f 0000 803f
00000260: 0000 803f 0000 803f 0000 803f 0000 803f
00000270: 0000 803f 0000 803f 0000 803f 0000 803f
00000280: 0000 803f 0000 803f 0000 803f 0000 803f
00000290: 0000 803f 0000 803f 0000 803f 0000 803f
000002a0: 0000 803f 0000 803f 0000 803f 0000 803f

weight f4 [8, 8]
0.31842864 0.008167863 -0.5649249 0.035408318 0.45696956 0.3791914 0.5158616 -0.08024627
-0.05494815 0.33699876 0.1468572 -0.3481517 0.5523949 -0.41424507 -0.2703551 -0.30993262
0.11689919 0.44677812 -0.24993053 0.55705816 0.4084975 -0.6065112 -0.53663313 -0.56867546
-0.3600879 0.46946508 0.002979219 0.2676283 -0.19809273 -0.030544221 0.28345686 -0.45644194
0.23214233 0.20432484 -0.5756444 0.36814225 -0.23840398 0.27956063 0.24323767 -0.30800125
-0.17967063 0.2778374 0.31393808 -0.54700184 0.35679102 -0.24526098 -0.25698513 -0.37739253
0.45869845 0.49348825 0.0034074187 -0.21186143 0.24554926 0.21971929 -0.040728867 -0.032047868
0.5881972 -0.27386177 -0.09106952 -0.5325963 0.46536332 -0.45373195 -0.073203444 -0.16691613
00000000: 1409 a33e 80d2 053c eb9e 10bf 5008 113d
00000010: eaf7 e93e 6025 c23e 810f 043f 2858 a4bd
00000020: 5011 61bd 1a8b ac3e bc61 163e f140 b2be
00000030: c169 0d3f ee17 d4be fc6b 8abe 7daf 9ebe
00000040: d868 ef3d 1ac0 e43e caed 7fbe 5d9b 0e3f
00000050: 9626 d13e 5144 1bbf ca60 09bf b794 11bf
00000060: 715d b8be ba5d f03e 003f 433b 9406 893e
00000070: d2d8 4abe e037 fabc 4221 913e c2b2 e9be
00000080: b8b6 6d3e 883a 513e 6e5d 13bf 247d bc3e
00000090: 2c20 74be 9222 8f3e 4c13 793e 57b2 9dbe
000000a0: 94fb 37be b440 8e3e 7ebc a03e 5008 0cbf
000000b0: 50ad b63e b225 7bbe 8e93 83be 9839 c1be
000000c0: 86da ea3e 7eaa fc3e 004f 5f3b 34f2 58be
000000d0: 4471 7b3e 18fe 603e 50d3 26bd a044 03bd
000000e0: 1794 163f 9c37 8cbe a882 babd 3b58 08bf
000000f0: 1a44 ee3e 8e4f e8be b0eb 95bd 10ec 2abe

bias f4 [8]
0.045990378 -0.08063084 -0.022403955 -0.2035477 0.0063153207 0.06335062 -0.08978197 -0.013821632
00000000: 6860 3c3d c821 a5bd 8088 b7bc cf6e 50be
00000010: c0f0 ce3b f8bd 813d 9cdf b7bd 2074 62bc

weight f4 [8, 8]
-0.094260335 0.21708512 -0.13739932 -0.11176461 0.1391741 0.1002028 -0.41873938 0.037786305
-0.47786498 0.2515192 -0.37774736 -0.37419993 0.033898294 0.35828924 -0.45305103 -0.33932808
0.10387033 -0.079906166 0.60036236 -0.42550385 0.105808854 -0.39847535 0.2828046 0.6109435
-0.44478595 -0.46267337 -0.22068098 -0.4668709 -0.31617707 -0.001932025 0.35133952 0.57028407
0.27513254 -0.5221039 0.10270554 0.30037016 -0.5992123 0.35548162 -0.14998087 0.31602758
-0.30823156 0.22513568 0.082321286 0.014332771 -0.04841721 -0.24968985 0.21876699 0.34965515
0.4970854 -0.2038435 2.2470951e-05 -0.115427405 0.279446 -0.5781517 0.31244665 -0.20616686
-0.32617873 0.17639661 -0.5556959 -0.07139069 -0.22595513 -0.3005638 0.0535717 -0.13650951
00000000: 900b c1bd 904b 5e3e 68b2 0cbe d8e4 e4bd
00000010: a883 0e3e 2037 cd3d 0265 d6be d0c5 1a3d
00000020: b8aa f4be 20c7 803e 1a68 c1be 2297 bfbe
00000030: f0d8 0a3d b071 b73e 4ef6 e7be 69bc adbe
00000040: f8b9 d43d d8a5 a3bd 59b1 193f a4db d9be
00000050: 50b2 d83d f604 ccbe c4cb 903e cb66 1c3f
00000060: fcba e3be 86e3 ecbe 32fa 61be b409 efbe
00000070: f6e1 a1be 003c fdba c6e2 b33e 23fe 113f
00000080: 2cde 8c3e 9aa8 05bf 4857 d23d 1eca 993e
00000090: fa65 19bf b001 b63e 9694 19be 5ece a13e
000000a0: 87d0 9dbe f889 663e 1098 a83d 00d4 6a3c
000000b0: 2051 46bd b2ae 7fbe 7404 603e 0006 b33e
000000c0: fa81 fe3e 5abc 50be 0080 bc37 3465 ecbd
000000d0: 8c13 8f3e c001 14bf 02f9 9f3e 681d 53be
000000e0: e600 a7be 50a1 343e 1642 0ebf 4835 92bd
000000f0: c860 67be 80e3 99be 006e 5b3d 26c9 0bbe

bias f4 [8]
0.045990378 -0.08063084 -0.022403955 -0.2035477 0.0063153207 0.06335062 -0.08978197 -0.013821632
00000000: 6860 3c3d c821 a5bd 8088 b7bc cf6e 50be
00000010: c0f0 ce3b f8bd 813d 9cdf b7bd 2074 62bc

weight f4 [8, 8]
-0.12500596 0.7698186 0.06958412 0.31661448 -0.6006751 0.3042219 -0.5782952 0.35283598
-1.6181214 -0.9817933 -0.45717794 0.008193595 0.64954406 -0.36975688 1.0159091 -0.39973137
2.9298203 2.099467 -0.44307226 0.082776144 -0.31003305 -0.023055956 -1.3038718 0.04168974
-0.36809433 0.29845226 0.25970545 -0.41022417 0.06494223 0.37388405 -0.47113284 0.63872784
-1.8985355 -0.9158756 0.5027341 -0.3253515 0.008371215 0.360485 0.0523107 -0.22260013
-0.7211299 -0.22881772 0.26032376 0.29585177 -0.43109688 0.1639872 0.67680275 0.11100366
-1.1324569 -0.6304866 0.029624155 0.09347488 -0.51872915 -0.3779036 -0.1065872 0.32570687
-4.851187 -4.4855037 -0.10418071 0.19418389 1.2200794 0.068862334 1.7116411 -0.36094984
00000000: 9001 00be d512 453f 1e82 8e3d 4b1b a23e
00000010: d8c5 19bf f9c2 9b3e 270b 14bf eba6 b43e
00000020: 9a1e cfbf ce56 7bbf 3a13 eabe 6e3e 063c
00000030: 8548 263f c650 bdbe 4f09 823f 97a9 ccbe
00000040: 2d82 3b40 ab5d 0640 5eda e2be 8a86 a93d
00000050: a7bc 9ebe d8df bcbc 45e5 a6bf dcc2 2a3d
00000060: dc76 bcbe bcce 983e 1df8 843e e708 d2be
00000070: 6f00 853d bb6d bf3e 5338 f1be ab83 233f
00000080: 3603 f3bf d376 6abf 2fb3 003f 7994 a6be
00000090: 6c27 093c 7d91 b83e bf43 563d 4af1 63be
000000a0: f89b 38bf 314f 6abe 2849 853e e279 973e
000000b0: bbb8 dcbe 43ec 273e f242 2d3f e355 e33d
000000c0: 59f4 90bf 9267 21bf 5bae f23c c26f bf3d
000000d0: 6fcb 04bf 957c c1be 644a dabd 0dc3 a63e
000000e0: ed3c 9bc0 3f89 8fc0 b25c d5bd 24d8 463e
000000f0: 902b 9c3f b207 8d3d 0e17 db3f 6bce b8be

bias f4 [8]
-0.08393565 0.28182256 -0.5861315 -0.05694903 0.36850712 0.23042326 -0.11881038 1.3687544
00000000: 74e6 abbd 0c4b 903e b70c 16bf 6343 69bd
00000010: f7ac bc3e 13f4 6b3e db52 f3bd 5833 af3f

weight f4 [8, 8]
-0.5872603 1.5023739 -2.1114976 -0.051466674 0.9286338 0.6200449 0.5141772 4.099113
-0.114930116 1.7022022 -2.5224183 -0.68716705 1.512463 0.34364477 1.3974237 3.9142895
0.1970005 0.060544867 0.43223163 -0.12479931 0.28708005 -0.3878731 -0.014535403 -0.32733345
0.037323438 0.26798314 -0.29360917 -0.2445322 0.24345624 0.11816549 0.16767119 -0.9849732
0.4207638 -0.5497514 0.4803084 -0.3818291 -0.5248687 0.05753385 0.31406003 -1.6024157
0.26959792 -0.3939226 -0.43332115 -0.1178924 -0.065894485 0.19425587 -0.21080588 -0.3883349
-0.08020761 -0.34359956 1.563623 -0.43366444 -0.6803622 0.28503448 0.2781529 -3.002818
0.30942047 -0.5224928 1.6503652 -0.30210134 -1.0196036 -0.76540715 -0.25130957 -3.0732493
00000000: b156 16bf ca4d c03f c722 07c0 b8ce 52bd
00000010: f2ba 6d3f 43bb 1e3f 1ea1 033f ef2b 8340
00000020: 7b60 ebbd c3e1 d93f 4d6f 21c0 2eea 2fbf
00000030: 6398 c13f 35f2 af3e c8de b23f b883 7a40
00000040: 80ba 493e e5fd 773d 774d dd3e c896 ffbd
00000050: 28fc 923e 4e97 c6be e625 6ebc 4098 a7be
00000060: 76e0 183d 1635 893e f153 96be a666 7abe
00000070: 984c 793e c000 f23d ffb1 2b3e 3427 7cbf
00000080: 5a6e d73e 82bc 0cbf fcea f53e 1b7f c3be
00000090: cc5d 06bf 9da8 6b3d 7acc a03e f51b cdbf
000000a0: bd08 8a3e 39b0 c9be 45dc ddbe 9271 f1bd
000000b0: b0f3 86bd 03eb 463e 7fdd 57be d5d3 c6be
000000c0: e343 a4bd 48ec afbe cc24 c83f 4409 debe
000000d0: 382c 2ebf 0af0 913e 0f6a 8e3e 2c2e 40c0
000000e0: 5c6c 9e3e 17c2 05bf 2b3f d33f 07ad 9abe
000000f0: 5f82 82bf b9f1 43bf a6ab 80be 1eb0 44c0

bias f4 [8]
0.097344555 -0.27418423 -0.0031639305 -0.17814131 0.058024764 0.0776752 -0.091788985 0.015481559
00000000: 955c c73d e061 8cbe f259 4fbb ad6a 36be
00000010: 60ab 6d3d 2d14 9f3d ddfb bbbd 5da6 7d3c

p_attn f4 [86, 2, 1, 1]
1.0 1.0 1.0 1.0 1.0 1.0 1.0 1.0
1.0 1.0 1.0 1.0 1.0 1.0 1.0 1.0
1.0 1.0 1.0 1.0 1.0 1.0 1.0 1.0
1.0 1.0 1.0 1.0 1.0 1.0 1.0 1.0
1.0 1.0 1.0 1.0 1.0 1.0 1.0 1.0
1.0 1.0 1.0 1.0 1.0 1.0 1.0 1.0
1.0 1.0 1.0 1.0 1.0 1.0 1.0 1.0
1.0 1.0 1.0 1.0 1.0 1.0 1.0 1.0
1.0 1.0 1.0 1.0 1.0 1.0 1.0 1.0
1.0 1.0 1.0 1.0 1.0 1.0 1.0 1.0
1.0 1.0 1.0 1.0 1.0 1.0 1.0 1.0
1.0 1.0 1.0 1.0 1.0 1.0 1.0 1.0
1.0 1.0 1.0 1.0 1.0 1.0 1.0 1.0
1.0 1.0 1.0 1.0 1.0 1.0 1.0 1.0
1.0 1.0 1.0 1.0 1.0 1.0 1.0 1.0
1.0 1.0 1.0 1.0 1.0 1.0 1.0 1.0
1.0 1.0 1.0 1.0 1.0 1.0 1.0 1.0
1.0 1.0 1.0 1.0 1.0 1.0 1.0 1.0
1.0 1.0 1.0 1.0 1.0 1.0 1.0 1.0
1.0 1.0 1.0 1.0 1.0 1.0 1.0 1.0
1.0 1.0 1.0 1.0 1.0 1.0 1.0 1.0
1.0 1.0 1.0 1.0
00000000: 0000 803f 0000 803f 0000 803f 0000 803f
00000010: 0000 803f 0000 803f 0000 803f 0000 803f
00000020: 0000 803f 0000 803f 0000 803f 0000 803f
00000030: 0000 803f 0000 803f 0000 803f 0000 803f
00000040: 0000 803f 0000 803f 0000 803f 0000 803f
00000050: 0000 803f 0000 803f 0000 803f 0000 803f
00000060: 0000 803f 0000 803f 0000 803f 0000 803f
00000070: 0000 803f 0000 803f 0000 803f 0000 803f
00000080: 0000 803f 0000 803f 0000 803f 0000 803f
00000090: 0000 803f 0000 803f 0000 803f 0000 803f
000000a0: 0000 803f 0000 803f 0000 803f 0000 803f
000000b0: 0000 803f 0000 803f 0000 803f 0000 803f
000000c0: 0000 803f 0000 803f 0000 803f 0000 803f
000000d0: 0000 803f 0000 803f 0000 803f 0000 803f
000000e0: 0000 803f 0000 803f 0000 803f 0000 803f
000000f0: 0000 803f 0000 803f 0000 803f 0000 803f
00000100: 0000 803f 0000 803f 0000 803f 0000 803f
00000110: 0000 803f 0000 803f 0000 803f 0000 803f
00000120: 0000 803f 0000 803f 0000 803f 0000 803f
00000130: 0000 803f 0000 803f 0000 803f 0000 803f
00000140: 0000 803f 0000 803f 0000 803f 0000 803f
00000150: 0000 803f 0000 803f 0000 803f 0000 803f
00000160: 0000 803f 0000 803f 0000 803f 0000 803f
00000170: 0000 803f 0000 803f 0000 803f 0000 803f
00000180: 0000 803f 0000 803f 0000 803f 0000 803f
00000190: 0000 803f 0000 803f 0000 803f 0000 803f
000001a0: 0000 803f 0000 803f 0000 803f 0000 803f
000001b0: 0000 803f 0000 803f 0000 803f 0000 803f
000001c0: 0000 803f 0000 803f 0000 803f 0000 803f
000001d0: 0000 803f 0000 803f 0000 803f 0000 803f
000001e0: 0000 803f 0000 803f 0000 803f 0000 803f
000001f0: 0000 803f 0000 803f 0000 803f 0000 803f
00000200: 0000 803f 0000 803f 0000 803f 0000 803f
00000210: 0000 803f 0000 803f 0000 803f 0000 803f
00000220: 0000 803f 0000 803f 0000 803f 0000 803f
00000230: 0000 803f 0000 803f 0000 803f 0000 803f
00000240: 0000 803f 0000 803f 0000 803f 0000 803f
00000250: 0000 803f 0000 803f 0000 803f 0000 803f
00000260: 0000 803f 0000 803f 0000 803f 0000 803f
00000270: 0000 803f 0000 803f 0000 803f 0000 803f
00000280: 0000 803f 0000 803f 0000 803f 0000 803f
00000290: 0000 803f 0000 803f 0000 803f 0000 803f
000002a0: 0000 803f 0000 803f 0000 803f 0000 803f
