Net/Transformer_Testmachine_targetforcast_net_params.pkl (torch, 693670 bytes, 50 tensors)

encoder.layers.0.self_attn.linears.0.weight f4 [8, 8]
00000000: fa6e ef3e 1801 b5be 884d 83bd 6203 cc3e
00000010: 7237 9f3e cea9 fa3e 9ac3 20be 1cf0 0dbf
00000020: d2a2 11bf a026 86bd 7e7e efbe 395a b0be
00000030: 8ad8 cc3e 4afb fd3e 6094 603d 21c8 0cbf
00000040: debb 05bf d3e1 c7be b69d 8bbe a037 37bd
00000050: babc ff3e 9100 aebe f6db 953e 0c19 413e
00000060: d0b0 853d 8a2c d8be e07f fa3d c2f0 f53e
00000070: e09d 8f3c 96b8 2cbe 0466 8cbe ea5c 03bf
00000080: 297f 1bbf c27f 19bf 5ec1 49be 682e 843d
00000090: 80ab 75bd 2367 8fbe 90dd 393e f0f7 12bf
000000a0: d66a 68be 37ad 90be d002 0fbd e89b 55be
000000b0: fda0 0abf 9cbc a5be aa33 f93e 5e53 cf3e
000000c0: 4045 29bd 509c d0bd 00f7 4dbd 4e38 973e
000000d0: 9865 ec3d 4015 673e ae35 b33e 1079 eb3d
000000e0: 4c5f 29be f2e7 43be a820 10bf 90a5 563e
000000f0: 38a0 5a3e 2695 36be 4642 d03e f02b 6dbd
0.46764356 -0.35352397 -0.06411272 0.3984633 0.3109699 0.48957676 -0.15699616 -0.554445
-0.5688907 -0.06550336 -0.46776193 -0.34443834 0.40008956 0.4960578 0.054829 -0.5499287
-0.5223979 -0.39039478 -0.2726876 -0.044730783 0.49948674 -0.33984807 0.2926938 0.18857211
0.06527865 -0.4222148 0.122314215 0.48035246 0.017531335 -0.16867289 -0.27421582 -0.5131365
-0.60740906 -0.5996057 -0.1970267 0.06454164 -0.05997801 -0.28008375 0.18150926 -0.5740957
-0.22697005 -0.28257152 -0.03491479 -0.20860255 -0.541519 -0.3237046 0.4867223 0.40493292
-0.041325808 -0.10186064 -0.050284386 0.29535145 0.11542815 0.225667 0.35001892 0.114977
-0.16540259 -0.19131449 -0.5629983 0.20961595 0.21350181 -0.17830333 0.40675563 -0.05790323

encoder.layers.0.self_attn.linears.0.bias f4 [8]
00000000: 6860 3c3d c821 a5bd 8088 b7bc cf6e 50be
00000010: c0f0 ce3b f8bd 813d 9cdf b7bd 2074 62bc
0.045990378 -0.08063084 -0.022403955 -0.2035477 0.0063153207 0.06335062 -0.08978197 -0.013821632

encoder.layers.0.self_attn.linears.1.weight f4 [8, 8]
00000000: e75e 013f 16ef 16bf 40a6 c4bd e433 ccbe
00000010: c8db 9e3d b0bc 8b3e b20d f43e 2c3e 53be
00000020: d8b9 2c3e 5ecf 6bbe b89b 9d3d c058 7dbd
00000030: d057 9a3d c417 f5be 4082 b8bd 2619 1cbe
00000040: 1c6b 63be 584f adbd d30d 00bf d050 0ebf
00000050: 36ed b5be 44ca 823e 8a82 a2be 00f2 3b3d
00000060: 9f24 b3be 9cb0 683e 25a6 14bf 93d0 173f
00000070: 7d63 babe ded4 8c3e 9a1e 803e 41ae 023f
00000080: b432 f9bd e020 893d a403 78be 702f 3ebd
00000090: e9d5 91be 0a8d e83e 5ab6 bf3e 9c94 4d3e
000000a0: 1ec3 c63e 5c28 d5be c05d c93d bde0 8dbe
000000b0: fa9f 0abe 0bad 0a3f 701f 9b3e 580e 4d3e
000000c0: 983a 06bf 427a c5be e658 c73e 50fb 97be
000000d0: a04e 8d3c 3052 40be eb92 16bf 243d 13bf
000000e0: 68c0 823d 0699 1abe 40f5 683d 9e32 44be
000000f0: 6e9c 05be 30c8 e4bd 64f1 653e 20f2 eabc
0.50535434 -0.58958566 -0.09602022 -0.3988334 0.07756764 0.27292395 0.476667 -0.20629185
0.16867769 -0.23028323 0.076957166 -0.061852217 0.0753628 -0.47869694 -0.09009218 -0.15243968
-0.22208828 -0.08462399 -0.50021094 -0.5559206 -0.3553254 0.2554494 -0.31740218 0.045885086
-0.34988877 0.22723621 -0.58066016 0.59302634 -0.3640403 0.27506155 0.25023347 0.5104714
-0.12167874 0.066957235 -0.24220139 -0.04643196 -0.28483513 0.45420104 0.3744381 0.20076221
0.38820738 -0.41632354 0.098323345 -0.27710524 -0.13537589 0.5417029 0.30297422 0.20025003
-0.52433157 -0.38569838 0.38935012 -0.29683924 0.017249405 -0.18781352 -0.5881793 -0.5751517
0.06384355 -0.15097436 0.056874514 -0.19159934 -0.13047954 -0.11170995 0.22455364 -0.028679907

encoder.layers.0.self_attn.linears.1.bias f4 [8]
00000000: 6860 3c3d c821 a5bd 8088 b7bc cf6e 50be
00000010: c0f0 ce3b f8bd 813d 9cdf b7bd 2074 62bc
0.045990378 -0.08063084 -0.022403955 -0.2035477 0.0063153207 0.06335062 -0.08978197 -0.013821632

encoder.layers.0.self_attn.linears.2.weight f4 [8, 8]
00000000: fdc4 7e3e 5e93 dc3e 5f59 d33d 32f4 e4be
00000010: d2fe b63d 24af 043f dcfd 1b3f c0ec f43c
00000020: ad41 2fbe dc17 8abd 67d0 07bf af28 6c3e
00000030: 5996 73bd ead2 173e bb46 fabd 4dab f2be
00000040: 17e2 c3be 66e5 13be 159d 023f 3059 113f
00000050: a5f3 983e 54a3 0c3f cd83 a9ba 2921 acbe
00000060: 47be ab3c bd2b c9be 22dd e93d 77ed dcbe
00000070: 4a88 a13e 52c0 febd ca94 6a3e bca7 653e
00000080: 8d4f 813e 2123 b43e 0e5e c4be f2ee cbbe
00000090: 7236 dfbe e486 ab3e 9986 ffbe aa7f 933e
000000a0: 336c 91bc 3ead 183f b009 d3be a934 a63d
000000b0: 407c 213e 1186 393c 68c2 fa3e 4d16 7f3e
000000c0: ef04 b03e 58d7 9e3e 643f 10be dbcf d53d
000000d0: 0f76 f0bd dff9 88be 70c0 15bf a5da 143f
000000e0: 4e20 7ebe d836 013f ed75 183f c5de fb3e
000000f0: a184 e1be f938 58be c16b 943e bd8e b73e
0.24879833 0.43081182 0.103197806 -0.44717556 0.08935322 0.51829743 0.60934234 0.029898047
-0.17114897 -0.06742832 -0.5305237 0.23062395 -0.059469555 0.14826551 -0.12220522 -0.47396317
-0.3825843 -0.14442977 0.5102094 0.56776714 0.29873386 0.5493672 -0.0012932956 -0.3361905
0.020964755 -0.39291182 0.11419131 -0.4314992 0.31549293 -0.12439026 0.22908321 0.22427267
0.25256005 0.3518305 -0.38353008 -0.39830738 -0.43596226 0.3350135 -0.49907377 0.28808337
-0.017751789 0.59639347 -0.41218328 0.08115513 0.15770054 0.011323468 0.48976445 0.24910851
0.34378764 0.3102367 -0.14086682 0.10440036 -0.11741268 -0.26753137 -0.5849676 0.58146125
-0.24817011 0.5047431 0.5955494 0.49193397 -0.440465 -0.21115483 0.2898846 0.35851088

encoder.layers.0.self_attn.linears.2.bias f4 [8]
00000000: afdd 293d d2f2 98bd 79d3 86bc 658d 58be
00000010: 91b0 c93b d160 8f3d ded1 b3bd c218 25bc
0.04147118 -0.07468189 -0.01645826 -0.21147688 0.0061550816 0.07000888 -0.08780263 -0.0100767035

encoder.layers.0.self_attn.linears.3.weight f4 [8, 8]
00000000: 587f f43e 90fc fabe 66ac cabe 4464 193f
00000010: 11c8 213d 9f46 e9be 50f4 acbe e110 c9be
00000020: 3bfb dabe 8b82 52be e641 f63e dbaf 3fbe
00000030: 2c21 953e 3e09 4f3e b5c0 c0be 7729 dcbe
00000040: 5d5c d53e 7e2e 95be 7ab2 d73e aebd 113f
00000050: 0beb d7bd 7173 c53e 6d49 023e c00d 7bbe
00000060: 2ff2 203d 4745 fbbe 2dc8 fdbe 9454 c8bd
00000070: 2d64 55bd d903 aa3e 5053 24bd 0644 0dbe
00000080: 5bb4 163f b3a5 d33e 0318 163e 1416 4ebe
00000090: 680e 0b3f e259 133f 60ce cdbe 450f 40bc
000000a0: 47d3 a5be 88d1 3dbd 3df4 6a3e c7fe af3e
000000b0: 76e5 e83e 7d4a 433d be5d 87be d4be 0abc
000000c0: cfac 9d3e 1eb0 143f 2cf3 38bc 4f98 bc3e
000000d0: 3f2b 8dbd 6704 03bf fd42 0cbf fd07 a5be
000000e0: 9607 e7be 7d5e 88be 2b4c c0bb 26bf 83be
000000f0: e84e f83e 2534 87be b541 e53e e029 043f
0.47753406 -0.49020815 -0.39584655 0.5991862 0.03949744 -0.45561692 -0.33780146 -0.3927069
-0.427698 -0.2055761 0.48097152 -0.18719427 0.2912687 0.2021837 -0.37647024 -0.43000385
0.4167203 -0.29137033 0.42128354 0.56930053 -0.10542878 0.38564637 0.12723322 -0.24516964
0.039293464 -0.49076292 -0.49566785 -0.09781757 -0.05209749 0.3320606 -0.040118515 -0.1379548
0.5886895 0.41337356 0.14657597 -0.2012561 0.5431886 0.57559025 -0.40196514 -0.011722391
-0.32387754 -0.046342403 0.22944732 0.34374067 0.45487565 0.04767846 -0.26438707 -0.0084683485
0.30795905 0.58081234 -0.011288445 0.36834952 -0.06893014 -0.5117859 -0.54789716 -0.32232657
-0.45122975 -0.2663459 -0.005868455 -0.25731772 0.484977 -0.2640697 0.44776693 0.51626396

encoder.layers.0.self_attn.linears.3.bias f4 [8]
00000000: d297 ed3c e140 a6bd c720 88bc fbda 4bbe
00000010: ccab e53b 17ba 833d c821 afbd 8e51 7fbc
0.029003058 -0.081178434 -0.016617192 -0.19907753 0.007009005 0.06431978 -0.08551365 -0.015583409

encoder.layers.0.feed_forward.w1.weight f4 [200, 8]
00000000: 08eb d8bc 5fb2 94bd 2f5a 2d3e 55e0 c6bc
00000010: 9464 6ebd 22e1 ecbc 5afd 94bd 8be2 87bd
00000020: 4450 f33d 7ed6 de3d bea7 afbd 72ed 40bd
00000030: c871 a03d 315b e5bd 4c18 0dbd ff98 05bc
00000040: aa53 04bd 208f 15be fdf2 a03d c88e 53bc
00000050: ff86 1abe 8358 f83c e957 b8bc 08c0 ffbd
00000060: b67a 263e bd64 a43c 13cf e03d d906 8c3d
00000070: f359 52bd 0d21 dc3d 50f6 9abd 3a24 a2bd
00000080: ad84 073e 1d39 a13d 344b 21bd dfc1 6a3d
00000090: 830e a43d f0d7 6cbd 30ad 06be f0e8 0dbe
000000a0: ec7d 9d3d f2fd 0a3e c6a4 1fbe bc5f f6bc
000000b0: c037 3ebd 4042 903d 6665 273c 06fd a93d
000000c0: 6182 1cbd 29de a33d bedf 683d 9cbd 6c3d
000000d0: cab3 88bd 31ac 2bbe 5b7e c4bc 6df5 e03d
000000e0: f842 eebc 4f5c a6bb 8abf d13c 7b88 c53d
000000f0: 7256 043d f228 da3d a9d5 1dbe fa82 0e3e
00000100: 9ca3 f93c f64c 6b3d c67e af3d cd94 e53d
00000110: 29ef e43c e28c f2bd ef03 0bbe 3a00 d63d
00000120: 4c90 a63a 2867 fdbd 2a19 cd3d 6f18 5dbd
00000130: 7596 013e 1ad3 f8bd be12 debd 2dfd ccbd
00000140: 9984 c33b fc29 143d 3427 2abd bc02 073e
00000150: fb22 2bbe 93e0 2cbe 1bf0 e0bd 017b 5a3d
00000160: 50a8 84bc 1fdf 2dbe 0fe1 1a3e f577 20bb
00000170: 9a9d 4ebd 2213 66bd e0d4 1dbe 438a d6bd
00000180: 5e78 bebd b0b6 d53c ca62 cebc dabf 93bd
00000190: 0c46 59bd 633b b5bd b508 3fba 07f5 4c3d
000001a0: 195a 5f3d 25ea 1cbe c025 18be a527 d8bd
000001b0: f6d4 96bc 8cab 16bd f218 083e 0f70 593c
000001c0: f67c f6bd b41d 04bd 71e2 fe3d 80b3 bc3d
000001d0: 795e 76bd 1613 2b3e 39ba 393d 16f9 21be
000001e0: b997 6abd 8aa7 aabd b76f f9bd 2ea3 013d
000001f0: a91a 623d 1d16 46bd a62b 0c3e 8321 8b3d
00000200: d82c 28bd 3aca 27be 6dd7 e5bd 65b1 2cbc
00000210: d26b 8fbd a420 a83c da68 11be bf22 433d
00000220: ea52 1bbc 8f8b 9e3d 116e 0ebe 882b 87bd
00000230: 5aeb 973d 0341 c03c f1a8 0a3e faf4 0fbe
00000240: 6020 5f3d 12df 24bd 4a9c ee3d c1cf 183e
00000250: c9f5 06be 99ba 23bd dc3a 8fbc 18ff c23d
00000260: 3f98 b9bd f663 4137 e3c5 0ebe d5f0 16bc
00000270: b6c6 8ebd 2858 27bb 2485 9e3c 52c1 c7bd
00000280: 8e21 69bc 238d b2bd 110f 05be 056b a53d
00000290: 6684 8fbc f465 573d 437f d9bc f082 8cbd
000002a0: e301 11be e627 f83d de6d 9dbb c972 b0bd
000002b0: 6d62 e9bc 2d39 e13d 2181 143c 8ce1 19be
000002c0: 5383 86bd 3ef1 e63c 69d4 49bd 02cc f4bd
000002d0: cb00 03be cef8 8b3b b449 2cbe 5fd4 ad3d
000002e0: fd4e a03d 9d82 193e 98cb 043e b33e acbd
000002f0: 58ce 983c 2dee a93a f83b 263e b076 e33d
00000300: c867 71bd 7e61 41bd 573d 873d 177c a8bd
00000310: 700e 7b3d db08 6ebd 35da 0e3e 6993 283e
00000320: 75ac fabd 2e05 963d 1f39 a53d d94e 71bd
00000330: e74a 7cbd 4427 d53d e09f bd3d 1c27 00be
00000340: 9023 b7bd b952 e43d 89fa 78bd b0dc 12be
00000350: 66c4 093e 130c 113e 3d26 673b c37e b63c
00000360: 5bd5 833d 0472 0bbd af56 abbc 8277 1d3e
00000370: 3fe5 5dbc 9165 053e 1ffc b13d c8e1 1c3d
00000380: fe27 83bd 9756 e73c 7e59 8cbd 15cd babc
00000390: 87e7 1fbe aaa4 053e 277f 11bd 97af 14be
000003a0: 33ff 13be e0ea 763c 06dc 133e 7d3c a73d
000003b0: 20d4 16bd b693 9bbd 05c4 29bd 1352 72bd
000003c0: e363 f6bc 52d4 3abc 3d4b af3c d875 ec3d
000003d0: 31d3 eebd a200 193e 093e 0e3e 3042 a4bd
000003e0: cf2e dcbd 3de4 9d3d cd69 f4bd 8e6d 1d3e
000003f0: 4d2f 533d 34d7 8abd 49fa 043e 7ed2 233e
-0.02647926 -0.07260584 0.16928934 -0.024276892 -0.058201388 -0.028915945 -0.072748855 -0.066350065
0.11880544 0.10880755 -0.08576916 -0.047101445 0.07834202 -0.11199034 -0.034447 -0.008154153
-0.03230635 -0.14605379 0.07858846 -0.01291246 -0.1509056 0.030315643 -0.022502856 -0.12487799
0.16257748 0.020067567 0.10976996 0.068372436 -0.051355314 0.107484914 -0.07566512 -0.07917066
0.13234206 0.078722216 -0.03937836 0.057313796 0.080105804 -0.05782312 -0.13152003 -0.1385839
0.07690033 0.13573435 -0.155902 -0.030074947 -0.046439886 0.07043886 0.010217046 0.083002135
-0.038210277 0.08001358 0.056854002 0.057798013 -0.06674917 -0.16764905 -0.023986032 0.10984311
-0.029084668 -0.005076922 0.025604028 0.09645172 0.032309003 0.10652341 -0.15413536 0.13917151
0.030473523 0.057446443 0.08569102 0.11210022 0.027946072 -0.118432775 -0.1357572 0.10449262
0.0012707799 -0.12373191 0.10014565 -0.05397838 0.12655051 -0.121496394 -0.108434185 -0.10009227
0.0059667346 0.036172852 -0.041541293 0.13184637 -0.16712563 -0.16882543 -0.109832965 0.053339962
-0.016193539 -0.16979645 0.15124916 -0.0024485562 -0.05044327 -0.05617059 -0.15413237 -0.1047559
-0.09300302 0.026088089 -0.02519359 -0.07214327 -0.053045318 -0.08849218 -0.0007287369 0.050038364
0.054529283 -0.15323694 -0.1485815 -0.105544366 -0.018412095 -0.036784694 0.13290766 0.013271346
-0.12035553 -0.03225489 0.12445534 0.092139244 -0.06014869 0.167065 0.04534361 -0.15817675
-0.0572736 -0.08332737 -0.12179511 0.03164976 0.055201206 -0.048360933 0.13688526 0.06793501
-0.04105839 -0.16385737 -0.1122273 -0.010540341 -0.07002987 0.020523377 -0.14200154 0.04764056
-0.0094802175 0.077414624 -0.13909175 -0.066001 0.074179366 0.0234685 0.13541009 -0.14058295
0.054474235 -0.0402518 0.116509035 0.14923002 -0.13179697 -0.039972875 -0.017484121 0.095213115
-0.09062242 1.152697e-05 -0.13942675 -0.009212692 -0.06971495 -0.0025534723 0.019350596 -0.0975367
-0.0142291915 -0.08718326 -0.12994029 0.08077053 -0.017519187 0.052587464 -0.02654994 -0.06860912
-0.14160876 0.12116985 -0.004804357 -0.086156435 -0.028489316 0.109972335 0.00906399 -0.15027446
-0.06568017 0.028191205 -0.049274836 -0.11952974 -0.12793271 0.004271603 -0.1682499 0.08487772
0.07827566 0.14991231 0.1296829 -0.084103964 0.01865308 0.0012964659 0.16233814 0.11106622
-0.058936864 -0.047212116 0.066034965 -0.08226793 0.061293066 -0.058113914 0.13950427 0.16462483
-0.12239925 0.07325207 0.080675356 -0.058913086 -0.06159487 0.1040788 0.09259009 -0.12514919
-0.0894233 0.111485906 -0.060785804 -0.14341998 0.13453826 0.14164762 0.0035270595 0.022277242
0.06437179 -0.03404428 -0.020915357 0.1537762 -0.013543426 0.13027026 0.086906664 0.03830126
-0.06404112 0.028239531 -0.06853007 -0.022802869 -0.15615664 0.13051096 -0.035521653 -0.14520107
-0.1445282 0.015070647 0.14439401 0.08165834 -0.036823392 -0.07596533 -0.041446704 -0.059160303
-0.030076927 -0.01140316 0.021398181 0.115459144 -0.11661375 0.14941648 0.13890852 -0.08020437
-0.107511155 0.077095486 -0.119342424 0.15373823 0.05155878 -0.06779328 0.12986101 0.15998265

encoder.layers.0.feed_forward.w1.bias f4 [200]
00000000: fa5a 88bb bb44 10be c621 7a3e 9cec afbe
00000010: 71dc 5ebe 11df 36be 493c b2be e683 953e
00000020: 38d7 bdbd 765b 1a3e 49ec 403c 58d5 36bd
00000030: 8558 1fbe 803a 233e c23f a63e c125 863e
00000040: 4019 663d 0dca 003e 132d 9d3e 14b5 1c3e
00000050: 13d7 313e 8dbd 95be 9d68 04bb 673a 963e
00000060: f5b2 fe3d 02d8 4ebe 3a9f b33c 0734 853e
00000070: 942e b43d e835 26bd b523 a5be 6594 223e
00000080: 3a2c d93d 2f02 31be 20b9 943d ba5a ccbd
00000090: 15ad 5f3e 8bfe 92bd 24e7 e63d 8c4d 7a3e
000000a0: c27c aa3e 4c92 e0bd 8172 3bbe 1a07 98be
000000b0: 2971 743d 3898 dfbc 73f0 833e b571 713e
000000c0: fb15 2a3e 5c62 973d ddea 41be 557a 403e
000000d0: d063 793e ca53 14bc 0d5a 9c3e 08c8 273e
000000e0: 6cf3 df3d de20 c2bc 072b a13d afe1 a3be
000000f0: 941e 033e 876f f13d cdc5 3bbe 698c 1e3e
00000100: 08e6 2a3e e57d d93d a429 613c 328f 7b3e
00000110: c9f2 163e 5ca2 11be 83b1 15be 0e7c 593c
00000120: 825f 61be 1357 8c3e 5be7 203e 7752 0e3e
00000130: d16e eabd 95ea f3bd a4c8 a33c 3687 97be
00000140: 3739 a8be 77f9 a43d 1947 863e 2e4d 9e3e
00000150: 8865 c9bd ac72 95be 6cd8 3f3e 5210 b4bd
00000160: 50d1 2d3d 7357 573e cd7f dfbd 1fc3 5c3e
00000170: 3bf1 6cbe aa7c 90be a4c2 c6bd df9d 47bd
00000180: 7b88 8ebe a2ce 41be f65b ccbd d57c 4bbe
00000190: e9a9 65be 6513 3e3e a67f 13be 99a1 893d
000001a0: b76d 093e a644 69be e823 a1be 1df9 1d3e
000001b0: dca6 c5bd 9e60 9cbe 8563 823e 681f a83b
000001c0: 9caf 783e dbf6 963e 95a7 c5bb baac a4be
000001d0: 82c2 4b3c 4e77 123c ddf6 d6bc b30c b13e
000001e0: 87cc a73e a717 b23e a9f7 35be 219c 2dbe
000001f0: 9f85 53be c7da 86be ee76 afbc b564 edbc
00000200: eb5d ae3e d5fd 9dbd d40e ebbd c6db 99be
00000210: 384e f23d 5118 b53d 00c3 9abe a773 11be
00000220: c599 873e 3b00 c7bd 63b4 58bc b5db 513e
00000230: 33e8 d23d a7e0 813e 5eb8 a3be 3b60 48be
00000240: 7bdb 2a3e 2f1e acbe dc8e af3e ea73 39be
00000250: 4d02 883e 962d 81be 9b34 9ebe 58b6 0ebe
00000260: 0e3f dbbd 0175 373e dc42 f4bd 0f8a a9be
00000270: 1f23 9a3e 4b78 a63e d712 bf3d 76a9 77be
00000280: e3f1 95be 2584 a03e d73d 473e 4681 14be
00000290: 23fa 4cbc 4c14 2f3e bd5c da3d e1b1 a0be
000002a0: 4563 933e 2db1 743e 24e4 afbd 7e63 263d
000002b0: bce0 41bd 3999 e53d 3e27 94be 21f4 0dbe
000002c0: 06ab fa39 9e1e 75be 4f57 7ebd 8261 a3be
000002d0: 6890 563d 3f63 afbe 6d1a b0be 6d2b ab3e
000002e0: 2f0c 493e 5f91 47be a986 22bc b2ef 7ebe
000002f0: c6a2 b63d d30a 8bbe 5029 7abd 9f0e 9e3e
00000300: a527 773e bb0b ae3d c680 38be 7e1b 423e
00000310: 14cf d43d 8998 4abe c525 603d ae7a 4e3e
-0.004161236 -0.14088719 0.24426946 -0.34360206 -0.21763779 -0.1785853 -0.3481162 0.29202193
-0.09269565 0.15073952 0.011775085 -0.044637054 -0.15561111 0.15940285 0.32470518 0.2620068
0.056176424 0.12577076 0.3069845 0.15303451 0.173672 -0.29246178 -0.0020203956 0.29341432
0.12436477 -0.20199588 0.021926511 0.26016256 0.087979466 -0.040578753 -0.32253805 0.1587692
0.10604139 -0.17285989 0.07261872 -0.09978242 0.2184337 -0.071774565 0.11274555 0.24443644
0.33298308 -0.10965404 -0.18305399 -0.29692918 0.05967823 -0.027294263 0.25769386 0.23578532
0.16609947 0.073918074 -0.1893725 0.18796666 0.24354482 -0.00905318 0.30537453 0.163849
0.10935101 -0.023697313 0.07869535 -0.3200812 0.12804633 0.1178885 -0.18337174 0.1548325
0.16689312 0.106197156 0.013742838 0.24566343 0.14741053 -0.14222091 -0.14618497 0.013274206
-0.2200909 0.27410182 0.15713255 0.13898645 -0.11446918 -0.11909977 0.019993134 -0.29595345
-0.3285615 0.08055394 0.26226118 0.30918258 -0.09833819 -0.2918905 0.18734902 -0.08792175
0.042435944 0.21029453 -0.10913048 0.21558808 -0.23138897 -0.2822011 -0.097050935 -0.048734542
-0.278385 -0.1892648 -0.09978478 -0.19871838 -0.22428097 0.18562086 -0.14404163 0.067202754
0.13420759 -0.22780094 -0.31472707 0.1542706 -0.096509665 -0.30542463 0.25466552 0.005130697
0.2428574 0.2948521 -0.00603194 -0.3216303 0.012436511 0.008939577 -0.02624076 0.3458
0.3277323 0.3478367 -0.17770256 -0.1695409 -0.20656441 -0.2633879 -0.021419015 -0.028978685
0.3405603 -0.0771443 -0.114774376 -0.30050486 0.11831325 0.088425286 -0.30226898 -0.14204274
0.26484504 -0.09716841 -0.013226601 0.20493968 0.10298195 0.2536671 -0.31976599 -0.19567959
0.16685288 -0.33616778 0.3428868 -0.18110624 0.26564255 -0.25230092 -0.3089951 -0.13936746
-0.10705386 0.17915727 -0.11926815 -0.33113143 0.3010492 0.3251365 0.09329765 -0.24185738
-0.29286107 0.31350818 0.19457184 -0.14502439 -0.012510809 0.17097586 0.1066222 -0.3138571
0.28786674 0.23895712 -0.08588436 0.040622227 -0.047333464 0.112108655 -0.2893619 -0.13862659
0.00047811138 -0.23937461 -0.062094983 -0.3191033 0.05238381 -0.34255406 -0.3439516 0.3343157
0.19633554 -0.19489048 -0.009919801 -0.24896124 0.08917765 -0.27156696 -0.061074555 0.3087053
0.24136217 0.08498331 -0.18017873 0.189558 0.103910595 -0.1978475 0.05472352 0.20163986

encoder.layers.0.feed_forward.w2.weight f4 [8, 200]
00000000: 958d 6abd cfb6 0e3e 70e0 943d a791 073e
00000010: 97a7 f1bd 1aee 73bd 1e8f 323d 9065 823d
00000020: a3ea a2bc ed49 59bd bf3a 283e 01ac 15be
00000030: 690c 02bd 56c7 843c 6d2c 08bd c972 16be
00000040: ffc9 9ebd 82c5 473d 9dcc a33d 7938 0b3e
00000050: cef9 af3d cb60 05be 7bee 8b3d 35b5 bcbd
00000060: beae d2bc 6a1d c53d 68d9 0cbe a423 0f3e
00000070: c3ff 353d 2bd5 0a3e 5354 853b c38d 2dbe
00000080: c4a8 3dbd e267 813d 0518 cc3d 9cc0 a13d
00000090: 78e7 a83d 279b 0cbe b4dd 513a a55b 4dbd
000000a0: cbad b93c fa96 093d 86bb 0b3d 5d2d 98bc
000000b0: 54cd b23d 0583 c03c b09c ddbb 4550 083e
000000c0: 9b36 373c 8101 ba3d 3849 173e 4d52 79bd
000000d0: 73ac f8bd b73a 8cbd 522b e33d 213d 9dbd
000000e0: a20d 4ebd 156b 39bd b632 0bbe b47b 49bd
000000f0: c925 583b 95c9 07be 77b9 013e 7a4a cabc
00000100: df14 d5bd 6e13 ee3b 6514 bd3d 39a0 a4bd
00000110: 9a9b a73c 3e0d d03c 97b0 dc3d 3ea1 a1bd
00000120: ee21 1bbe fa13 a93c 08a0 023e 9f72 9dbd
00000130: 017c ecbc 4c6f 18be abc0 d63d 0a75 123d
00000140: 9e53 a43d 341f 43bd 37b1 00be 4bfb f33d
00000150: f4bc 013e ad12 243e 4fe9 cf3d 2960 20bd
00000160: 603f 763d f9a0 78bd 8bbe 99bd d264 15be
00000170: 70bb 583d 3082 e8bd de57 163d aec7 0a3e
00000180: 6894 a13d f7ba 2fbe 57b3 093d f18e 1dbe
00000190: 8054 2a3d 8a0a aebd 018e 8a3d 5883 e8bc
000001a0: f6b7 22be e43f 22be a39c b2bd 632e 02be
000001b0: beb5 743d ecbf ee3d 97ac c93d 515b 213c
000001c0: 53a5 0ebe 40b0 a53c 111c c43d 7c71 233e
000001d0: f6fc 1dbd c4c3 00bd 0f6f b53d 8396 0b3e
000001e0: d662 08be a690 233e cf33 24be b275 c63c
000001f0: 8ee5 903c 5d2d 373d 6e17 113e 4f5c 183e
00000200: 7bf7 873b d75e 013e e459 873d 659b 143e
00000210: af40 29be 6632 aebd ff35 fbbc 67ac 13bd
00000220: 9182 e1bc bd7d 113e 86bb adbc 0311 bcbd
00000230: fa8a aa3d 3d0a a1bc 20fe ee3d bd53 29bd
00000240: 32ab fdbd 1390 3abc ccfa 203e afd5 573d
00000250: 6629 e7bd d52a 20be 78b5 23be 42fa b23d
00000260: 92ec 21be fc19 96bd 1c1c e1bd 22ac e5bd
00000270: d182 c23d a36e 3ebc 65ce ef3d c528 f7bd
00000280: 8cbc c3bd 7034 293d af4d 86bd 63ce ce3d
00000290: a8d6 3dbd 4f17 73bd e09b dbbd c9bc dcbd
000002a0: e45e 093e 62e1 d6bd 3d7d d53d 6370 20bd
000002b0: 579e 9b3c 222a 8d3b 6a50 db3c 6842 863d
000002c0: e475 423b c00f 523d aeda 3e3d fef1 c3bc
000002d0: 7dde c33d 611b abbd 2d07 533c 5baa 0f3c
000002e0: f688 ff3d 0381 12bd a83e 3e3d e3e6 1a3e
000002f0: d96f 19bd a514 933b d0d6 bcbd 679f e4bd
00000300: e1d6 503d e0b7 9f3d 8efb 79bd 6ee5 63bd
00000310: 4c29 2f3d 8ab0 943d ea55 2ebe 2ea5 f53d
00000320: 431a 39bc 2968 283e b673 fcbd 7830 2ebd
00000330: b527 bdbd fd1c bfbd 38d6 14be 2693 2abe
00000340: 021d b43d 8b52 debc fa53 0fbe de02 b2bd
00000350: 5dea 04bd c86d 10bc 7968 123e fc5c 9b3d
00000360: 3e9f 24be b5af 9bbb 2b3c a3bd c287 043e
00000370: 36bd 94bd a76a ab3c fa13 b0bb 2be1 b4bd
00000380: 493f 0c3e 95d3 d0ba 30f8 71bd a1ae 10be
00000390: c1f7 e43d 2a08 203e e860 22be ab85 c3bd
000003a0: d084 94bd 57ad 24bd 9fa9 d63d 49dc d93c
000003b0: b1cb 053e e5c0 ccbd 85a4 1dbe fe41 c7bb
000003c0: 7d36 02be e8bc 2abe 9d09 0ebe 3c7a 84bb
000003d0: 806a 16be dc51 d43d ef2c 703d 59c9 a13c
000003e0: ce78 243e bad1 153e dc5b 63bc 3708 69bd
000003f0: b177 f0bc 3b94 4f3d e842 a63c d2b4 ecbc
-0.05726393 0.13936923 0.072693706 0.13239156 -0.11799543 -0.059553243 0.04359352 0.06367028
-0.019887274 -0.053049017 0.1642866 -0.14616396 -0.031750116 0.016208332 -0.033245493 -0.14692225
-0.077533714 0.048772343 0.07998011 0.13595761 0.08592568 -0.13025205 0.06832596 -0.0921425
-0.02571809 0.09624751 -0.13754809 0.1397844 0.044433367 0.1355788 0.00406889 -0.16948609
-0.046303526 0.06318642 0.09965519 0.078980654 0.08247274 -0.13731061 0.00080057536 -0.050136227
0.022665879 0.033591248 0.034114383 -0.018576318 0.087305695 0.023499975 -0.0067630634 0.1331187
0.011182453 0.09082318 0.14774024 -0.060869504 -0.12142267 -0.068471365 0.11092247 -0.07677675
-0.05030597 -0.045268137 -0.13593563 -0.049190238 0.0032981506 -0.13260491 0.12668405 -0.024693716
-0.104043715 0.0072655 0.092324056 -0.080383725 0.020459939 0.02539694 0.10775869 -0.07892083
-0.15149662 0.020639408 0.1275636 -0.07687878 -0.028867723 -0.14886206 0.10485967 0.03575615
0.08023761 -0.04763718 -0.12567602 0.11913165 0.12669736 0.16022749 0.10151922 -0.039154205
0.060119033 -0.06070039 -0.07507046 -0.14589241 0.05291313 -0.11352956 0.03670489 0.13552734
0.07889634 -0.17161165 0.033618297 -0.15386559 0.04158449 -0.08498104 0.06765366 -0.028382942
-0.15890488 -0.15844685 -0.08721282 -0.12713008 0.059743635 0.116577 0.09847372 0.009848432
-0.13930254 0.020225644 0.09575666 0.1596126 -0.03857132 -0.031436697 0.08859073 0.13631634
-0.13318953 0.15973148 -0.16035388 0.024226043 0.017687585 0.044720996 0.14169094 0.14878963
0.004149375 0.12633835 0.06608942 0.14512403 -0.16528581 -0.085057065 -0.030665396 -0.036053088
-0.02752808 0.14208122 -0.021207582 -0.09182932 0.08327289 -0.019658202 0.11669564 -0.041339625
-0.123861685 -0.011386889 0.15720671 0.05269402 -0.11287193 -0.15641339 -0.15987194 0.08739139
-0.158129 -0.07329175 -0.109916896 -0.11214472 0.094976075 -0.011623058 0.117092885 -0.12068323
-0.09557447 0.041309774 -0.06557786 0.10097959 -0.04634729 -0.0593484 -0.1072309 -0.107781954
0.13415104 -0.10492207 0.10424278 -0.03916968 0.0189964 0.004308001 0.026771743 0.06555635
0.002967232 0.05128455 0.046595268 -0.023919102 0.09563921 -0.083548315 0.012880129 0.008768643
0.12477295 -0.035767566 0.046446472 0.15127139 -0.03746018 0.004488545 -0.0922066 -0.11163216
0.050986174 0.07798743 -0.061030917 -0.055638723 0.042763993 0.07260235 -0.17024961 0.11994396
-0.011297765 0.16445984 -0.123267576 -0.042526692 -0.09236089 -0.09331701 -0.14534843 -0.16657695
0.08794595 -0.027138969 -0.13996878 -0.08691953 -0.03245007 -0.008815236 0.14297666 0.07586095
-0.16076371 -0.0047511705 -0.079704605 0.12942412 -0.072626516 0.02092488 -0.005373475 -0.0883201
0.13696016 -0.0015932197 -0.05907458 -0.14129116 0.11180068 0.15628114 -0.1585728 -0.095469795
-0.072518945 -0.040204372 0.104815714 0.026594298 0.13065983 -0.09997729 -0.1539479 -0.006080865
-0.12716098 -0.16673625 -0.13870855 -0.004042892 -0.14689064 0.10367176 0.058636602 0.01974933
0.16061708 0.14630786 -0.013876881 -0.0568926 -0.029353948 0.050678473 0.020295575 -0.028894816

encoder.layers.0.feed_forward.w2.bias f4 [8]
00000000: e264 8dbd 36f4 7b3d c1da 2fbd dee2 20bd
00000010: e8ef f43c 9b38 243d d84c 58bd 0609 febc
-0.069040075 0.061512195 -0.04293323 -0.039278857 0.029899552 0.040093046 -0.05280766 -0.031010162

encoder.layers.0.sublayers.0.norm.a2 f4 [8]
00000000: 954f 803f afc0 7e3f 99c5 7f3f d12c 803f
00000010: cd05 803f 0f0a 803f 682d 803f 0308 7f3f
1.0024287 0.9951276 0.99910885 1.0013677 1.000177 1.000307 1.0013857 0.996216

encoder.layers.0.sublayers.0.norm.b2 f4 [8]
00000000: 37a7 a1bb 152b d13b 72ca 11bb 354c 523c
00000010: fb30 14bb 143a c13a 6ec7 06bb ee81 2fbb
-0.0049332636 0.0063833096 -0.002224591 0.012835552 -0.0022612202 0.001474204 -0.0020565647 -0.0026780325

encoder.layers.0.sublayers.1.norm.a2 f4 [8]
00000000: d8f4 7f3f 2f00 803f 2ef2 7f3f a70c 803f
00000010: fc02 803f 6906 803f 2b0e 803f fb12 803f
0.99982977 1.0000056 0.9997891 1.0003861 1.0000911 1.0001956 1.0004324 1.0005792

encoder.layers.0.sublayers.1.norm.b2 f4 [8]
00000000: caf5 39ba d5db 173a 4402 b8ba 2c24 023a
00000010: ab2a 89b8 5722 e8b9 e887 76ba bcc3 923a
-0.00070938154 0.00057929504 -0.0014038761 0.00049644965 -6.5406166e-05 -0.00044276073 -0.0009404407 0.0011197249

encoder.norm.a2 f4 [8]
00000000: 5889 9b40 0bd2 8140 fafe 7f3f ea12 7d3f
00000010: 0a7e a53f c9a7 803f 8eda f73f 99ba 053f
4.8605156 4.05689 0.9999844 0.98856986 1.2929089 1.0051204 1.9363573 0.5223785

encoder.norm.b2 f4 [8]
00000000: e7a3 81c0 7083 50c0 3f60 7c3d 3b4c fbbc
00000010: f578 743f a504 d8bb 7792 c93f 90d7 34bf
-4.0512576 -3.2580223 0.061615225 -0.030675998 0.95497066 -0.0065923505 1.5747823 -0.7064142

decoder.linears.0.self_attn.linears.0.weight f4 [8, 8]
00000000: 708d 03bd 8f06 013f c64f b73e 6027 593d
00000010: 0e61 e83e 37ca 04bf 94b0 bc3e 406d 03bd
00000020: eb94 18bf 28b4 3bbe 96e9 89be 6aa6 15bf
00000030: 609b 743e 58c1 a1bd 2034 d2be a53f 16bf
00000040: 6b87 b9be 98e0 8ebd 92ee 1fbe cc6a f4bd
00000050: f660 893e b0ad 133e 553b 0cbf e8fa d1bd
00000060: 3a2e c7be d456 413e 1002 c63d c5b5 1b3f
00000070: 8c6a 443e 89ca 083f 6d4b 103f 2a7b fe3e
00000080: 60fa 23bd 5c65 553e df48 91be 38a9 9b3e
00000090: 04ef 793e 714c afbe db32 12bf 8d3a 9abe
000000a0: fff8 aabe 88b2 853d d8da 03bf 08a4 d9bd
000000b0: 16a9 fb3e b273 10be 9ca8 d6be 883b debd
000000c0: 0e4c 37be fca5 04be 000c 3eba acc4 b8be
000000d0: 2e32 fdbe 022e 973e 7e56 983e 85c3 033f
000000e0: a034 a0bd 8ede 983e 8867 ba3d e0d4 b3bc
000000f0: 003a 26bd 9844 9f3d 009b 6f3d f295 3fbe
-0.032117307 0.5040063 0.3580305 0.053016067 0.45386547 -0.51871055 0.36853468 -0.03208661
-0.5960223 -0.18330443 -0.26936024 -0.5845705 0.23887396 -0.078982055 -0.41055393 -0.58690864
-0.36236128 -0.069764316 -0.15618351 -0.119344324 0.26831788 0.14421725 -0.54778033 -0.10252935
-0.38902456 0.18880779 0.09668362 0.60824233 0.1918127 0.53434044 0.5636509 0.49703342
-0.040033698 0.20839447 -0.2837591 0.3040254 0.24407583 -0.34238008 -0.5710885 -0.30122796
-0.33393094 0.06528193 -0.51505804 -0.106269896 0.4915244 -0.14106634 -0.41925514 -0.108511984
-0.17900106 -0.12953943 -0.0007249713 -0.3608755 -0.49452347 0.2952729 0.29753488 0.51470214
-0.078225374 0.29857296 0.09101778 -0.021952093 -0.040582657 0.07776755 0.05849743 -0.18709543

decoder.linears.0.self_attn.linears.0.bias f4 [8]
00000000: 6860 3c3d c821 a5bd 8088 b7bc cf6e 50be
00000010: c0f0 ce3b f8bd 813d 9cdf b7bd 2074 62bc
0.045990378 -0.08063084 -0.022403955 -0.2035477 0.0063153207 0.06335062 -0.08978197 -0.013821632

decoder.linears.0.self_attn.linears.1.weight f4 [8, 8]
00000000: 3006 223d c8e6 ae3e d6fb b43e e094 b9bc
00000010: f2ec eb3e 4039 dcbe fa48 de3e e2db 15bf
00000020: 3070 503e d361 1b3f 70ee 993e 0018 43ba
00000030: 70a0 22bd 77ec 97be 6eab 35be 383c 68be
00000040: 1154 193f 00fa 993c ff73 dabe 787c 313e
00000050: e064 ce3c cfb0 13bf 9ad3 04bf 20bb 7dbd
00000060: ac4d f0be 7417 563e c086 77be f0f2 a7be
00000070: 20fb 92bc 65e6 0f3f 40b6 10bd 8819 29be
00000080: c67d aa3e 00f3 4fbd 0c5a 0b3e e644 9d3e
00000090: dc2d 11bf 5ff7 1b3f 68f6 223e e823 723e
000000a0: e8b1 a7bd 3edf 1dbe deea 0dbf 80d3 2fbe
000000b0: bee2 b43e 60ee 283d 76d8 50be da56 6bbe
000000c0: fb99 023f aa2c df3e d43f 1bbf ca04 df3e
000000d0: c9a3 143f 0896 c4be 11d9 013f 86be d63e
000000e0: e832 d9bd 0feb 05bf 986e ab3e d8dd 13bf
000000f0: 009a cdbb 0484 6c3e 6043 06bf 2a36 bcbe
0.039556682 0.34160447 0.35348386 -0.022653997 0.46079212 -0.43012428 0.43415052 -0.5853864
0.20355296 0.6069614 0.30064726 -0.0007442236 -0.039703786 -0.29672596 -0.17741176 -0.22679222
0.598939 0.018795967 -0.42666623 0.17332637 0.025194585 -0.57691664 -0.5188538 -0.061946034
-0.4693426 0.20907384 -0.24172497 -0.32802534 -0.017942011 0.5621093 -0.035330057 -0.16513646
0.33299083 -0.050768852 0.13608569 0.30716628 -0.567106 0.60924333 0.15914309 0.2364651
-0.0818823 -0.15417191 -0.55436504 -0.17170525 0.3532924 0.041242957 -0.20395073 -0.2298235
0.51016206 0.43588763 -0.6064427 0.4355834 0.58062416 -0.38395715 0.5072184 0.41942233
-0.10605413 -0.52311796 0.33482814 -0.5776038 -0.0062744617 0.23097235 -0.52446556 -0.36760074

decoder.linears.0.self_attn.linears.1.bias f4 [8]
00000000: 6860 3c3d c821 a5bd 8088 b7bc cf6e 50be
00000010: c0f0 ce3b f8bd 813d 9cdf b7bd 2074 62bc
0.045990378 -0.08063084 -0.022403955 -0.2035477 0.0063153207 0.06335062 -0.08978197 -0.013821632

decoder.linears.0.self_attn.linears.2.weight f4 [8, 8]
00000000: 3b04 2c3f 5c0f 513d 806d d03d 3f7d ae3e
00000010: addc 643e 2b16 093f 2958 04be decb 963e
00000020: 90b2 3dbe 548b 1c3f 0e78 d43e d794 eb3e
00000030: c349 81be 4ef8 793d 2d96 44be 3253 8c3e
00000040: 5dc0 b63e 18c4 833e 44d1 323e 3d9b e2bd
00000050: 4a8b a1bc ed00 4ebd c14f efbe 0942 76be
00000060: 9678 2bbf 1c4f 79bf 1d25 04be 23c2 e53c
00000070: 6e07 c4bd dc6a e13d f3ba 013f 9283 8dbd
00000080: 2d71 3cbf 6bcb e5be 90b2 96be db47 ecbe
00000090: fde6 fcbe 8d76 083e 4949 923e 9540 febe
000000a0: 975f dfbe 0a3e bd3e c341 04bf 6fab 0abe
000000b0: 507a d43e 3348 5abe d4bf 423f e7fd ca3e
000000c0: 0c0a 4a3f 5e16 0c3f b974 dabe 4973 acbe
000000d0: cbfd 473e eff2 803e a216 f4bd f2c2 4fbf
000000e0: a318 c63c 933b a7be d083 64be 5bc6 6b3e
000000f0: e6ac dc3d b023 82be 685b db3d e1f6 ddbe
0.67193955 0.05104004 0.101771355 0.3407993 0.22349806 0.5354945 -0.12924255 0.29452413
-0.18525147 0.611501 0.41497844 0.46011993 -0.25251588 0.061027817 -0.19197913 0.27407223
0.35693637 0.25735545 0.17462641 -0.110647656 -0.019719739 -0.05029385 -0.46740535 -0.24048628
-0.66980875 -0.97386336 -0.12904783 0.028046673 -0.095717296 0.1100671 0.50675887 -0.06909861
-0.7361019 -0.44881758 -0.29433107 -0.4614857 -0.4939498 0.13326474 0.28571537 -0.49658647
-0.43627617 0.36961395 -0.51662844 -0.13541959 0.41499567 -0.21316604 0.76073956 0.39646837
0.7892158 0.5472163 -0.42667177 -0.33681706 0.19530408 0.25185344 -0.11918379 -0.8115684
0.02418167 -0.3266264 -0.22315907 0.23024885 0.10775165 -0.25417852 0.10710794 -0.43352416

decoder.linears.0.self_attn.linears.2.bias f4 [8]
00000000: b378 1ebc 7320 41be 0e03 b0be 1bf6 973d
00000010: 63a4 953d 1b6b 893d 4e62 a3be ee6b 12be
-0.009672332 -0.18860035 -0.3437733 0.07419988 0.07306745 0.06709882 -0.31910938 -0.14298984

decoder.linears.0.self_attn.linears.3.weight f4 [8, 8]
00000000: 23f1 04be 9654 c6be 6f92 a5be 65f3 793f
00000010: cd18 5a3e bd56 a53e 6de6 77bf 58cc 1abe
00000020: 1287 eebd ad71 a63d 3e1a 3a3f 9acb 63be
00000030: 6fe0 7c3e 4f0a b43e 6729 8e3e 931f 8d3d
00000040: bee6 b2be c2be 72be 17dd 0f3f e9ec 983d
00000050: 189c 9b3d 5369 c2be e9a1 8d3d 9e74 8abe
00000060: fff7 a8bc 1e5d aabd 5137 7d3e 9239 9d3e
00000070: b7b9 0fbe 0574 0abf f9b9 dc3e 1e9a e83e
00000080: 4a15 4bbe e66f b6be 6783 3ebc 24a6 eabe
00000090: e226 ea3e bb28 66bd b6ca 213f 3cdc d6be
000000a0: b260 063f f56d acbe 79ce 013f 7226 92bd
000000b0: 8b3d 203c 2d8a c73e 3955 293f 8920 93be
000000c0: 2a09 3f3f 42be a0be 4d7e bdbd 8ebc 82be
000000d0: 4ead ebbe 4ad8 0dbf 82fe cb3e fcc4 09bf
000000e0: e991 a53e 47d4 a33e 2698 163f a0d3 c3be
000000f0: 1bba 10bf 5c82 83be 73f3 eb3e cfb4 17bf
-0.12982611 -0.3873641 -0.32338282 0.97637016 0.21298523 0.3229274 -0.96835977 -0.15117013
-0.11646856 0.08127151 0.7269629 -0.22245637 0.2469499 0.35164115 0.27765962 0.06890788
-0.34941667 -0.23705581 0.5619673 0.07467062 0.07598132 -0.3797098 0.069156475 -0.27042097
-0.020626066 -0.08318542 0.24728133 0.30707985 -0.14035688 -0.5408328 0.43110636 0.45430082
-0.1983234 -0.35632247 -0.011628008 -0.4582988 0.4573279 -0.056191187 0.6319994 -0.419649
0.52491295 -0.3367764 0.5070568 -0.07136239 0.009780298 0.38972607 0.66145664 -0.2873576
0.7462336 -0.31395155 -0.092526056 -0.2553448 -0.46030658 -0.55408156 0.39842612 -0.538162
0.32337883 0.31997892 0.5882591 -0.38247395 -0.56533974 -0.25685394 0.46084175 -0.59260267

decoder.linears.0.self_attn.linears.3.bias f4 [8]
00000000: 06b9 b83d 20f5 89be eca7 9abb 4dde 33be
00000010: 433b 7e3d 483e 9a3d c28e c8bd 9a2d 9a3c
0.090196654 -0.26944828 -0.004719725 -0.1756527 0.062068235 0.075314105 -0.09792854 0.018820573

decoder.linears.0.src_attn.linears.0.weight f4 [8, 8]
00000000: 1409 a33e 80d2 053c eb9e 10bf 5008 113d
00000010: eaf7 e93e 6025 c23e 810f 043f 2858 a4bd
00000020: 5011 61bd 1a8b ac3e bc61 163e f140 b2be
00000030: c169 0d3f ee17 d4be fc6b 8abe 7daf 9ebe
00000040: d868 ef3d 1ac0 e43e caed 7fbe 5d9b 0e3f
00000050: 9626 d13e 5144 1bbf ca60 09bf b794 11bf
00000060: 715d b8be ba5d f03e 003f 433b 9406 893e
00000070: d2d8 4abe e037 fabc 4221 913e c2b2 e9be
00000080: b8b6 6d3e 883a 513e 6e5d 13bf 247d bc3e
00000090: 2c20 74be 9222 8f3e 4c13 793e 57b2 9dbe
000000a0: 94fb 37be b440 8e3e 7ebc a03e 5008 0cbf
000000b0: 50ad b63e b225 7bbe 8e93 83be 9839 c1be
000000c0: 86da ea3e 7eaa fc3e 004f 5f3b 34f2 58be
000000d0: 4471 7b3e 18fe 603e 50d3 26bd a044 03bd
000000e0: 1794 163f 9c37 8cbe a882 babd 3b58 08bf
000000f0: 1a44 ee3e 8e4f e8be b0eb 95bd 10ec 2abe
0.31842864 0.008167863 -0.5649249 0.035408318 0.45696956 0.3791914 0.5158616 -0.08024627
-0.05494815 0.33699876 0.1468572 -0.3481517 0.5523949 -0.41424507 -0.2703551 -0.30993262
0.11689919 0.44677812 -0.24993053 0.55705816 0.4084975 -0.6065112 -0.53663313 -0.56867546
-0.3600879 0.46946508 0.002979219 0.2676283 -0.19809273 -0.030544221 0.28345686 -0.45644194
0.23214233 0.20432484 -0.5756444 0.36814225 -0.23840398 0.27956063 0.24323767 -0.30800125
-0.17967063 0.2778374 0.31393808 -0.54700184 0.35679102 -0.24526098 -0.25698513 -0.37739253
0.45869845 0.49348825 0.0034074187 -0.21186143 0.24554926 0.21971929 -0.040728867 -0.032047868
0.5881972 -0.27386177 -0.09106952 -0.5325963 0.46536332 -0.45373195 -0.073203444 -0.16691613

decoder.linears.0.src_attn.linears.0.bias f4 [8]
00000000: 6860 3c3d c821 a5bd 8088 b7bc cf6e 50be
00000010: c0f0 ce3b f8bd 813d 9cdf b7bd 2074 62bc
0.045990378 -0.08063084 -0.022403955 -0.2035477 0.0063153207 0.06335062 -0.08978197 -0.013821632

decoder.linears.0.src_attn.linears.1.weight f4 [8, 8]
00000000: 900b c1bd 904b 5e3e 68b2 0cbe d8e4 e4bd
00000010: a883 0e3e 2037 cd3d 0265 d6be d0c5 1a3d
00000020: b8aa f4be 20c7 803e 1a68 c1be 2297 bfbe
00000030: f0d8 0a3d b071 b73e 4ef6 e7be 69bc adbe
00000040: f8b9 d43d d8a5 a3bd 59b1 193f a4db d9be
00000050: 50b2 d83d f604 ccbe c4cb 903e cb66 1c3f
00000060: fcba e3be 86e3 ecbe 32fa 61be b409 efbe
00000070: f6e1 a1be 003c fdba c6e2 b33e 23fe 113f
00000080: 2cde 8c3e 9aa8 05bf 4857 d23d 1eca 993e
00000090: fa65 19bf b001 b63e 9694 19be 5ece a13e
000000a0: 87d0 9dbe f889 663e 1098 a83d 00d4 6a3c
000000b0: 2051 46bd b2ae 7fbe 7404 603e 0006 b33e
000000c0: fa81 fe3e 5abc 50be 0080 bc37 3465 ecbd
000000d0: 8c13 8f3e c001 14bf 02f9 9f3e 681d 53be
000000e0: e600 a7be 50a1 343e 1642 0ebf 4835 92bd
000000f0: c860 67be 80e3 99be 006e 5b3d 26c9 0bbe
-0.094260335 0.21708512 -0.13739932 -0.11176461 0.1391741 0.1002028 -0.41873938 0.037786305
-0.47786498 0.2515192 -0.37774736 -0.37419993 0.033898294 0.35828924 -0.45305103 -0.33932808
0.10387033 -0.079906166 0.60036236 -0.42550385 0.105808854 -0.39847535 0.2828046 0.6109435
-0.44478595 -0.46267337 -0.22068098 -0.4668709 -0.31617707 -0.001932025 0.35133952 0.57028407
0.27513254 -0.5221039 0.10270554 0.30037016 -0.5992123 0.35548162 -0.14998087 0.31602758
-0.30823156 0.22513568 0.082321286 0.014332771 -0.04841721 -0.24968985 0.21876699 0.34965515
0.4970854 -0.2038435 2.2470951e-05 -0.115427405 0.279446 -0.5781517 0.31244665 -0.20616686
-0.32617873 0.17639661 -0.5556959 -0.07139069 -0.22595513 -0.3005638 0.0535717 -0.13650951

decoder.linears.0.src_attn.linears.1.bias f4 [8]
00000000: 6860 3c3d c821 a5bd 8088 b7bc cf6e 50be
00000010: c0f0 ce3b f8bd 813d 9cdf b7bd 2074 62bc
0.045990378 -0.08063084 -0.022403955 -0.2035477 0.0063153207 0.06335062 -0.08978197 -0.013821632

decoder.linears.0.src_attn.linears.2.weight f4 [8, 8]
00000000: 0f1b f8bd 1ea7 453f 0c3a 8f3d 1420 a33e
00000010: 95ef 19bf 61b6 9b3e be89 14bf 252e b43e
00000020: 7d5f d0bf b31c 7dbf b6e4 e9be 2bf0 873b
00000030: b6e1 263f 1ce5 bebe aec1 823f cf51 cbbe
00000040: e383 3d40 2057 0740 18e9 e1be ba4e b13d
00000050: 969b 9fbe a4cc b9bc 1107 a8bf 0743 1e3d
00000060: 58f4 bfbe 33ff 963e 8ac5 843e 23cb d1be
00000070: 7a5a 873d 45d5 bf3e 4292 f1be 3966 233f
00000080: 325f f2bf c31e 69bf c95d 003f f11a a7be
00000090: 992e e43b 87bf b73e aa3b 5d3d 8c4e 62be
000000a0: f9a4 36bf 5c3e 62be d7ac 843e e4e6 963e
000000b0: 848e debe b909 2b3e 9fd3 2c3f 9c72 e43d
000000c0: e15c 90bf 8433 21bf deae f13c 5b7c ba3d
000000d0: 6872 04bf 2172 c2be 04b3 cfbd 4321 a73e
000000e0: 3ec5 9ac0 eacb 8ec0 3d9c debd fc6b 413e
000000f0: aec5 9b3f 8f6c 843d fe3b db3f b75e b6be
-0.12114536 0.77208126 0.069934934 0.3186041 -0.601312 0.30412582 -0.5802268 0.35191455
-1.6279141 -0.98871917 -0.45682305 0.0041485033 0.6518816 -0.37284172 1.0215356 -0.39710853
2.9611747 2.1146927 -0.4412315 0.08657594 -0.3117339 -0.022680588 -1.3127156 0.03863814
-0.37491107 0.29491577 0.2593196 -0.40975294 0.06609054 0.374674 -0.47181898 0.63827854
-1.8935301 -0.91062564 0.50143105 -0.32637742 0.0069635627 0.3588831 0.05401198 -0.22100276
-0.7134548 -0.220941 0.25913116 0.2947303 -0.43468106 0.16702928 0.6751041 0.111546725
-1.1278344 -0.6296923 0.029502328 0.0910575 -0.5173707 -0.37977698 -0.101415664 0.32642564
-4.8365774 -4.462392 -0.10869644 0.18888849 1.2169702 0.064660184 1.7127683 -0.35619137

decoder.linears.0.src_attn.linears.2.bias f4 [8]
00000000: 54d9 acbd f9e1 903e 641a 17bf d324 64bd
00000010: b084 bc3e 41fd 6a3e c571 f5bd 484d af3f
-0.084398896 0.28297403 -0.59024644 -0.05569918 0.36819983 0.22948171 -0.119845904 1.3695459

decoder.linears.0.src_attn.linears.3.weight f4 [8, 8]
00000000: 9c5e 17bf e512 c33f ddb0 09c0 7df6 4bbd
00000010: 3bd3 6c3f bfb7 1d3f b004 033f 0d6b 8240
00000020: a681 f6bd af55 db3f 4fc0 22c0 7844 30bf
00000030: 8a58 c43f abfb b53e ad57 b43f 0f11 8040
00000040: d534 4d3e 6f2c 3f3d 8e39 e93e 81cf febd
00000050: 099a 923e b146 c7be 1f2c 6cbc b351 a6be
00000060: 61c6 133d e5ff 8a3e 3117 9abe 5f1d 7abe
00000070: 68c6 663e a401 e43d e597 213e 62f9 85bf
00000080: 1149 d63e 64ca 0bbf 67a6 f33e e2b1 c3be
00000090: c049 0bbf 087a 453d e1b0 9a3e 014b d5bf
000000a0: 8f72 8e3e 731b cfbe 3aa0 d2be c090 edbd
000000b0: 3550 a4bd c55b 423e 610f 5cbe 060c eabe
000000c0: db80 92bd f79a c0be bc24 cf3f 5bf1 ddbe
000000d0: b8f8 2ebf a913 913e 603f 8c3e 249f 40c0
000000e0: 8cf0 a03e d3ce 0cbf 9fa0 d93f e232 9bbe
000000f0: c5c9 82bf ece6 43bf f38b 81be 2212 45c0
-0.5912874 1.5240141 -2.1514199 -0.049795616 0.9250981 0.616085 0.5117903 4.0755677
-0.12036447 1.7135524 -2.5429876 -0.68854475 1.533952 0.3554357 1.4089257 4.0020823
0.20039685 0.046673235 0.45551723 -0.12441922 0.28633144 -0.3892112 -0.014414816 -0.32484207
0.03607786 0.27148357 -0.3009582 -0.24425267 0.22536623 0.111331254 0.157806 -1.046673
0.4185262 -0.546057 0.47587892 -0.3822165 -0.5440941 0.04821208 0.30213073 -1.6663514
0.27821776 -0.4045063 -0.41137868 -0.115998745 -0.08023111 0.1898032 -0.21490242 -0.45712298
-0.071534835 -0.3761823 1.6183085 -0.43348202 -0.68348265 0.28335312 0.273921 -3.0097132
0.31433523 -0.5500309 1.7002143 -0.30312258 -1.0217825 -0.76524234 -0.25302085 -3.0792317

decoder.linears.0.src_attn.linears.3.bias f4 [8]
00000000: 705f ca3d cd90 8cbe 81af 44bb caa8 36be
00000010: f412 6d3d 9b5b 9e3d a74d bfbd 6930 773c
0.098814845 -0.27454224 -0.0030011835 -0.17837825 0.057879403 0.07732316 -0.09340983 0.0150872255

decoder.linears.0.feed_forward.w1.weight f4 [200, 8]
00000000: b939 0fbe b3e6 c13d 6af2 1f3c da5c a53d
00000010: 1e56 89bd 9948 11be 70cd 23be 682e f5bd
00000020: 270b 80bd f6f9 10be 0463 26be 20f6 023e
00000030: 42e3 9e3d 19b3 a4bd 8588 e33b 170a 0cbe
00000040: c206 5bbd 0bb9 febd 4e5d d6bd fd0b 1a3e
00000050: b83f 833d 6415 ed3d 0bde 7abd 7cf4 fbbc
00000060: 0e0e 6dbc 4a8b 1e3e e2fa de3d 1501 f3bd
00000070: 5e29 4cbd a9db 5f3c 7754 223e 01d1 21be
00000080: 7e98 d3bd d9bd 163e 5cee 263e b277 e1bd
00000090: 78c7 123e 5b26 a93b a5d7 febd c37e 9f3d
000000a0: db37 8d3c 6b7f dd3b f802 11be 3ca3 f23d
000000b0: 9625 d4bd b9cb a33d f5c1 153e 8049 c6bd
000000c0: 27ab 3bbd 5811 45bd 7e96 17bd e040 fabd
000000d0: 0e80 17be 3960 8dbd 1fac 4a3c 07a0 14be
000000e0: 6000 1a3e c430 fd3d 3e0f fd3d 2972 003d
000000f0: 1ff7 26bd 83f6 0b3e 2aab ed3c 2f58 663c
00000100: 69d4 80be 9c6e 40be 6059 36bc 43a4 323e
00000110: 2ea4 fb3d 268d dc3a f94d 1e3e 0f10 673e
00000120: a867 c53c d84a 0f3e 434b c2bc d533 d7bd
00000130: 2b2a 68bd de41 1dbe 8664 6ebd 061f ac3c
00000140: d2e1 263e 5179 a8bd d86a e23d d1e2 92bc
00000150: bc6d bbbc 8167 213e e9d7 813d e9e7 143d
00000160: c6a2 203e dae7 933d 6f82 a33d 5cd7 9a3c
00000170: f3ce 85bd ed00 ad3d 0af8 bdbb c1f7 32be
00000180: ff12 80bd b53f 203e 2964 1b3e d80b 4abc
00000190: 9aff 14be 7e40 e2bd b043 29be c669 b7bc
000001a0: 585d db3d 39e0 25bd b65b c43d 1903 02be
000001b0: ecf7 0c3c 50af 9e3d 2c8d 033d 0632 e3bd
000001c0: bccb 363c 1d60 1e3e 39d8 30bc abc5 9b3d
000001d0: 8c43 013d 50b6 92bc c604 aebd b55f 30be
000001e0: 5af2 44bd 5bb8 353e b02c d83d e4dc 253e
000001f0: 6cca 55bc 2bbb 00be 4cce 17be 9d6b dfbd
00000200: 890e af3d 2c8d b43c 21e1 49bd 7b15 ffbd
00000210: 2004 ae3d 870b d43d d0c4 e3bd c42b 28bd
00000220: 120d e5bd 31f4 e53c 2dbc d93d a414 3ebd
00000230: 2475 76bd 2748 2f3d 4692 4a3e bf6f ad3d
00000240: c64d be3d 6a1c 22bd 50c3 2a3c a826 2d3b
00000250: 832e 1d3d e1de 5b3d 73c1 42be 3430 21be
00000260: e59e 433e 6d79 a13a 7a83 f23d 889d 05bb
00000270: a9b3 e0bd b144 15be cf1a a23d cbee 52be
00000280: 3b21 34be c5f9 be3d ee66 e43c 5a27 1dbe
00000290: 4668 2ebe cd65 4f3d 8c2a 853d 6705 333d
000002a0: ed25 71bd a513 90bc b4e1 0dbd a135 fc3d
000002b0: 91a9 b8bd 08cd 21be 1738 f3bd 66d9 c1bd
000002c0: 14ad 98bd 13a8 343e 4cf0 103e 1c65 20be
000002d0: f18a 003d 8853 1b3b ed18 09be 9a96 46bc
000002e0: e35f b33b 1e7b a4bc 2127 563c 3e7c a5bd
000002f0: 392f f83d b4ca 08be 9c2e 263d a1f4 cb3d
00000300: 65a9 27be e89d 77be dd0f c2bc c814 18be
00000310: 7cae d4bb cd4b b03c 5e59 1c3e 55b1 c03c
00000320: f1e5 0b3e a4a5 0bbe 71c1 f93d 0afc 27bd
00000330: 2d15 063e a78a 963d 7350 17be eb57 0f3c
00000340: 58af 2b3d 6c12 22bd 6ba1 283d ecb1 72bd
00000350: 17a1 85bd cd09 12be 1ef3 c03d bbe7 deba
00000360: 9376 ea3d 21ee 2e3d bdaa 7fbb 011a 2abd
00000370: 4714 0a3e 4bb1 bf3d d241 97bc fe0a ef3d
00000380: bee3 c5bd 1501 a5be 69d3 4dbd d7e8 e33d
00000390: 2fb0 8b3d 0f3e 68bd df7a 763e 0a9c 5bbd
000003a0: c0eb 3d3d 8c23 b13b 9541 c1bd c917 1fbe
000003b0: 94c3 f33d e5d3 c93c 1b05 35be 509f 32be
000003c0: fa89 653d 46b0 41be 63b1 f13d 7d75 eebd
000003d0: cfa5 30bd 8ce8 073e 3906 333e c53c dabc
000003e0: 6e81 e8bd 8592 34be 28ed c8bd 87bd 3d3e
000003f0: 497a ad3c b3b3 fa3d 4bfb f93d 1ba0 b4bd
-0.13986863 0.094678305 0.009762386 0.08074351 -0.06705879 -0.1418785 -0.15996337 -0.11971742
-0.06252127 -0.14157853 -0.16248709 0.12789202 0.0775819 -0.08041973 0.0069437646 -0.13675724
-0.05347324 -0.12437638 -0.10467015 0.15043636 0.06408638 0.115763456 -0.061246913 -0.030756228
-0.014468683 0.15482822 0.10887696 -0.11865441 -0.04984414 0.013663211 0.15852533 -0.15802385
-0.1033182 0.14720859 0.16301864 -0.11009158 0.14333904 0.005162043 -0.12443475 0.0778785
0.017238548 0.006759574 -0.14161289 0.11847541 -0.103587314 0.079978414 0.1462477 -0.09681988
-0.04581752 -0.048112243 -0.037008755 -0.12219405 -0.14794943 -0.06903119 0.012370138 -0.1451417
0.15039206 0.12362817 0.12356423 0.03135887 -0.040763017 0.13668256 0.029012281 0.014059111
-0.25162056 -0.18792194 -0.011129707 0.17445473 0.12287174 0.0016826733 0.15459432 0.2256472
0.024097279 0.13993394 -0.023717528 -0.10507933 -0.05668084 -0.15357158 -0.058201335 0.021010887
0.16297081 -0.08226264 0.11055535 -0.01793042 -0.022879474 0.1576214 0.0634001 0.03635398
0.15687093 0.072219566 0.079838626 0.01890152 -0.06533613 0.08447442 -0.005797391 -0.17477323
-0.06253623 0.15649302 0.15174927 -0.012331925 -0.1455063 -0.11047457 -0.16529727 -0.022389304
0.10711163 -0.04049704 0.09587805 -0.12696494 0.008604031 0.07748282 0.032117054 -0.110935256
0.0111569725 0.15466352 -0.010793739 0.076060615 0.03155856 -0.017909199 -0.08497004 -0.1722401
-0.048082687 0.17746107 0.105553985 0.16197544 -0.013048749 -0.12571399 -0.1482479 -0.109091975
0.08547694 0.022039972 -0.049286965 -0.12455269 0.084968805 0.10353761 -0.111215234 -0.041057363
-0.111841336 0.028070541 0.10631595 -0.046406403 -0.060170308 0.04279342 0.19782361 0.084685795
0.09292178 -0.03957788 0.010422543 0.0026420746 0.038374435 0.05367935 -0.19019108 -0.15741044
0.19103582 0.0012319513 0.118414834 -0.0020388085 -0.109717675 -0.14576985 0.079152696 -0.20598905
-0.17590801 0.093249835 0.027881112 -0.15347043 -0.17031965 0.050634194 0.06502256 0.043706324
-0.05887406 -0.017587492 -0.034639075 0.123149164 -0.09016717 -0.1580087 -0.11875933 -0.094652936
-0.07454887 0.1764224 0.14154166 -0.1566357 0.031382505 0.0023700912 -0.13388415 -0.012120867
0.005474077 -0.020078238 0.0130708525 -0.08080338 0.12118382 -0.13358575 0.040571794 0.09958769
-0.16373213 -0.2418133 -0.023689205 -0.14851677 -0.0064905267 0.02152052 0.15268466 0.023522059
0.13661934 -0.13637406 0.12195099 -0.041011848 0.13094015 0.073506646 -0.14776783 0.008748989
0.041915268 -0.03956835 0.041169565 -0.05925171 -0.06524866 -0.14261551 0.09421371 -0.0017006317
0.114483975 0.042707566 -0.003901168 -0.041528706 0.13484298 0.09359988 -0.018464003 0.116720185
-0.09662579 -0.32227388 -0.050250445 0.11128395 0.06820714 -0.05669981 0.24070309 -0.053615607
0.046367407 0.005405849 -0.09436337 -0.15536417 0.11902538 0.024637172 -0.17677729 -0.17443585
0.056039788 -0.18914899 0.11801412 -0.11643503 -0.043126877 0.13272303 0.17482843 -0.026640305
-0.11352812 -0.17634018 -0.09810859 0.1852933 0.021176474 0.12241306 0.122061335 -0.088196
